{"modelTopology": {"keras_version": "2.2.4", "backend": "tensorflow", "model_config": {"class_name": "Model", "config": {"name": "model_1", "layers": [{"name": "input0", "class_name": "InputLayer", "config": {"batch_input_shape": [null, 3, null, null], "dtype": "float32", "sparse": false, "name": "input0"}, "inbound_nodes": []}, {"name": "CNlgRPJC_pad", "class_name": "ZeroPadding2D", "config": {"name": "CNlgRPJC_pad", "trainable": true, "padding": [[1, 1], [1, 1]], "data_format": "channels_first"}, "inbound_nodes": [[["input0", 0, 0, {}]]]}, {"name": "CNlgRPJC", "class_name": "Conv2D", "config": {"name": "CNlgRPJC", "trainable": true, "filters": 32, "kernel_size": [3, 3], "strides": [2, 2], "padding": "valid", "data_format": "channels_first", "dilation_rate": [1, 1], "activation": "linear", "use_bias": false, "kernel_initializer": {"class_name": "Zeros", "config": {}}, "bias_initializer": {"class_name": "Zeros", "config": {}}, "kernel_regularizer": null, "bias_regularizer": null, "activity_regularizer": null, "kernel_constraint": null, "bias_constraint": null}, "inbound_nodes": [[["CNlgRPJC_pad", 0, 0, {}]]]}, {"name": "BNWdHKaO", "class_name": "BatchNormalization", "config": {"name": "BNWdHKaO", "trainable": true, "axis": 1, "momentum": 1.0, "epsilon": 1e-05, "center": true, "scale": true, "beta_initializer": {"class_name": "Zeros", "config": {}}, "gamma_initializer": {"class_name": "Ones", "config": {}}, "moving_mean_initializer": {"class_name": "Zeros", "config": {}}, "moving_variance_initializer": {"class_name": "Ones", "config": {}}, "beta_regularizer": null, "gamma_regularizer": null, "beta_constraint": null, "gamma_constraint": null}, "inbound_nodes": [[["CNlgRPJC", 0, 0, {}]]]}, {"name": "re_lu_1", "class_name": "ReLU", "config": {"name": "re_lu_1", "trainable": true, "max_value": 6.0, "negative_slope": 0.0, "threshold": 0.0}, "inbound_nodes": [[["BNWdHKaO", 0, 0, {}]]]}, {"name": "CAgwwVKN", "class_name": "Conv2D", "config": {"name": "CAgwwVKN", "trainable": true, "filters": 32, "kernel_size": [1, 1], "strides": [1, 1], "padding": "valid", "data_format": "channels_first", "dilation_rate": [1, 1], "activation": "linear", "use_bias": false, "kernel_initializer": {"class_name": "Zeros", "config": {}}, "bias_initializer": {"class_name": "Zeros", "config": {}}, "kernel_regularizer": null, "bias_regularizer": null, "activity_regularizer": null, "kernel_constraint": null, "bias_constraint": null}, "inbound_nodes": [[["re_lu_1", 0, 0, {}]]]}, {"name": "BNFwtUiR", "class_name": "BatchNormalization", "config": {"name": "BNFwtUiR", "trainable": true, "axis": 1, "momentum": 1.0, "epsilon": 1e-05, "center": true, "scale": true, "beta_initializer": {"class_name": "Zeros", "config": {}}, "gamma_initializer": {"class_name": "Ones", "config": {}}, "moving_mean_initializer": {"class_name": "Zeros", "config": {}}, "moving_variance_initializer": {"class_name": "Ones", "config": {}}, "beta_regularizer": null, "gamma_regularizer": null, "beta_constraint": null, "gamma_constraint": null}, "inbound_nodes": [[["CAgwwVKN", 0, 0, {}]]]}, {"name": "re_lu_2", "class_name": "ReLU", "config": {"name": "re_lu_2", "trainable": true, "max_value": 6.0, "negative_slope": 0.0, "threshold": 0.0}, "inbound_nodes": [[["BNFwtUiR", 0, 0, {}]]]}, {"name": "CySYcosy_pad", "class_name": "ZeroPadding2D", "config": {"name": "CySYcosy_pad", "trainable": true, "padding": [[1, 1], [1, 1]], "data_format": "channels_first"}, "inbound_nodes": [[["re_lu_2", 0, 0, {}]]]}, {"name": "depthwise_conv2d_1", "class_name": "DepthwiseConv2D", "config": {"name": "depthwise_conv2d_1", "trainable": true, "kernel_size": [3, 3], "strides": [1, 1], "padding": "valid", "data_format": "channels_first", "dilation_rate": [1, 1], "activation": "linear", "use_bias": false, "bias_initializer": {"class_name": "Zeros", "config": {}}, "bias_regularizer": null, "activity_regularizer": null, "bias_constraint": null, "depth_multiplier": 1, "depthwise_initializer": {"class_name": "VarianceScaling", "config": {"scale": 1.0, "mode": "fan_avg", "distribution": "uniform", "seed": null}}, "depthwise_regularizer": null, "depthwise_constraint": null}, "inbound_nodes": [[["CySYcosy_pad", 0, 0, {}]]]}, {"name": "BNVrxaSW", "class_name": "BatchNormalization", "config": {"name": "BNVrxaSW", "trainable": true, "axis": 1, "momentum": 1.0, "epsilon": 1e-05, "center": true, "scale": true, "beta_initializer": {"class_name": "Zeros", "config": {}}, "gamma_initializer": {"class_name": "Ones", "config": {}}, "moving_mean_initializer": {"class_name": "Zeros", "config": {}}, "moving_variance_initializer": {"class_name": "Ones", "config": {}}, "beta_regularizer": null, "gamma_regularizer": null, "beta_constraint": null, "gamma_constraint": null}, "inbound_nodes": [[["depthwise_conv2d_1", 0, 0, {}]]]}, {"name": "re_lu_3", "class_name": "ReLU", "config": {"name": "re_lu_3", "trainable": true, "max_value": 6.0, "negative_slope": 0.0, "threshold": 0.0}, "inbound_nodes": [[["BNVrxaSW", 0, 0, {}]]]}, {"name": "CgPogSqb", "class_name": "Conv2D", "config": {"name": "CgPogSqb", "trainable": true, "filters": 16, "kernel_size": [1, 1], "strides": [1, 1], "padding": "valid", "data_format": "channels_first", "dilation_rate": [1, 1], "activation": "linear", "use_bias": false, "kernel_initializer": {"class_name": "Zeros", "config": {}}, "bias_initializer": {"class_name": "Zeros", "config": {}}, "kernel_regularizer": null, "bias_regularizer": null, "activity_regularizer": null, "kernel_constraint": null, "bias_constraint": null}, "inbound_nodes": [[["re_lu_3", 0, 0, {}]]]}, {"name": "BNFAsIzg", "class_name": "BatchNormalization", "config": {"name": "BNFAsIzg", "trainable": true, "axis": 1, "momentum": 1.0, "epsilon": 1e-05, "center": true, "scale": true, "beta_initializer": {"class_name": "Zeros", "config": {}}, "gamma_initializer": {"class_name": "Ones", "config": {}}, "moving_mean_initializer": {"class_name": "Zeros", "config": {}}, "moving_variance_initializer": {"class_name": "Ones", "config": {}}, "beta_regularizer": null, "gamma_regularizer": null, "beta_constraint": null, "gamma_constraint": null}, "inbound_nodes": [[["CgPogSqb", 0, 0, {}]]]}, {"name": "CglENUcO", "class_name": "Conv2D", "config": {"name": "CglENUcO", "trainable": true, "filters": 96, "kernel_size": [1, 1], "strides": [1, 1], "padding": "valid", "data_format": "channels_first", "dilation_rate": [1, 1], "activation": "linear", "use_bias": false, "kernel_initializer": {"class_name": "Zeros", "config": {}}, "bias_initializer": {"class_name": "Zeros", "config": {}}, "kernel_regularizer": null, "bias_regularizer": null, "activity_regularizer": null, "kernel_constraint": null, "bias_constraint": null}, "inbound_nodes": [[["BNFAsIzg", 0, 0, {}]]]}, {"name": "BNihzbZY", "class_name": "BatchNormalization", "config": {"name": "BNihzbZY", "trainable": true, "axis": 1, "momentum": 1.0, "epsilon": 1e-05, "center": true, "scale": true, "beta_initializer": {"class_name": "Zeros", "config": {}}, "gamma_initializer": {"class_name": "Ones", "config": {}}, "moving_mean_initializer": {"class_name": "Zeros", "config": {}}, "moving_variance_initializer": {"class_name": "Ones", "config": {}}, "beta_regularizer": null, "gamma_regularizer": null, "beta_constraint": null, "gamma_constraint": null}, "inbound_nodes": [[["CglENUcO", 0, 0, {}]]]}, {"name": "re_lu_4", "class_name": "ReLU", "config": {"name": "re_lu_4", "trainable": true, "max_value": 6.0, "negative_slope": 0.0, "threshold": 0.0}, "inbound_nodes": [[["BNihzbZY", 0, 0, {}]]]}, {"name": "CVOVLkSa_pad", "class_name": "ZeroPadding2D", "config": {"name": "CVOVLkSa_pad", "trainable": true, "padding": [[1, 1], [1, 1]], "data_format": "channels_first"}, "inbound_nodes": [[["re_lu_4", 0, 0, {}]]]}, {"name": "depthwise_conv2d_2", "class_name": "DepthwiseConv2D", "config": {"name": "depthwise_conv2d_2", "trainable": true, "kernel_size": [3, 3], "strides": [2, 2], "padding": "valid", "data_format": "channels_first", "dilation_rate": [1, 1], "activation": "linear", "use_bias": false, "bias_initializer": {"class_name": "Zeros", "config": {}}, "bias_regularizer": null, "activity_regularizer": null, "bias_constraint": null, "depth_multiplier": 1, "depthwise_initializer": {"class_name": "VarianceScaling", "config": {"scale": 1.0, "mode": "fan_avg", "distribution": "uniform", "seed": null}}, "depthwise_regularizer": null, "depthwise_constraint": null}, "inbound_nodes": [[["CVOVLkSa_pad", 0, 0, {}]]]}, {"name": "BNpQQfPq", "class_name": "BatchNormalization", "config": {"name": "BNpQQfPq", "trainable": true, "axis": 1, "momentum": 1.0, "epsilon": 1e-05, "center": true, "scale": true, "beta_initializer": {"class_name": "Zeros", "config": {}}, "gamma_initializer": {"class_name": "Ones", "config": {}}, "moving_mean_initializer": {"class_name": "Zeros", "config": {}}, "moving_variance_initializer": {"class_name": "Ones", "config": {}}, "beta_regularizer": null, "gamma_regularizer": null, "beta_constraint": null, "gamma_constraint": null}, "inbound_nodes": [[["depthwise_conv2d_2", 0, 0, {}]]]}, {"name": "re_lu_5", "class_name": "ReLU", "config": {"name": "re_lu_5", "trainable": true, "max_value": 6.0, "negative_slope": 0.0, "threshold": 0.0}, "inbound_nodes": [[["BNpQQfPq", 0, 0, {}]]]}, {"name": "CyMnxFYP", "class_name": "Conv2D", "config": {"name": "CyMnxFYP", "trainable": true, "filters": 24, "kernel_size": [1, 1], "strides": [1, 1], "padding": "valid", "data_format": "channels_first", "dilation_rate": [1, 1], "activation": "linear", "use_bias": false, "kernel_initializer": {"class_name": "Zeros", "config": {}}, "bias_initializer": {"class_name": "Zeros", "config": {}}, "kernel_regularizer": null, "bias_regularizer": null, "activity_regularizer": null, "kernel_constraint": null, "bias_constraint": null}, "inbound_nodes": [[["re_lu_5", 0, 0, {}]]]}, {"name": "BNHVfSno", "class_name": "BatchNormalization", "config": {"name": "BNHVfSno", "trainable": true, "axis": 1, "momentum": 1.0, "epsilon": 1e-05, "center": true, "scale": true, "beta_initializer": {"class_name": "Zeros", "config": {}}, "gamma_initializer": {"class_name": "Ones", "config": {}}, "moving_mean_initializer": {"class_name": "Zeros", "config": {}}, "moving_variance_initializer": {"class_name": "Ones", "config": {}}, "beta_regularizer": null, "gamma_regularizer": null, "beta_constraint": null, "gamma_constraint": null}, "inbound_nodes": [[["CyMnxFYP", 0, 0, {}]]]}, {"name": "CcSZduYO", "class_name": "Conv2D", "config": {"name": "CcSZduYO", "trainable": true, "filters": 144, "kernel_size": [1, 1], "strides": [1, 1], "padding": "valid", "data_format": "channels_first", "dilation_rate": [1, 1], "activation": "linear", "use_bias": false, "kernel_initializer": {"class_name": "Zeros", "config": {}}, "bias_initializer": {"class_name": "Zeros", "config": {}}, "kernel_regularizer": null, "bias_regularizer": null, "activity_regularizer": null, "kernel_constraint": null, "bias_constraint": null}, "inbound_nodes": [[["BNHVfSno", 0, 0, {}]]]}, {"name": "BNQBYGnP", "class_name": "BatchNormalization", "config": {"name": "BNQBYGnP", "trainable": true, "axis": 1, "momentum": 1.0, "epsilon": 1e-05, "center": true, "scale": true, "beta_initializer": {"class_name": "Zeros", "config": {}}, "gamma_initializer": {"class_name": "Ones", "config": {}}, "moving_mean_initializer": {"class_name": "Zeros", "config": {}}, "moving_variance_initializer": {"class_name": "Ones", "config": {}}, "beta_regularizer": null, "gamma_regularizer": null, "beta_constraint": null, "gamma_constraint": null}, "inbound_nodes": [[["CcSZduYO", 0, 0, {}]]]}, {"name": "re_lu_6", "class_name": "ReLU", "config": {"name": "re_lu_6", "trainable": true, "max_value": 6.0, "negative_slope": 0.0, "threshold": 0.0}, "inbound_nodes": [[["BNQBYGnP", 0, 0, {}]]]}, {"name": "CwEAekaf_pad", "class_name": "ZeroPadding2D", "config": {"name": "CwEAekaf_pad", "trainable": true, "padding": [[1, 1], [1, 1]], "data_format": "channels_first"}, "inbound_nodes": [[["re_lu_6", 0, 0, {}]]]}, {"name": "depthwise_conv2d_3", "class_name": "DepthwiseConv2D", "config": {"name": "depthwise_conv2d_3", "trainable": true, "kernel_size": [3, 3], "strides": [1, 1], "padding": "valid", "data_format": "channels_first", "dilation_rate": [1, 1], "activation": "linear", "use_bias": false, "bias_initializer": {"class_name": "Zeros", "config": {}}, "bias_regularizer": null, "activity_regularizer": null, "bias_constraint": null, "depth_multiplier": 1, "depthwise_initializer": {"class_name": "VarianceScaling", "config": {"scale": 1.0, "mode": "fan_avg", "distribution": "uniform", "seed": null}}, "depthwise_regularizer": null, "depthwise_constraint": null}, "inbound_nodes": [[["CwEAekaf_pad", 0, 0, {}]]]}, {"name": "BNEmGIAt", "class_name": "BatchNormalization", "config": {"name": "BNEmGIAt", "trainable": true, "axis": 1, "momentum": 1.0, "epsilon": 1e-05, "center": true, "scale": true, "beta_initializer": {"class_name": "Zeros", "config": {}}, "gamma_initializer": {"class_name": "Ones", "config": {}}, "moving_mean_initializer": {"class_name": "Zeros", "config": {}}, "moving_variance_initializer": {"class_name": "Ones", "config": {}}, "beta_regularizer": null, "gamma_regularizer": null, "beta_constraint": null, "gamma_constraint": null}, "inbound_nodes": [[["depthwise_conv2d_3", 0, 0, {}]]]}, {"name": "re_lu_7", "class_name": "ReLU", "config": {"name": "re_lu_7", "trainable": true, "max_value": 6.0, "negative_slope": 0.0, "threshold": 0.0}, "inbound_nodes": [[["BNEmGIAt", 0, 0, {}]]]}, {"name": "CxgmVkUJ", "class_name": "Conv2D", "config": {"name": "CxgmVkUJ", "trainable": true, "filters": 24, "kernel_size": [1, 1], "strides": [1, 1], "padding": "valid", "data_format": "channels_first", "dilation_rate": [1, 1], "activation": "linear", "use_bias": false, "kernel_initializer": {"class_name": "Zeros", "config": {}}, "bias_initializer": {"class_name": "Zeros", "config": {}}, "kernel_regularizer": null, "bias_regularizer": null, "activity_regularizer": null, "kernel_constraint": null, "bias_constraint": null}, "inbound_nodes": [[["re_lu_7", 0, 0, {}]]]}, {"name": "BNwiZRGV", "class_name": "BatchNormalization", "config": {"name": "BNwiZRGV", "trainable": true, "axis": 1, "momentum": 1.0, "epsilon": 1e-05, "center": true, "scale": true, "beta_initializer": {"class_name": "Zeros", "config": {}}, "gamma_initializer": {"class_name": "Ones", "config": {}}, "moving_mean_initializer": {"class_name": "Zeros", "config": {}}, "moving_variance_initializer": {"class_name": "Ones", "config": {}}, "beta_regularizer": null, "gamma_regularizer": null, "beta_constraint": null, "gamma_constraint": null}, "inbound_nodes": [[["CxgmVkUJ", 0, 0, {}]]]}, {"name": "ADcXQgiU", "class_name": "Add", "config": {"name": "ADcXQgiU", "trainable": true}, "inbound_nodes": [[["BNwiZRGV", 0, 0, {}], ["BNHVfSno", 0, 0, {}]]]}, {"name": "ClPTZbff", "class_name": "Conv2D", "config": {"name": "ClPTZbff", "trainable": true, "filters": 144, "kernel_size": [1, 1], "strides": [1, 1], "padding": "valid", "data_format": "channels_first", "dilation_rate": [1, 1], "activation": "linear", "use_bias": false, "kernel_initializer": {"class_name": "Zeros", "config": {}}, "bias_initializer": {"class_name": "Zeros", "config": {}}, "kernel_regularizer": null, "bias_regularizer": null, "activity_regularizer": null, "kernel_constraint": null, "bias_constraint": null}, "inbound_nodes": [[["ADcXQgiU", 0, 0, {}]]]}, {"name": "BNkXsfSe", "class_name": "BatchNormalization", "config": {"name": "BNkXsfSe", "trainable": true, "axis": 1, "momentum": 1.0, "epsilon": 1e-05, "center": true, "scale": true, "beta_initializer": {"class_name": "Zeros", "config": {}}, "gamma_initializer": {"class_name": "Ones", "config": {}}, "moving_mean_initializer": {"class_name": "Zeros", "config": {}}, "moving_variance_initializer": {"class_name": "Ones", "config": {}}, "beta_regularizer": null, "gamma_regularizer": null, "beta_constraint": null, "gamma_constraint": null}, "inbound_nodes": [[["ClPTZbff", 0, 0, {}]]]}, {"name": "re_lu_8", "class_name": "ReLU", "config": {"name": "re_lu_8", "trainable": true, "max_value": 6.0, "negative_slope": 0.0, "threshold": 0.0}, "inbound_nodes": [[["BNkXsfSe", 0, 0, {}]]]}, {"name": "CfyhSXSj_pad", "class_name": "ZeroPadding2D", "config": {"name": "CfyhSXSj_pad", "trainable": true, "padding": [[1, 1], [1, 1]], "data_format": "channels_first"}, "inbound_nodes": [[["re_lu_8", 0, 0, {}]]]}, {"name": "depthwise_conv2d_4", "class_name": "DepthwiseConv2D", "config": {"name": "depthwise_conv2d_4", "trainable": true, "kernel_size": [3, 3], "strides": [2, 2], "padding": "valid", "data_format": "channels_first", "dilation_rate": [1, 1], "activation": "linear", "use_bias": false, "bias_initializer": {"class_name": "Zeros", "config": {}}, "bias_regularizer": null, "activity_regularizer": null, "bias_constraint": null, "depth_multiplier": 1, "depthwise_initializer": {"class_name": "VarianceScaling", "config": {"scale": 1.0, "mode": "fan_avg", "distribution": "uniform", "seed": null}}, "depthwise_regularizer": null, "depthwise_constraint": null}, "inbound_nodes": [[["CfyhSXSj_pad", 0, 0, {}]]]}, {"name": "BNUYPJtj", "class_name": "BatchNormalization", "config": {"name": "BNUYPJtj", "trainable": true, "axis": 1, "momentum": 1.0, "epsilon": 1e-05, "center": true, "scale": true, "beta_initializer": {"class_name": "Zeros", "config": {}}, "gamma_initializer": {"class_name": "Ones", "config": {}}, "moving_mean_initializer": {"class_name": "Zeros", "config": {}}, "moving_variance_initializer": {"class_name": "Ones", "config": {}}, "beta_regularizer": null, "gamma_regularizer": null, "beta_constraint": null, "gamma_constraint": null}, "inbound_nodes": [[["depthwise_conv2d_4", 0, 0, {}]]]}, {"name": "re_lu_9", "class_name": "ReLU", "config": {"name": "re_lu_9", "trainable": true, "max_value": 6.0, "negative_slope": 0.0, "threshold": 0.0}, "inbound_nodes": [[["BNUYPJtj", 0, 0, {}]]]}, {"name": "ClsxvCRw", "class_name": "Conv2D", "config": {"name": "ClsxvCRw", "trainable": true, "filters": 32, "kernel_size": [1, 1], "strides": [1, 1], "padding": "valid", "data_format": "channels_first", "dilation_rate": [1, 1], "activation": "linear", "use_bias": false, "kernel_initializer": {"class_name": "Zeros", "config": {}}, "bias_initializer": {"class_name": "Zeros", "config": {}}, "kernel_regularizer": null, "bias_regularizer": null, "activity_regularizer": null, "kernel_constraint": null, "bias_constraint": null}, "inbound_nodes": [[["re_lu_9", 0, 0, {}]]]}, {"name": "BNYIxAWZ", "class_name": "BatchNormalization", "config": {"name": "BNYIxAWZ", "trainable": true, "axis": 1, "momentum": 1.0, "epsilon": 1e-05, "center": true, "scale": true, "beta_initializer": {"class_name": "Zeros", "config": {}}, "gamma_initializer": {"class_name": "Ones", "config": {}}, "moving_mean_initializer": {"class_name": "Zeros", "config": {}}, "moving_variance_initializer": {"class_name": "Ones", "config": {}}, "beta_regularizer": null, "gamma_regularizer": null, "beta_constraint": null, "gamma_constraint": null}, "inbound_nodes": [[["ClsxvCRw", 0, 0, {}]]]}, {"name": "CbhAvdaU", "class_name": "Conv2D", "config": {"name": "CbhAvdaU", "trainable": true, "filters": 192, "kernel_size": [1, 1], "strides": [1, 1], "padding": "valid", "data_format": "channels_first", "dilation_rate": [1, 1], "activation": "linear", "use_bias": false, "kernel_initializer": {"class_name": "Zeros", "config": {}}, "bias_initializer": {"class_name": "Zeros", "config": {}}, "kernel_regularizer": null, "bias_regularizer": null, "activity_regularizer": null, "kernel_constraint": null, "bias_constraint": null}, "inbound_nodes": [[["BNYIxAWZ", 0, 0, {}]]]}, {"name": "BNeeIjrG", "class_name": "BatchNormalization", "config": {"name": "BNeeIjrG", "trainable": true, "axis": 1, "momentum": 1.0, "epsilon": 1e-05, "center": true, "scale": true, "beta_initializer": {"class_name": "Zeros", "config": {}}, "gamma_initializer": {"class_name": "Ones", "config": {}}, "moving_mean_initializer": {"class_name": "Zeros", "config": {}}, "moving_variance_initializer": {"class_name": "Ones", "config": {}}, "beta_regularizer": null, "gamma_regularizer": null, "beta_constraint": null, "gamma_constraint": null}, "inbound_nodes": [[["CbhAvdaU", 0, 0, {}]]]}, {"name": "re_lu_10", "class_name": "ReLU", "config": {"name": "re_lu_10", "trainable": true, "max_value": 6.0, "negative_slope": 0.0, "threshold": 0.0}, "inbound_nodes": [[["BNeeIjrG", 0, 0, {}]]]}, {"name": "COfeaklK_pad", "class_name": "ZeroPadding2D", "config": {"name": "COfeaklK_pad", "trainable": true, "padding": [[1, 1], [1, 1]], "data_format": "channels_first"}, "inbound_nodes": [[["re_lu_10", 0, 0, {}]]]}, {"name": "depthwise_conv2d_5", "class_name": "DepthwiseConv2D", "config": {"name": "depthwise_conv2d_5", "trainable": true, "kernel_size": [3, 3], "strides": [1, 1], "padding": "valid", "data_format": "channels_first", "dilation_rate": [1, 1], "activation": "linear", "use_bias": false, "bias_initializer": {"class_name": "Zeros", "config": {}}, "bias_regularizer": null, "activity_regularizer": null, "bias_constraint": null, "depth_multiplier": 1, "depthwise_initializer": {"class_name": "VarianceScaling", "config": {"scale": 1.0, "mode": "fan_avg", "distribution": "uniform", "seed": null}}, "depthwise_regularizer": null, "depthwise_constraint": null}, "inbound_nodes": [[["COfeaklK_pad", 0, 0, {}]]]}, {"name": "BNUbgpyZ", "class_name": "BatchNormalization", "config": {"name": "BNUbgpyZ", "trainable": true, "axis": 1, "momentum": 1.0, "epsilon": 1e-05, "center": true, "scale": true, "beta_initializer": {"class_name": "Zeros", "config": {}}, "gamma_initializer": {"class_name": "Ones", "config": {}}, "moving_mean_initializer": {"class_name": "Zeros", "config": {}}, "moving_variance_initializer": {"class_name": "Ones", "config": {}}, "beta_regularizer": null, "gamma_regularizer": null, "beta_constraint": null, "gamma_constraint": null}, "inbound_nodes": [[["depthwise_conv2d_5", 0, 0, {}]]]}, {"name": "re_lu_11", "class_name": "ReLU", "config": {"name": "re_lu_11", "trainable": true, "max_value": 6.0, "negative_slope": 0.0, "threshold": 0.0}, "inbound_nodes": [[["BNUbgpyZ", 0, 0, {}]]]}, {"name": "CqfXJpta", "class_name": "Conv2D", "config": {"name": "CqfXJpta", "trainable": true, "filters": 32, "kernel_size": [1, 1], "strides": [1, 1], "padding": "valid", "data_format": "channels_first", "dilation_rate": [1, 1], "activation": "linear", "use_bias": false, "kernel_initializer": {"class_name": "Zeros", "config": {}}, "bias_initializer": {"class_name": "Zeros", "config": {}}, "kernel_regularizer": null, "bias_regularizer": null, "activity_regularizer": null, "kernel_constraint": null, "bias_constraint": null}, "inbound_nodes": [[["re_lu_11", 0, 0, {}]]]}, {"name": "BNpmmvwQ", "class_name": "BatchNormalization", "config": {"name": "BNpmmvwQ", "trainable": true, "axis": 1, "momentum": 1.0, "epsilon": 1e-05, "center": true, "scale": true, "beta_initializer": {"class_name": "Zeros", "config": {}}, "gamma_initializer": {"class_name": "Ones", "config": {}}, "moving_mean_initializer": {"class_name": "Zeros", "config": {}}, "moving_variance_initializer": {"class_name": "Ones", "config": {}}, "beta_regularizer": null, "gamma_regularizer": null, "beta_constraint": null, "gamma_constraint": null}, "inbound_nodes": [[["CqfXJpta", 0, 0, {}]]]}, {"name": "AdGLLxGT", "class_name": "Add", "config": {"name": "AdGLLxGT", "trainable": true}, "inbound_nodes": [[["BNpmmvwQ", 0, 0, {}], ["BNYIxAWZ", 0, 0, {}]]]}, {"name": "COkUnLHp", "class_name": "Conv2D", "config": {"name": "COkUnLHp", "trainable": true, "filters": 192, "kernel_size": [1, 1], "strides": [1, 1], "padding": "valid", "data_format": "channels_first", "dilation_rate": [1, 1], "activation": "linear", "use_bias": false, "kernel_initializer": {"class_name": "Zeros", "config": {}}, "bias_initializer": {"class_name": "Zeros", "config": {}}, "kernel_regularizer": null, "bias_regularizer": null, "activity_regularizer": null, "kernel_constraint": null, "bias_constraint": null}, "inbound_nodes": [[["AdGLLxGT", 0, 0, {}]]]}, {"name": "BNLJEqBy", "class_name": "BatchNormalization", "config": {"name": "BNLJEqBy", "trainable": true, "axis": 1, "momentum": 1.0, "epsilon": 1e-05, "center": true, "scale": true, "beta_initializer": {"class_name": "Zeros", "config": {}}, "gamma_initializer": {"class_name": "Ones", "config": {}}, "moving_mean_initializer": {"class_name": "Zeros", "config": {}}, "moving_variance_initializer": {"class_name": "Ones", "config": {}}, "beta_regularizer": null, "gamma_regularizer": null, "beta_constraint": null, "gamma_constraint": null}, "inbound_nodes": [[["COkUnLHp", 0, 0, {}]]]}, {"name": "re_lu_12", "class_name": "ReLU", "config": {"name": "re_lu_12", "trainable": true, "max_value": 6.0, "negative_slope": 0.0, "threshold": 0.0}, "inbound_nodes": [[["BNLJEqBy", 0, 0, {}]]]}, {"name": "CQsZOtyl_pad", "class_name": "ZeroPadding2D", "config": {"name": "CQsZOtyl_pad", "trainable": true, "padding": [[1, 1], [1, 1]], "data_format": "channels_first"}, "inbound_nodes": [[["re_lu_12", 0, 0, {}]]]}, {"name": "depthwise_conv2d_6", "class_name": "DepthwiseConv2D", "config": {"name": "depthwise_conv2d_6", "trainable": true, "kernel_size": [3, 3], "strides": [1, 1], "padding": "valid", "data_format": "channels_first", "dilation_rate": [1, 1], "activation": "linear", "use_bias": false, "bias_initializer": {"class_name": "Zeros", "config": {}}, "bias_regularizer": null, "activity_regularizer": null, "bias_constraint": null, "depth_multiplier": 1, "depthwise_initializer": {"class_name": "VarianceScaling", "config": {"scale": 1.0, "mode": "fan_avg", "distribution": "uniform", "seed": null}}, "depthwise_regularizer": null, "depthwise_constraint": null}, "inbound_nodes": [[["CQsZOtyl_pad", 0, 0, {}]]]}, {"name": "BNoellKZ", "class_name": "BatchNormalization", "config": {"name": "BNoellKZ", "trainable": true, "axis": 1, "momentum": 1.0, "epsilon": 1e-05, "center": true, "scale": true, "beta_initializer": {"class_name": "Zeros", "config": {}}, "gamma_initializer": {"class_name": "Ones", "config": {}}, "moving_mean_initializer": {"class_name": "Zeros", "config": {}}, "moving_variance_initializer": {"class_name": "Ones", "config": {}}, "beta_regularizer": null, "gamma_regularizer": null, "beta_constraint": null, "gamma_constraint": null}, "inbound_nodes": [[["depthwise_conv2d_6", 0, 0, {}]]]}, {"name": "re_lu_13", "class_name": "ReLU", "config": {"name": "re_lu_13", "trainable": true, "max_value": 6.0, "negative_slope": 0.0, "threshold": 0.0}, "inbound_nodes": [[["BNoellKZ", 0, 0, {}]]]}, {"name": "CZmYjfPv", "class_name": "Conv2D", "config": {"name": "CZmYjfPv", "trainable": true, "filters": 32, "kernel_size": [1, 1], "strides": [1, 1], "padding": "valid", "data_format": "channels_first", "dilation_rate": [1, 1], "activation": "linear", "use_bias": false, "kernel_initializer": {"class_name": "Zeros", "config": {}}, "bias_initializer": {"class_name": "Zeros", "config": {}}, "kernel_regularizer": null, "bias_regularizer": null, "activity_regularizer": null, "kernel_constraint": null, "bias_constraint": null}, "inbound_nodes": [[["re_lu_13", 0, 0, {}]]]}, {"name": "BNjjJQCO", "class_name": "BatchNormalization", "config": {"name": "BNjjJQCO", "trainable": true, "axis": 1, "momentum": 1.0, "epsilon": 1e-05, "center": true, "scale": true, "beta_initializer": {"class_name": "Zeros", "config": {}}, "gamma_initializer": {"class_name": "Ones", "config": {}}, "moving_mean_initializer": {"class_name": "Zeros", "config": {}}, "moving_variance_initializer": {"class_name": "Ones", "config": {}}, "beta_regularizer": null, "gamma_regularizer": null, "beta_constraint": null, "gamma_constraint": null}, "inbound_nodes": [[["CZmYjfPv", 0, 0, {}]]]}, {"name": "AQOwINuF", "class_name": "Add", "config": {"name": "AQOwINuF", "trainable": true}, "inbound_nodes": [[["BNjjJQCO", 0, 0, {}], ["AdGLLxGT", 0, 0, {}]]]}, {"name": "CcKApSSK", "class_name": "Conv2D", "config": {"name": "CcKApSSK", "trainable": true, "filters": 192, "kernel_size": [1, 1], "strides": [1, 1], "padding": "valid", "data_format": "channels_first", "dilation_rate": [1, 1], "activation": "linear", "use_bias": false, "kernel_initializer": {"class_name": "Zeros", "config": {}}, "bias_initializer": {"class_name": "Zeros", "config": {}}, "kernel_regularizer": null, "bias_regularizer": null, "activity_regularizer": null, "kernel_constraint": null, "bias_constraint": null}, "inbound_nodes": [[["AQOwINuF", 0, 0, {}]]]}, {"name": "BNKgvJng", "class_name": "BatchNormalization", "config": {"name": "BNKgvJng", "trainable": true, "axis": 1, "momentum": 1.0, "epsilon": 1e-05, "center": true, "scale": true, "beta_initializer": {"class_name": "Zeros", "config": {}}, "gamma_initializer": {"class_name": "Ones", "config": {}}, "moving_mean_initializer": {"class_name": "Zeros", "config": {}}, "moving_variance_initializer": {"class_name": "Ones", "config": {}}, "beta_regularizer": null, "gamma_regularizer": null, "beta_constraint": null, "gamma_constraint": null}, "inbound_nodes": [[["CcKApSSK", 0, 0, {}]]]}, {"name": "re_lu_14", "class_name": "ReLU", "config": {"name": "re_lu_14", "trainable": true, "max_value": 6.0, "negative_slope": 0.0, "threshold": 0.0}, "inbound_nodes": [[["BNKgvJng", 0, 0, {}]]]}, {"name": "CuJdfeYr_pad", "class_name": "ZeroPadding2D", "config": {"name": "CuJdfeYr_pad", "trainable": true, "padding": [[1, 1], [1, 1]], "data_format": "channels_first"}, "inbound_nodes": [[["re_lu_14", 0, 0, {}]]]}, {"name": "depthwise_conv2d_7", "class_name": "DepthwiseConv2D", "config": {"name": "depthwise_conv2d_7", "trainable": true, "kernel_size": [3, 3], "strides": [2, 2], "padding": "valid", "data_format": "channels_first", "dilation_rate": [1, 1], "activation": "linear", "use_bias": false, "bias_initializer": {"class_name": "Zeros", "config": {}}, "bias_regularizer": null, "activity_regularizer": null, "bias_constraint": null, "depth_multiplier": 1, "depthwise_initializer": {"class_name": "VarianceScaling", "config": {"scale": 1.0, "mode": "fan_avg", "distribution": "uniform", "seed": null}}, "depthwise_regularizer": null, "depthwise_constraint": null}, "inbound_nodes": [[["CuJdfeYr_pad", 0, 0, {}]]]}, {"name": "BNuVxJHY", "class_name": "BatchNormalization", "config": {"name": "BNuVxJHY", "trainable": true, "axis": 1, "momentum": 1.0, "epsilon": 1e-05, "center": true, "scale": true, "beta_initializer": {"class_name": "Zeros", "config": {}}, "gamma_initializer": {"class_name": "Ones", "config": {}}, "moving_mean_initializer": {"class_name": "Zeros", "config": {}}, "moving_variance_initializer": {"class_name": "Ones", "config": {}}, "beta_regularizer": null, "gamma_regularizer": null, "beta_constraint": null, "gamma_constraint": null}, "inbound_nodes": [[["depthwise_conv2d_7", 0, 0, {}]]]}, {"name": "re_lu_15", "class_name": "ReLU", "config": {"name": "re_lu_15", "trainable": true, "max_value": 6.0, "negative_slope": 0.0, "threshold": 0.0}, "inbound_nodes": [[["BNuVxJHY", 0, 0, {}]]]}, {"name": "CGQLBQXu", "class_name": "Conv2D", "config": {"name": "CGQLBQXu", "trainable": true, "filters": 64, "kernel_size": [1, 1], "strides": [1, 1], "padding": "valid", "data_format": "channels_first", "dilation_rate": [1, 1], "activation": "linear", "use_bias": false, "kernel_initializer": {"class_name": "Zeros", "config": {}}, "bias_initializer": {"class_name": "Zeros", "config": {}}, "kernel_regularizer": null, "bias_regularizer": null, "activity_regularizer": null, "kernel_constraint": null, "bias_constraint": null}, "inbound_nodes": [[["re_lu_15", 0, 0, {}]]]}, {"name": "BNaUGntw", "class_name": "BatchNormalization", "config": {"name": "BNaUGntw", "trainable": true, "axis": 1, "momentum": 1.0, "epsilon": 1e-05, "center": true, "scale": true, "beta_initializer": {"class_name": "Zeros", "config": {}}, "gamma_initializer": {"class_name": "Ones", "config": {}}, "moving_mean_initializer": {"class_name": "Zeros", "config": {}}, "moving_variance_initializer": {"class_name": "Ones", "config": {}}, "beta_regularizer": null, "gamma_regularizer": null, "beta_constraint": null, "gamma_constraint": null}, "inbound_nodes": [[["CGQLBQXu", 0, 0, {}]]]}, {"name": "CGAqWiPe", "class_name": "Conv2D", "config": {"name": "CGAqWiPe", "trainable": true, "filters": 384, "kernel_size": [1, 1], "strides": [1, 1], "padding": "valid", "data_format": "channels_first", "dilation_rate": [1, 1], "activation": "linear", "use_bias": false, "kernel_initializer": {"class_name": "Zeros", "config": {}}, "bias_initializer": {"class_name": "Zeros", "config": {}}, "kernel_regularizer": null, "bias_regularizer": null, "activity_regularizer": null, "kernel_constraint": null, "bias_constraint": null}, "inbound_nodes": [[["BNaUGntw", 0, 0, {}]]]}, {"name": "BNEKKinE", "class_name": "BatchNormalization", "config": {"name": "BNEKKinE", "trainable": true, "axis": 1, "momentum": 1.0, "epsilon": 1e-05, "center": true, "scale": true, "beta_initializer": {"class_name": "Zeros", "config": {}}, "gamma_initializer": {"class_name": "Ones", "config": {}}, "moving_mean_initializer": {"class_name": "Zeros", "config": {}}, "moving_variance_initializer": {"class_name": "Ones", "config": {}}, "beta_regularizer": null, "gamma_regularizer": null, "beta_constraint": null, "gamma_constraint": null}, "inbound_nodes": [[["CGAqWiPe", 0, 0, {}]]]}, {"name": "re_lu_16", "class_name": "ReLU", "config": {"name": "re_lu_16", "trainable": true, "max_value": 6.0, "negative_slope": 0.0, "threshold": 0.0}, "inbound_nodes": [[["BNEKKinE", 0, 0, {}]]]}, {"name": "CECEvxqf_pad", "class_name": "ZeroPadding2D", "config": {"name": "CECEvxqf_pad", "trainable": true, "padding": [[1, 1], [1, 1]], "data_format": "channels_first"}, "inbound_nodes": [[["re_lu_16", 0, 0, {}]]]}, {"name": "depthwise_conv2d_8", "class_name": "DepthwiseConv2D", "config": {"name": "depthwise_conv2d_8", "trainable": true, "kernel_size": [3, 3], "strides": [1, 1], "padding": "valid", "data_format": "channels_first", "dilation_rate": [1, 1], "activation": "linear", "use_bias": false, "bias_initializer": {"class_name": "Zeros", "config": {}}, "bias_regularizer": null, "activity_regularizer": null, "bias_constraint": null, "depth_multiplier": 1, "depthwise_initializer": {"class_name": "VarianceScaling", "config": {"scale": 1.0, "mode": "fan_avg", "distribution": "uniform", "seed": null}}, "depthwise_regularizer": null, "depthwise_constraint": null}, "inbound_nodes": [[["CECEvxqf_pad", 0, 0, {}]]]}, {"name": "BNxUEeWy", "class_name": "BatchNormalization", "config": {"name": "BNxUEeWy", "trainable": true, "axis": 1, "momentum": 1.0, "epsilon": 1e-05, "center": true, "scale": true, "beta_initializer": {"class_name": "Zeros", "config": {}}, "gamma_initializer": {"class_name": "Ones", "config": {}}, "moving_mean_initializer": {"class_name": "Zeros", "config": {}}, "moving_variance_initializer": {"class_name": "Ones", "config": {}}, "beta_regularizer": null, "gamma_regularizer": null, "beta_constraint": null, "gamma_constraint": null}, "inbound_nodes": [[["depthwise_conv2d_8", 0, 0, {}]]]}, {"name": "re_lu_17", "class_name": "ReLU", "config": {"name": "re_lu_17", "trainable": true, "max_value": 6.0, "negative_slope": 0.0, "threshold": 0.0}, "inbound_nodes": [[["BNxUEeWy", 0, 0, {}]]]}, {"name": "CZQpoJNa", "class_name": "Conv2D", "config": {"name": "CZQpoJNa", "trainable": true, "filters": 64, "kernel_size": [1, 1], "strides": [1, 1], "padding": "valid", "data_format": "channels_first", "dilation_rate": [1, 1], "activation": "linear", "use_bias": false, "kernel_initializer": {"class_name": "Zeros", "config": {}}, "bias_initializer": {"class_name": "Zeros", "config": {}}, "kernel_regularizer": null, "bias_regularizer": null, "activity_regularizer": null, "kernel_constraint": null, "bias_constraint": null}, "inbound_nodes": [[["re_lu_17", 0, 0, {}]]]}, {"name": "BNSwMizc", "class_name": "BatchNormalization", "config": {"name": "BNSwMizc", "trainable": true, "axis": 1, "momentum": 1.0, "epsilon": 1e-05, "center": true, "scale": true, "beta_initializer": {"class_name": "Zeros", "config": {}}, "gamma_initializer": {"class_name": "Ones", "config": {}}, "moving_mean_initializer": {"class_name": "Zeros", "config": {}}, "moving_variance_initializer": {"class_name": "Ones", "config": {}}, "beta_regularizer": null, "gamma_regularizer": null, "beta_constraint": null, "gamma_constraint": null}, "inbound_nodes": [[["CZQpoJNa", 0, 0, {}]]]}, {"name": "ApykDGhB", "class_name": "Add", "config": {"name": "ApykDGhB", "trainable": true}, "inbound_nodes": [[["BNSwMizc", 0, 0, {}], ["BNaUGntw", 0, 0, {}]]]}, {"name": "CwtaFdVb", "class_name": "Conv2D", "config": {"name": "CwtaFdVb", "trainable": true, "filters": 384, "kernel_size": [1, 1], "strides": [1, 1], "padding": "valid", "data_format": "channels_first", "dilation_rate": [1, 1], "activation": "linear", "use_bias": false, "kernel_initializer": {"class_name": "Zeros", "config": {}}, "bias_initializer": {"class_name": "Zeros", "config": {}}, "kernel_regularizer": null, "bias_regularizer": null, "activity_regularizer": null, "kernel_constraint": null, "bias_constraint": null}, "inbound_nodes": [[["ApykDGhB", 0, 0, {}]]]}, {"name": "BNIoUBla", "class_name": "BatchNormalization", "config": {"name": "BNIoUBla", "trainable": true, "axis": 1, "momentum": 1.0, "epsilon": 1e-05, "center": true, "scale": true, "beta_initializer": {"class_name": "Zeros", "config": {}}, "gamma_initializer": {"class_name": "Ones", "config": {}}, "moving_mean_initializer": {"class_name": "Zeros", "config": {}}, "moving_variance_initializer": {"class_name": "Ones", "config": {}}, "beta_regularizer": null, "gamma_regularizer": null, "beta_constraint": null, "gamma_constraint": null}, "inbound_nodes": [[["CwtaFdVb", 0, 0, {}]]]}, {"name": "re_lu_18", "class_name": "ReLU", "config": {"name": "re_lu_18", "trainable": true, "max_value": 6.0, "negative_slope": 0.0, "threshold": 0.0}, "inbound_nodes": [[["BNIoUBla", 0, 0, {}]]]}, {"name": "CaFOIRDf_pad", "class_name": "ZeroPadding2D", "config": {"name": "CaFOIRDf_pad", "trainable": true, "padding": [[1, 1], [1, 1]], "data_format": "channels_first"}, "inbound_nodes": [[["re_lu_18", 0, 0, {}]]]}, {"name": "depthwise_conv2d_9", "class_name": "DepthwiseConv2D", "config": {"name": "depthwise_conv2d_9", "trainable": true, "kernel_size": [3, 3], "strides": [1, 1], "padding": "valid", "data_format": "channels_first", "dilation_rate": [1, 1], "activation": "linear", "use_bias": false, "bias_initializer": {"class_name": "Zeros", "config": {}}, "bias_regularizer": null, "activity_regularizer": null, "bias_constraint": null, "depth_multiplier": 1, "depthwise_initializer": {"class_name": "VarianceScaling", "config": {"scale": 1.0, "mode": "fan_avg", "distribution": "uniform", "seed": null}}, "depthwise_regularizer": null, "depthwise_constraint": null}, "inbound_nodes": [[["CaFOIRDf_pad", 0, 0, {}]]]}, {"name": "BNrMPkDN", "class_name": "BatchNormalization", "config": {"name": "BNrMPkDN", "trainable": true, "axis": 1, "momentum": 1.0, "epsilon": 1e-05, "center": true, "scale": true, "beta_initializer": {"class_name": "Zeros", "config": {}}, "gamma_initializer": {"class_name": "Ones", "config": {}}, "moving_mean_initializer": {"class_name": "Zeros", "config": {}}, "moving_variance_initializer": {"class_name": "Ones", "config": {}}, "beta_regularizer": null, "gamma_regularizer": null, "beta_constraint": null, "gamma_constraint": null}, "inbound_nodes": [[["depthwise_conv2d_9", 0, 0, {}]]]}, {"name": "re_lu_19", "class_name": "ReLU", "config": {"name": "re_lu_19", "trainable": true, "max_value": 6.0, "negative_slope": 0.0, "threshold": 0.0}, "inbound_nodes": [[["BNrMPkDN", 0, 0, {}]]]}, {"name": "CeZaqlpH", "class_name": "Conv2D", "config": {"name": "CeZaqlpH", "trainable": true, "filters": 64, "kernel_size": [1, 1], "strides": [1, 1], "padding": "valid", "data_format": "channels_first", "dilation_rate": [1, 1], "activation": "linear", "use_bias": false, "kernel_initializer": {"class_name": "Zeros", "config": {}}, "bias_initializer": {"class_name": "Zeros", "config": {}}, "kernel_regularizer": null, "bias_regularizer": null, "activity_regularizer": null, "kernel_constraint": null, "bias_constraint": null}, "inbound_nodes": [[["re_lu_19", 0, 0, {}]]]}, {"name": "BNHxyayY", "class_name": "BatchNormalization", "config": {"name": "BNHxyayY", "trainable": true, "axis": 1, "momentum": 1.0, "epsilon": 1e-05, "center": true, "scale": true, "beta_initializer": {"class_name": "Zeros", "config": {}}, "gamma_initializer": {"class_name": "Ones", "config": {}}, "moving_mean_initializer": {"class_name": "Zeros", "config": {}}, "moving_variance_initializer": {"class_name": "Ones", "config": {}}, "beta_regularizer": null, "gamma_regularizer": null, "beta_constraint": null, "gamma_constraint": null}, "inbound_nodes": [[["CeZaqlpH", 0, 0, {}]]]}, {"name": "AqXNwZjp", "class_name": "Add", "config": {"name": "AqXNwZjp", "trainable": true}, "inbound_nodes": [[["BNHxyayY", 0, 0, {}], ["ApykDGhB", 0, 0, {}]]]}, {"name": "CFidsHTO", "class_name": "Conv2D", "config": {"name": "CFidsHTO", "trainable": true, "filters": 384, "kernel_size": [1, 1], "strides": [1, 1], "padding": "valid", "data_format": "channels_first", "dilation_rate": [1, 1], "activation": "linear", "use_bias": false, "kernel_initializer": {"class_name": "Zeros", "config": {}}, "bias_initializer": {"class_name": "Zeros", "config": {}}, "kernel_regularizer": null, "bias_regularizer": null, "activity_regularizer": null, "kernel_constraint": null, "bias_constraint": null}, "inbound_nodes": [[["AqXNwZjp", 0, 0, {}]]]}, {"name": "BNRBdYWc", "class_name": "BatchNormalization", "config": {"name": "BNRBdYWc", "trainable": true, "axis": 1, "momentum": 1.0, "epsilon": 1e-05, "center": true, "scale": true, "beta_initializer": {"class_name": "Zeros", "config": {}}, "gamma_initializer": {"class_name": "Ones", "config": {}}, "moving_mean_initializer": {"class_name": "Zeros", "config": {}}, "moving_variance_initializer": {"class_name": "Ones", "config": {}}, "beta_regularizer": null, "gamma_regularizer": null, "beta_constraint": null, "gamma_constraint": null}, "inbound_nodes": [[["CFidsHTO", 0, 0, {}]]]}, {"name": "re_lu_20", "class_name": "ReLU", "config": {"name": "re_lu_20", "trainable": true, "max_value": 6.0, "negative_slope": 0.0, "threshold": 0.0}, "inbound_nodes": [[["BNRBdYWc", 0, 0, {}]]]}, {"name": "CqzKPQlZ_pad", "class_name": "ZeroPadding2D", "config": {"name": "CqzKPQlZ_pad", "trainable": true, "padding": [[1, 1], [1, 1]], "data_format": "channels_first"}, "inbound_nodes": [[["re_lu_20", 0, 0, {}]]]}, {"name": "depthwise_conv2d_10", "class_name": "DepthwiseConv2D", "config": {"name": "depthwise_conv2d_10", "trainable": true, "kernel_size": [3, 3], "strides": [1, 1], "padding": "valid", "data_format": "channels_first", "dilation_rate": [1, 1], "activation": "linear", "use_bias": false, "bias_initializer": {"class_name": "Zeros", "config": {}}, "bias_regularizer": null, "activity_regularizer": null, "bias_constraint": null, "depth_multiplier": 1, "depthwise_initializer": {"class_name": "VarianceScaling", "config": {"scale": 1.0, "mode": "fan_avg", "distribution": "uniform", "seed": null}}, "depthwise_regularizer": null, "depthwise_constraint": null}, "inbound_nodes": [[["CqzKPQlZ_pad", 0, 0, {}]]]}, {"name": "BNsQzaRb", "class_name": "BatchNormalization", "config": {"name": "BNsQzaRb", "trainable": true, "axis": 1, "momentum": 1.0, "epsilon": 1e-05, "center": true, "scale": true, "beta_initializer": {"class_name": "Zeros", "config": {}}, "gamma_initializer": {"class_name": "Ones", "config": {}}, "moving_mean_initializer": {"class_name": "Zeros", "config": {}}, "moving_variance_initializer": {"class_name": "Ones", "config": {}}, "beta_regularizer": null, "gamma_regularizer": null, "beta_constraint": null, "gamma_constraint": null}, "inbound_nodes": [[["depthwise_conv2d_10", 0, 0, {}]]]}, {"name": "re_lu_21", "class_name": "ReLU", "config": {"name": "re_lu_21", "trainable": true, "max_value": 6.0, "negative_slope": 0.0, "threshold": 0.0}, "inbound_nodes": [[["BNsQzaRb", 0, 0, {}]]]}, {"name": "CsXHIseI", "class_name": "Conv2D", "config": {"name": "CsXHIseI", "trainable": true, "filters": 64, "kernel_size": [1, 1], "strides": [1, 1], "padding": "valid", "data_format": "channels_first", "dilation_rate": [1, 1], "activation": "linear", "use_bias": false, "kernel_initializer": {"class_name": "Zeros", "config": {}}, "bias_initializer": {"class_name": "Zeros", "config": {}}, "kernel_regularizer": null, "bias_regularizer": null, "activity_regularizer": null, "kernel_constraint": null, "bias_constraint": null}, "inbound_nodes": [[["re_lu_21", 0, 0, {}]]]}, {"name": "BNrMuFkc", "class_name": "BatchNormalization", "config": {"name": "BNrMuFkc", "trainable": true, "axis": 1, "momentum": 1.0, "epsilon": 1e-05, "center": true, "scale": true, "beta_initializer": {"class_name": "Zeros", "config": {}}, "gamma_initializer": {"class_name": "Ones", "config": {}}, "moving_mean_initializer": {"class_name": "Zeros", "config": {}}, "moving_variance_initializer": {"class_name": "Ones", "config": {}}, "beta_regularizer": null, "gamma_regularizer": null, "beta_constraint": null, "gamma_constraint": null}, "inbound_nodes": [[["CsXHIseI", 0, 0, {}]]]}, {"name": "AZnHMQQu", "class_name": "Add", "config": {"name": "AZnHMQQu", "trainable": true}, "inbound_nodes": [[["BNrMuFkc", 0, 0, {}], ["AqXNwZjp", 0, 0, {}]]]}, {"name": "CqpFcxvf", "class_name": "Conv2D", "config": {"name": "CqpFcxvf", "trainable": true, "filters": 384, "kernel_size": [1, 1], "strides": [1, 1], "padding": "valid", "data_format": "channels_first", "dilation_rate": [1, 1], "activation": "linear", "use_bias": false, "kernel_initializer": {"class_name": "Zeros", "config": {}}, "bias_initializer": {"class_name": "Zeros", "config": {}}, "kernel_regularizer": null, "bias_regularizer": null, "activity_regularizer": null, "kernel_constraint": null, "bias_constraint": null}, "inbound_nodes": [[["AZnHMQQu", 0, 0, {}]]]}, {"name": "BNGgQrJb", "class_name": "BatchNormalization", "config": {"name": "BNGgQrJb", "trainable": true, "axis": 1, "momentum": 1.0, "epsilon": 1e-05, "center": true, "scale": true, "beta_initializer": {"class_name": "Zeros", "config": {}}, "gamma_initializer": {"class_name": "Ones", "config": {}}, "moving_mean_initializer": {"class_name": "Zeros", "config": {}}, "moving_variance_initializer": {"class_name": "Ones", "config": {}}, "beta_regularizer": null, "gamma_regularizer": null, "beta_constraint": null, "gamma_constraint": null}, "inbound_nodes": [[["CqpFcxvf", 0, 0, {}]]]}, {"name": "re_lu_22", "class_name": "ReLU", "config": {"name": "re_lu_22", "trainable": true, "max_value": 6.0, "negative_slope": 0.0, "threshold": 0.0}, "inbound_nodes": [[["BNGgQrJb", 0, 0, {}]]]}, {"name": "CpgkZJiq_pad", "class_name": "ZeroPadding2D", "config": {"name": "CpgkZJiq_pad", "trainable": true, "padding": [[1, 1], [1, 1]], "data_format": "channels_first"}, "inbound_nodes": [[["re_lu_22", 0, 0, {}]]]}, {"name": "depthwise_conv2d_11", "class_name": "DepthwiseConv2D", "config": {"name": "depthwise_conv2d_11", "trainable": true, "kernel_size": [3, 3], "strides": [1, 1], "padding": "valid", "data_format": "channels_first", "dilation_rate": [1, 1], "activation": "linear", "use_bias": false, "bias_initializer": {"class_name": "Zeros", "config": {}}, "bias_regularizer": null, "activity_regularizer": null, "bias_constraint": null, "depth_multiplier": 1, "depthwise_initializer": {"class_name": "VarianceScaling", "config": {"scale": 1.0, "mode": "fan_avg", "distribution": "uniform", "seed": null}}, "depthwise_regularizer": null, "depthwise_constraint": null}, "inbound_nodes": [[["CpgkZJiq_pad", 0, 0, {}]]]}, {"name": "BNnLIKQS", "class_name": "BatchNormalization", "config": {"name": "BNnLIKQS", "trainable": true, "axis": 1, "momentum": 1.0, "epsilon": 1e-05, "center": true, "scale": true, "beta_initializer": {"class_name": "Zeros", "config": {}}, "gamma_initializer": {"class_name": "Ones", "config": {}}, "moving_mean_initializer": {"class_name": "Zeros", "config": {}}, "moving_variance_initializer": {"class_name": "Ones", "config": {}}, "beta_regularizer": null, "gamma_regularizer": null, "beta_constraint": null, "gamma_constraint": null}, "inbound_nodes": [[["depthwise_conv2d_11", 0, 0, {}]]]}, {"name": "re_lu_23", "class_name": "ReLU", "config": {"name": "re_lu_23", "trainable": true, "max_value": 6.0, "negative_slope": 0.0, "threshold": 0.0}, "inbound_nodes": [[["BNnLIKQS", 0, 0, {}]]]}, {"name": "CVLdBjpH", "class_name": "Conv2D", "config": {"name": "CVLdBjpH", "trainable": true, "filters": 96, "kernel_size": [1, 1], "strides": [1, 1], "padding": "valid", "data_format": "channels_first", "dilation_rate": [1, 1], "activation": "linear", "use_bias": false, "kernel_initializer": {"class_name": "Zeros", "config": {}}, "bias_initializer": {"class_name": "Zeros", "config": {}}, "kernel_regularizer": null, "bias_regularizer": null, "activity_regularizer": null, "kernel_constraint": null, "bias_constraint": null}, "inbound_nodes": [[["re_lu_23", 0, 0, {}]]]}, {"name": "BNYVsKJf", "class_name": "BatchNormalization", "config": {"name": "BNYVsKJf", "trainable": true, "axis": 1, "momentum": 1.0, "epsilon": 1e-05, "center": true, "scale": true, "beta_initializer": {"class_name": "Zeros", "config": {}}, "gamma_initializer": {"class_name": "Ones", "config": {}}, "moving_mean_initializer": {"class_name": "Zeros", "config": {}}, "moving_variance_initializer": {"class_name": "Ones", "config": {}}, "beta_regularizer": null, "gamma_regularizer": null, "beta_constraint": null, "gamma_constraint": null}, "inbound_nodes": [[["CVLdBjpH", 0, 0, {}]]]}, {"name": "CJjbGqnO", "class_name": "Conv2D", "config": {"name": "CJjbGqnO", "trainable": true, "filters": 576, "kernel_size": [1, 1], "strides": [1, 1], "padding": "valid", "data_format": "channels_first", "dilation_rate": [1, 1], "activation": "linear", "use_bias": false, "kernel_initializer": {"class_name": "Zeros", "config": {}}, "bias_initializer": {"class_name": "Zeros", "config": {}}, "kernel_regularizer": null, "bias_regularizer": null, "activity_regularizer": null, "kernel_constraint": null, "bias_constraint": null}, "inbound_nodes": [[["BNYVsKJf", 0, 0, {}]]]}, {"name": "BNZcuaHO", "class_name": "BatchNormalization", "config": {"name": "BNZcuaHO", "trainable": true, "axis": 1, "momentum": 1.0, "epsilon": 1e-05, "center": true, "scale": true, "beta_initializer": {"class_name": "Zeros", "config": {}}, "gamma_initializer": {"class_name": "Ones", "config": {}}, "moving_mean_initializer": {"class_name": "Zeros", "config": {}}, "moving_variance_initializer": {"class_name": "Ones", "config": {}}, "beta_regularizer": null, "gamma_regularizer": null, "beta_constraint": null, "gamma_constraint": null}, "inbound_nodes": [[["CJjbGqnO", 0, 0, {}]]]}, {"name": "re_lu_24", "class_name": "ReLU", "config": {"name": "re_lu_24", "trainable": true, "max_value": 6.0, "negative_slope": 0.0, "threshold": 0.0}, "inbound_nodes": [[["BNZcuaHO", 0, 0, {}]]]}, {"name": "CsDROSXw_pad", "class_name": "ZeroPadding2D", "config": {"name": "CsDROSXw_pad", "trainable": true, "padding": [[1, 1], [1, 1]], "data_format": "channels_first"}, "inbound_nodes": [[["re_lu_24", 0, 0, {}]]]}, {"name": "depthwise_conv2d_12", "class_name": "DepthwiseConv2D", "config": {"name": "depthwise_conv2d_12", "trainable": true, "kernel_size": [3, 3], "strides": [1, 1], "padding": "valid", "data_format": "channels_first", "dilation_rate": [1, 1], "activation": "linear", "use_bias": false, "bias_initializer": {"class_name": "Zeros", "config": {}}, "bias_regularizer": null, "activity_regularizer": null, "bias_constraint": null, "depth_multiplier": 1, "depthwise_initializer": {"class_name": "VarianceScaling", "config": {"scale": 1.0, "mode": "fan_avg", "distribution": "uniform", "seed": null}}, "depthwise_regularizer": null, "depthwise_constraint": null}, "inbound_nodes": [[["CsDROSXw_pad", 0, 0, {}]]]}, {"name": "BNFRbKsF", "class_name": "BatchNormalization", "config": {"name": "BNFRbKsF", "trainable": true, "axis": 1, "momentum": 1.0, "epsilon": 1e-05, "center": true, "scale": true, "beta_initializer": {"class_name": "Zeros", "config": {}}, "gamma_initializer": {"class_name": "Ones", "config": {}}, "moving_mean_initializer": {"class_name": "Zeros", "config": {}}, "moving_variance_initializer": {"class_name": "Ones", "config": {}}, "beta_regularizer": null, "gamma_regularizer": null, "beta_constraint": null, "gamma_constraint": null}, "inbound_nodes": [[["depthwise_conv2d_12", 0, 0, {}]]]}, {"name": "re_lu_25", "class_name": "ReLU", "config": {"name": "re_lu_25", "trainable": true, "max_value": 6.0, "negative_slope": 0.0, "threshold": 0.0}, "inbound_nodes": [[["BNFRbKsF", 0, 0, {}]]]}, {"name": "CsMFqGhS", "class_name": "Conv2D", "config": {"name": "CsMFqGhS", "trainable": true, "filters": 96, "kernel_size": [1, 1], "strides": [1, 1], "padding": "valid", "data_format": "channels_first", "dilation_rate": [1, 1], "activation": "linear", "use_bias": false, "kernel_initializer": {"class_name": "Zeros", "config": {}}, "bias_initializer": {"class_name": "Zeros", "config": {}}, "kernel_regularizer": null, "bias_regularizer": null, "activity_regularizer": null, "kernel_constraint": null, "bias_constraint": null}, "inbound_nodes": [[["re_lu_25", 0, 0, {}]]]}, {"name": "BNcrPaAf", "class_name": "BatchNormalization", "config": {"name": "BNcrPaAf", "trainable": true, "axis": 1, "momentum": 1.0, "epsilon": 1e-05, "center": true, "scale": true, "beta_initializer": {"class_name": "Zeros", "config": {}}, "gamma_initializer": {"class_name": "Ones", "config": {}}, "moving_mean_initializer": {"class_name": "Zeros", "config": {}}, "moving_variance_initializer": {"class_name": "Ones", "config": {}}, "beta_regularizer": null, "gamma_regularizer": null, "beta_constraint": null, "gamma_constraint": null}, "inbound_nodes": [[["CsMFqGhS", 0, 0, {}]]]}, {"name": "AlNCpFEE", "class_name": "Add", "config": {"name": "AlNCpFEE", "trainable": true}, "inbound_nodes": [[["BNcrPaAf", 0, 0, {}], ["BNYVsKJf", 0, 0, {}]]]}, {"name": "CKXtvhCm", "class_name": "Conv2D", "config": {"name": "CKXtvhCm", "trainable": true, "filters": 576, "kernel_size": [1, 1], "strides": [1, 1], "padding": "valid", "data_format": "channels_first", "dilation_rate": [1, 1], "activation": "linear", "use_bias": false, "kernel_initializer": {"class_name": "Zeros", "config": {}}, "bias_initializer": {"class_name": "Zeros", "config": {}}, "kernel_regularizer": null, "bias_regularizer": null, "activity_regularizer": null, "kernel_constraint": null, "bias_constraint": null}, "inbound_nodes": [[["AlNCpFEE", 0, 0, {}]]]}, {"name": "BNAYFmnt", "class_name": "BatchNormalization", "config": {"name": "BNAYFmnt", "trainable": true, "axis": 1, "momentum": 1.0, "epsilon": 1e-05, "center": true, "scale": true, "beta_initializer": {"class_name": "Zeros", "config": {}}, "gamma_initializer": {"class_name": "Ones", "config": {}}, "moving_mean_initializer": {"class_name": "Zeros", "config": {}}, "moving_variance_initializer": {"class_name": "Ones", "config": {}}, "beta_regularizer": null, "gamma_regularizer": null, "beta_constraint": null, "gamma_constraint": null}, "inbound_nodes": [[["CKXtvhCm", 0, 0, {}]]]}, {"name": "re_lu_26", "class_name": "ReLU", "config": {"name": "re_lu_26", "trainable": true, "max_value": 6.0, "negative_slope": 0.0, "threshold": 0.0}, "inbound_nodes": [[["BNAYFmnt", 0, 0, {}]]]}, {"name": "CLNYasnH_pad", "class_name": "ZeroPadding2D", "config": {"name": "CLNYasnH_pad", "trainable": true, "padding": [[1, 1], [1, 1]], "data_format": "channels_first"}, "inbound_nodes": [[["re_lu_26", 0, 0, {}]]]}, {"name": "depthwise_conv2d_13", "class_name": "DepthwiseConv2D", "config": {"name": "depthwise_conv2d_13", "trainable": true, "kernel_size": [3, 3], "strides": [1, 1], "padding": "valid", "data_format": "channels_first", "dilation_rate": [1, 1], "activation": "linear", "use_bias": false, "bias_initializer": {"class_name": "Zeros", "config": {}}, "bias_regularizer": null, "activity_regularizer": null, "bias_constraint": null, "depth_multiplier": 1, "depthwise_initializer": {"class_name": "VarianceScaling", "config": {"scale": 1.0, "mode": "fan_avg", "distribution": "uniform", "seed": null}}, "depthwise_regularizer": null, "depthwise_constraint": null}, "inbound_nodes": [[["CLNYasnH_pad", 0, 0, {}]]]}, {"name": "BNUvBpwz", "class_name": "BatchNormalization", "config": {"name": "BNUvBpwz", "trainable": true, "axis": 1, "momentum": 1.0, "epsilon": 1e-05, "center": true, "scale": true, "beta_initializer": {"class_name": "Zeros", "config": {}}, "gamma_initializer": {"class_name": "Ones", "config": {}}, "moving_mean_initializer": {"class_name": "Zeros", "config": {}}, "moving_variance_initializer": {"class_name": "Ones", "config": {}}, "beta_regularizer": null, "gamma_regularizer": null, "beta_constraint": null, "gamma_constraint": null}, "inbound_nodes": [[["depthwise_conv2d_13", 0, 0, {}]]]}, {"name": "re_lu_27", "class_name": "ReLU", "config": {"name": "re_lu_27", "trainable": true, "max_value": 6.0, "negative_slope": 0.0, "threshold": 0.0}, "inbound_nodes": [[["BNUvBpwz", 0, 0, {}]]]}, {"name": "CdtHUaoj", "class_name": "Conv2D", "config": {"name": "CdtHUaoj", "trainable": true, "filters": 96, "kernel_size": [1, 1], "strides": [1, 1], "padding": "valid", "data_format": "channels_first", "dilation_rate": [1, 1], "activation": "linear", "use_bias": false, "kernel_initializer": {"class_name": "Zeros", "config": {}}, "bias_initializer": {"class_name": "Zeros", "config": {}}, "kernel_regularizer": null, "bias_regularizer": null, "activity_regularizer": null, "kernel_constraint": null, "bias_constraint": null}, "inbound_nodes": [[["re_lu_27", 0, 0, {}]]]}, {"name": "BNZwyljk", "class_name": "BatchNormalization", "config": {"name": "BNZwyljk", "trainable": true, "axis": 1, "momentum": 1.0, "epsilon": 1e-05, "center": true, "scale": true, "beta_initializer": {"class_name": "Zeros", "config": {}}, "gamma_initializer": {"class_name": "Ones", "config": {}}, "moving_mean_initializer": {"class_name": "Zeros", "config": {}}, "moving_variance_initializer": {"class_name": "Ones", "config": {}}, "beta_regularizer": null, "gamma_regularizer": null, "beta_constraint": null, "gamma_constraint": null}, "inbound_nodes": [[["CdtHUaoj", 0, 0, {}]]]}, {"name": "AidGeXRk", "class_name": "Add", "config": {"name": "AidGeXRk", "trainable": true}, "inbound_nodes": [[["BNZwyljk", 0, 0, {}], ["AlNCpFEE", 0, 0, {}]]]}, {"name": "CmCTkHlm", "class_name": "Conv2D", "config": {"name": "CmCTkHlm", "trainable": true, "filters": 576, "kernel_size": [1, 1], "strides": [1, 1], "padding": "valid", "data_format": "channels_first", "dilation_rate": [1, 1], "activation": "linear", "use_bias": false, "kernel_initializer": {"class_name": "Zeros", "config": {}}, "bias_initializer": {"class_name": "Zeros", "config": {}}, "kernel_regularizer": null, "bias_regularizer": null, "activity_regularizer": null, "kernel_constraint": null, "bias_constraint": null}, "inbound_nodes": [[["AidGeXRk", 0, 0, {}]]]}, {"name": "BNjerWPQ", "class_name": "BatchNormalization", "config": {"name": "BNjerWPQ", "trainable": true, "axis": 1, "momentum": 1.0, "epsilon": 1e-05, "center": true, "scale": true, "beta_initializer": {"class_name": "Zeros", "config": {}}, "gamma_initializer": {"class_name": "Ones", "config": {}}, "moving_mean_initializer": {"class_name": "Zeros", "config": {}}, "moving_variance_initializer": {"class_name": "Ones", "config": {}}, "beta_regularizer": null, "gamma_regularizer": null, "beta_constraint": null, "gamma_constraint": null}, "inbound_nodes": [[["CmCTkHlm", 0, 0, {}]]]}, {"name": "re_lu_28", "class_name": "ReLU", "config": {"name": "re_lu_28", "trainable": true, "max_value": 6.0, "negative_slope": 0.0, "threshold": 0.0}, "inbound_nodes": [[["BNjerWPQ", 0, 0, {}]]]}, {"name": "CMyzQwMa_pad", "class_name": "ZeroPadding2D", "config": {"name": "CMyzQwMa_pad", "trainable": true, "padding": [[1, 1], [1, 1]], "data_format": "channels_first"}, "inbound_nodes": [[["re_lu_28", 0, 0, {}]]]}, {"name": "depthwise_conv2d_14", "class_name": "DepthwiseConv2D", "config": {"name": "depthwise_conv2d_14", "trainable": true, "kernel_size": [3, 3], "strides": [2, 2], "padding": "valid", "data_format": "channels_first", "dilation_rate": [1, 1], "activation": "linear", "use_bias": false, "bias_initializer": {"class_name": "Zeros", "config": {}}, "bias_regularizer": null, "activity_regularizer": null, "bias_constraint": null, "depth_multiplier": 1, "depthwise_initializer": {"class_name": "VarianceScaling", "config": {"scale": 1.0, "mode": "fan_avg", "distribution": "uniform", "seed": null}}, "depthwise_regularizer": null, "depthwise_constraint": null}, "inbound_nodes": [[["CMyzQwMa_pad", 0, 0, {}]]]}, {"name": "BNeEKjiG", "class_name": "BatchNormalization", "config": {"name": "BNeEKjiG", "trainable": true, "axis": 1, "momentum": 1.0, "epsilon": 1e-05, "center": true, "scale": true, "beta_initializer": {"class_name": "Zeros", "config": {}}, "gamma_initializer": {"class_name": "Ones", "config": {}}, "moving_mean_initializer": {"class_name": "Zeros", "config": {}}, "moving_variance_initializer": {"class_name": "Ones", "config": {}}, "beta_regularizer": null, "gamma_regularizer": null, "beta_constraint": null, "gamma_constraint": null}, "inbound_nodes": [[["depthwise_conv2d_14", 0, 0, {}]]]}, {"name": "re_lu_29", "class_name": "ReLU", "config": {"name": "re_lu_29", "trainable": true, "max_value": 6.0, "negative_slope": 0.0, "threshold": 0.0}, "inbound_nodes": [[["BNeEKjiG", 0, 0, {}]]]}, {"name": "CTgPBHrZ", "class_name": "Conv2D", "config": {"name": "CTgPBHrZ", "trainable": true, "filters": 160, "kernel_size": [1, 1], "strides": [1, 1], "padding": "valid", "data_format": "channels_first", "dilation_rate": [1, 1], "activation": "linear", "use_bias": false, "kernel_initializer": {"class_name": "Zeros", "config": {}}, "bias_initializer": {"class_name": "Zeros", "config": {}}, "kernel_regularizer": null, "bias_regularizer": null, "activity_regularizer": null, "kernel_constraint": null, "bias_constraint": null}, "inbound_nodes": [[["re_lu_29", 0, 0, {}]]]}, {"name": "BNWFacfQ", "class_name": "BatchNormalization", "config": {"name": "BNWFacfQ", "trainable": true, "axis": 1, "momentum": 1.0, "epsilon": 1e-05, "center": true, "scale": true, "beta_initializer": {"class_name": "Zeros", "config": {}}, "gamma_initializer": {"class_name": "Ones", "config": {}}, "moving_mean_initializer": {"class_name": "Zeros", "config": {}}, "moving_variance_initializer": {"class_name": "Ones", "config": {}}, "beta_regularizer": null, "gamma_regularizer": null, "beta_constraint": null, "gamma_constraint": null}, "inbound_nodes": [[["CTgPBHrZ", 0, 0, {}]]]}, {"name": "CScxTVzR", "class_name": "Conv2D", "config": {"name": "CScxTVzR", "trainable": true, "filters": 960, "kernel_size": [1, 1], "strides": [1, 1], "padding": "valid", "data_format": "channels_first", "dilation_rate": [1, 1], "activation": "linear", "use_bias": false, "kernel_initializer": {"class_name": "Zeros", "config": {}}, "bias_initializer": {"class_name": "Zeros", "config": {}}, "kernel_regularizer": null, "bias_regularizer": null, "activity_regularizer": null, "kernel_constraint": null, "bias_constraint": null}, "inbound_nodes": [[["BNWFacfQ", 0, 0, {}]]]}, {"name": "BNepOMwX", "class_name": "BatchNormalization", "config": {"name": "BNepOMwX", "trainable": true, "axis": 1, "momentum": 1.0, "epsilon": 1e-05, "center": true, "scale": true, "beta_initializer": {"class_name": "Zeros", "config": {}}, "gamma_initializer": {"class_name": "Ones", "config": {}}, "moving_mean_initializer": {"class_name": "Zeros", "config": {}}, "moving_variance_initializer": {"class_name": "Ones", "config": {}}, "beta_regularizer": null, "gamma_regularizer": null, "beta_constraint": null, "gamma_constraint": null}, "inbound_nodes": [[["CScxTVzR", 0, 0, {}]]]}, {"name": "re_lu_30", "class_name": "ReLU", "config": {"name": "re_lu_30", "trainable": true, "max_value": 6.0, "negative_slope": 0.0, "threshold": 0.0}, "inbound_nodes": [[["BNepOMwX", 0, 0, {}]]]}, {"name": "CWEansUe_pad", "class_name": "ZeroPadding2D", "config": {"name": "CWEansUe_pad", "trainable": true, "padding": [[1, 1], [1, 1]], "data_format": "channels_first"}, "inbound_nodes": [[["re_lu_30", 0, 0, {}]]]}, {"name": "depthwise_conv2d_15", "class_name": "DepthwiseConv2D", "config": {"name": "depthwise_conv2d_15", "trainable": true, "kernel_size": [3, 3], "strides": [1, 1], "padding": "valid", "data_format": "channels_first", "dilation_rate": [1, 1], "activation": "linear", "use_bias": false, "bias_initializer": {"class_name": "Zeros", "config": {}}, "bias_regularizer": null, "activity_regularizer": null, "bias_constraint": null, "depth_multiplier": 1, "depthwise_initializer": {"class_name": "VarianceScaling", "config": {"scale": 1.0, "mode": "fan_avg", "distribution": "uniform", "seed": null}}, "depthwise_regularizer": null, "depthwise_constraint": null}, "inbound_nodes": [[["CWEansUe_pad", 0, 0, {}]]]}, {"name": "BNjzrLpi", "class_name": "BatchNormalization", "config": {"name": "BNjzrLpi", "trainable": true, "axis": 1, "momentum": 1.0, "epsilon": 1e-05, "center": true, "scale": true, "beta_initializer": {"class_name": "Zeros", "config": {}}, "gamma_initializer": {"class_name": "Ones", "config": {}}, "moving_mean_initializer": {"class_name": "Zeros", "config": {}}, "moving_variance_initializer": {"class_name": "Ones", "config": {}}, "beta_regularizer": null, "gamma_regularizer": null, "beta_constraint": null, "gamma_constraint": null}, "inbound_nodes": [[["depthwise_conv2d_15", 0, 0, {}]]]}, {"name": "re_lu_31", "class_name": "ReLU", "config": {"name": "re_lu_31", "trainable": true, "max_value": 6.0, "negative_slope": 0.0, "threshold": 0.0}, "inbound_nodes": [[["BNjzrLpi", 0, 0, {}]]]}, {"name": "CPQuFjBW", "class_name": "Conv2D", "config": {"name": "CPQuFjBW", "trainable": true, "filters": 160, "kernel_size": [1, 1], "strides": [1, 1], "padding": "valid", "data_format": "channels_first", "dilation_rate": [1, 1], "activation": "linear", "use_bias": false, "kernel_initializer": {"class_name": "Zeros", "config": {}}, "bias_initializer": {"class_name": "Zeros", "config": {}}, "kernel_regularizer": null, "bias_regularizer": null, "activity_regularizer": null, "kernel_constraint": null, "bias_constraint": null}, "inbound_nodes": [[["re_lu_31", 0, 0, {}]]]}, {"name": "BNUjNkHa", "class_name": "BatchNormalization", "config": {"name": "BNUjNkHa", "trainable": true, "axis": 1, "momentum": 1.0, "epsilon": 1e-05, "center": true, "scale": true, "beta_initializer": {"class_name": "Zeros", "config": {}}, "gamma_initializer": {"class_name": "Ones", "config": {}}, "moving_mean_initializer": {"class_name": "Zeros", "config": {}}, "moving_variance_initializer": {"class_name": "Ones", "config": {}}, "beta_regularizer": null, "gamma_regularizer": null, "beta_constraint": null, "gamma_constraint": null}, "inbound_nodes": [[["CPQuFjBW", 0, 0, {}]]]}, {"name": "AtHznpXX", "class_name": "Add", "config": {"name": "AtHznpXX", "trainable": true}, "inbound_nodes": [[["BNUjNkHa", 0, 0, {}], ["BNWFacfQ", 0, 0, {}]]]}, {"name": "CASKCFpw", "class_name": "Conv2D", "config": {"name": "CASKCFpw", "trainable": true, "filters": 960, "kernel_size": [1, 1], "strides": [1, 1], "padding": "valid", "data_format": "channels_first", "dilation_rate": [1, 1], "activation": "linear", "use_bias": false, "kernel_initializer": {"class_name": "Zeros", "config": {}}, "bias_initializer": {"class_name": "Zeros", "config": {}}, "kernel_regularizer": null, "bias_regularizer": null, "activity_regularizer": null, "kernel_constraint": null, "bias_constraint": null}, "inbound_nodes": [[["AtHznpXX", 0, 0, {}]]]}, {"name": "BNladqnq", "class_name": "BatchNormalization", "config": {"name": "BNladqnq", "trainable": true, "axis": 1, "momentum": 1.0, "epsilon": 1e-05, "center": true, "scale": true, "beta_initializer": {"class_name": "Zeros", "config": {}}, "gamma_initializer": {"class_name": "Ones", "config": {}}, "moving_mean_initializer": {"class_name": "Zeros", "config": {}}, "moving_variance_initializer": {"class_name": "Ones", "config": {}}, "beta_regularizer": null, "gamma_regularizer": null, "beta_constraint": null, "gamma_constraint": null}, "inbound_nodes": [[["CASKCFpw", 0, 0, {}]]]}, {"name": "re_lu_32", "class_name": "ReLU", "config": {"name": "re_lu_32", "trainable": true, "max_value": 6.0, "negative_slope": 0.0, "threshold": 0.0}, "inbound_nodes": [[["BNladqnq", 0, 0, {}]]]}, {"name": "CoFCBntM_pad", "class_name": "ZeroPadding2D", "config": {"name": "CoFCBntM_pad", "trainable": true, "padding": [[1, 1], [1, 1]], "data_format": "channels_first"}, "inbound_nodes": [[["re_lu_32", 0, 0, {}]]]}, {"name": "depthwise_conv2d_16", "class_name": "DepthwiseConv2D", "config": {"name": "depthwise_conv2d_16", "trainable": true, "kernel_size": [3, 3], "strides": [1, 1], "padding": "valid", "data_format": "channels_first", "dilation_rate": [1, 1], "activation": "linear", "use_bias": false, "bias_initializer": {"class_name": "Zeros", "config": {}}, "bias_regularizer": null, "activity_regularizer": null, "bias_constraint": null, "depth_multiplier": 1, "depthwise_initializer": {"class_name": "VarianceScaling", "config": {"scale": 1.0, "mode": "fan_avg", "distribution": "uniform", "seed": null}}, "depthwise_regularizer": null, "depthwise_constraint": null}, "inbound_nodes": [[["CoFCBntM_pad", 0, 0, {}]]]}, {"name": "BNJJcpBD", "class_name": "BatchNormalization", "config": {"name": "BNJJcpBD", "trainable": true, "axis": 1, "momentum": 1.0, "epsilon": 1e-05, "center": true, "scale": true, "beta_initializer": {"class_name": "Zeros", "config": {}}, "gamma_initializer": {"class_name": "Ones", "config": {}}, "moving_mean_initializer": {"class_name": "Zeros", "config": {}}, "moving_variance_initializer": {"class_name": "Ones", "config": {}}, "beta_regularizer": null, "gamma_regularizer": null, "beta_constraint": null, "gamma_constraint": null}, "inbound_nodes": [[["depthwise_conv2d_16", 0, 0, {}]]]}, {"name": "re_lu_33", "class_name": "ReLU", "config": {"name": "re_lu_33", "trainable": true, "max_value": 6.0, "negative_slope": 0.0, "threshold": 0.0}, "inbound_nodes": [[["BNJJcpBD", 0, 0, {}]]]}, {"name": "CDcVLrly", "class_name": "Conv2D", "config": {"name": "CDcVLrly", "trainable": true, "filters": 160, "kernel_size": [1, 1], "strides": [1, 1], "padding": "valid", "data_format": "channels_first", "dilation_rate": [1, 1], "activation": "linear", "use_bias": false, "kernel_initializer": {"class_name": "Zeros", "config": {}}, "bias_initializer": {"class_name": "Zeros", "config": {}}, "kernel_regularizer": null, "bias_regularizer": null, "activity_regularizer": null, "kernel_constraint": null, "bias_constraint": null}, "inbound_nodes": [[["re_lu_33", 0, 0, {}]]]}, {"name": "BNmsrBEk", "class_name": "BatchNormalization", "config": {"name": "BNmsrBEk", "trainable": true, "axis": 1, "momentum": 1.0, "epsilon": 1e-05, "center": true, "scale": true, "beta_initializer": {"class_name": "Zeros", "config": {}}, "gamma_initializer": {"class_name": "Ones", "config": {}}, "moving_mean_initializer": {"class_name": "Zeros", "config": {}}, "moving_variance_initializer": {"class_name": "Ones", "config": {}}, "beta_regularizer": null, "gamma_regularizer": null, "beta_constraint": null, "gamma_constraint": null}, "inbound_nodes": [[["CDcVLrly", 0, 0, {}]]]}, {"name": "AELnhSUT", "class_name": "Add", "config": {"name": "AELnhSUT", "trainable": true}, "inbound_nodes": [[["BNmsrBEk", 0, 0, {}], ["AtHznpXX", 0, 0, {}]]]}, {"name": "CDoIzcBt", "class_name": "Conv2D", "config": {"name": "CDoIzcBt", "trainable": true, "filters": 960, "kernel_size": [1, 1], "strides": [1, 1], "padding": "valid", "data_format": "channels_first", "dilation_rate": [1, 1], "activation": "linear", "use_bias": false, "kernel_initializer": {"class_name": "Zeros", "config": {}}, "bias_initializer": {"class_name": "Zeros", "config": {}}, "kernel_regularizer": null, "bias_regularizer": null, "activity_regularizer": null, "kernel_constraint": null, "bias_constraint": null}, "inbound_nodes": [[["AELnhSUT", 0, 0, {}]]]}, {"name": "BNPyYPsh", "class_name": "BatchNormalization", "config": {"name": "BNPyYPsh", "trainable": true, "axis": 1, "momentum": 1.0, "epsilon": 1e-05, "center": true, "scale": true, "beta_initializer": {"class_name": "Zeros", "config": {}}, "gamma_initializer": {"class_name": "Ones", "config": {}}, "moving_mean_initializer": {"class_name": "Zeros", "config": {}}, "moving_variance_initializer": {"class_name": "Ones", "config": {}}, "beta_regularizer": null, "gamma_regularizer": null, "beta_constraint": null, "gamma_constraint": null}, "inbound_nodes": [[["CDoIzcBt", 0, 0, {}]]]}, {"name": "re_lu_34", "class_name": "ReLU", "config": {"name": "re_lu_34", "trainable": true, "max_value": 6.0, "negative_slope": 0.0, "threshold": 0.0}, "inbound_nodes": [[["BNPyYPsh", 0, 0, {}]]]}, {"name": "CvODlcPI_pad", "class_name": "ZeroPadding2D", "config": {"name": "CvODlcPI_pad", "trainable": true, "padding": [[1, 1], [1, 1]], "data_format": "channels_first"}, "inbound_nodes": [[["re_lu_34", 0, 0, {}]]]}, {"name": "depthwise_conv2d_17", "class_name": "DepthwiseConv2D", "config": {"name": "depthwise_conv2d_17", "trainable": true, "kernel_size": [3, 3], "strides": [1, 1], "padding": "valid", "data_format": "channels_first", "dilation_rate": [1, 1], "activation": "linear", "use_bias": false, "bias_initializer": {"class_name": "Zeros", "config": {}}, "bias_regularizer": null, "activity_regularizer": null, "bias_constraint": null, "depth_multiplier": 1, "depthwise_initializer": {"class_name": "VarianceScaling", "config": {"scale": 1.0, "mode": "fan_avg", "distribution": "uniform", "seed": null}}, "depthwise_regularizer": null, "depthwise_constraint": null}, "inbound_nodes": [[["CvODlcPI_pad", 0, 0, {}]]]}, {"name": "BNQmaVvz", "class_name": "BatchNormalization", "config": {"name": "BNQmaVvz", "trainable": true, "axis": 1, "momentum": 1.0, "epsilon": 1e-05, "center": true, "scale": true, "beta_initializer": {"class_name": "Zeros", "config": {}}, "gamma_initializer": {"class_name": "Ones", "config": {}}, "moving_mean_initializer": {"class_name": "Zeros", "config": {}}, "moving_variance_initializer": {"class_name": "Ones", "config": {}}, "beta_regularizer": null, "gamma_regularizer": null, "beta_constraint": null, "gamma_constraint": null}, "inbound_nodes": [[["depthwise_conv2d_17", 0, 0, {}]]]}, {"name": "re_lu_35", "class_name": "ReLU", "config": {"name": "re_lu_35", "trainable": true, "max_value": 6.0, "negative_slope": 0.0, "threshold": 0.0}, "inbound_nodes": [[["BNQmaVvz", 0, 0, {}]]]}, {"name": "CBSZwBuD", "class_name": "Conv2D", "config": {"name": "CBSZwBuD", "trainable": true, "filters": 320, "kernel_size": [1, 1], "strides": [1, 1], "padding": "valid", "data_format": "channels_first", "dilation_rate": [1, 1], "activation": "linear", "use_bias": false, "kernel_initializer": {"class_name": "Zeros", "config": {}}, "bias_initializer": {"class_name": "Zeros", "config": {}}, "kernel_regularizer": null, "bias_regularizer": null, "activity_regularizer": null, "kernel_constraint": null, "bias_constraint": null}, "inbound_nodes": [[["re_lu_35", 0, 0, {}]]]}, {"name": "BNdsbpuv", "class_name": "BatchNormalization", "config": {"name": "BNdsbpuv", "trainable": true, "axis": 1, "momentum": 1.0, "epsilon": 1e-05, "center": true, "scale": true, "beta_initializer": {"class_name": "Zeros", "config": {}}, "gamma_initializer": {"class_name": "Ones", "config": {}}, "moving_mean_initializer": {"class_name": "Zeros", "config": {}}, "moving_variance_initializer": {"class_name": "Ones", "config": {}}, "beta_regularizer": null, "gamma_regularizer": null, "beta_constraint": null, "gamma_constraint": null}, "inbound_nodes": [[["CBSZwBuD", 0, 0, {}]]]}, {"name": "CxIKeFSm", "class_name": "Conv2D", "config": {"name": "CxIKeFSm", "trainable": true, "filters": 256, "kernel_size": [1, 1], "strides": [1, 1], "padding": "valid", "data_format": "channels_first", "dilation_rate": [1, 1], "activation": "linear", "use_bias": false, "kernel_initializer": {"class_name": "Zeros", "config": {}}, "bias_initializer": {"class_name": "Zeros", "config": {}}, "kernel_regularizer": null, "bias_regularizer": null, "activity_regularizer": null, "kernel_constraint": null, "bias_constraint": null}, "inbound_nodes": [[["BNdsbpuv", 0, 0, {}]]]}, {"name": "CUMShKnt", "class_name": "Conv2D", "config": {"name": "CUMShKnt", "trainable": true, "filters": 256, "kernel_size": [1, 1], "strides": [1, 1], "padding": "valid", "data_format": "channels_first", "dilation_rate": [1, 1], "activation": "linear", "use_bias": false, "kernel_initializer": {"class_name": "Zeros", "config": {}}, "bias_initializer": {"class_name": "Zeros", "config": {}}, "kernel_regularizer": null, "bias_regularizer": null, "activity_regularizer": null, "kernel_constraint": null, "bias_constraint": null}, "inbound_nodes": [[["AELnhSUT", 0, 0, {}]]]}, {"name": "AnRblHWF", "class_name": "Add", "config": {"name": "AnRblHWF", "trainable": true}, "inbound_nodes": [[["CxIKeFSm", 0, 0, {}], ["CUMShKnt", 0, 0, {}]]]}, {"name": "re_lu_36", "class_name": "ReLU", "config": {"name": "re_lu_36", "trainable": true, "max_value": 6.0, "negative_slope": 0.0, "threshold": 0.0}, "inbound_nodes": [[["AnRblHWF", 0, 0, {}]]]}, {"name": "PwSYswoC", "class_name": "MaxPooling2D", "config": {"name": "PwSYswoC", "trainable": true, "pool_size": [5, 5], "padding": "same", "strides": [1, 1], "data_format": "channels_first"}, "inbound_nodes": [[["re_lu_36", 0, 0, {}]]]}, {"name": "CvlpQCfX", "class_name": "Conv2D", "config": {"name": "CvlpQCfX", "trainable": true, "filters": 256, "kernel_size": [1, 1], "strides": [1, 1], "padding": "valid", "data_format": "channels_first", "dilation_rate": [1, 1], "activation": "linear", "use_bias": false, "kernel_initializer": {"class_name": "Zeros", "config": {}}, "bias_initializer": {"class_name": "Zeros", "config": {}}, "kernel_regularizer": null, "bias_regularizer": null, "activity_regularizer": null, "kernel_constraint": null, "bias_constraint": null}, "inbound_nodes": [[["PwSYswoC", 0, 0, {}]]]}, {"name": "PNSPdNLe", "class_name": "MaxPooling2D", "config": {"name": "PNSPdNLe", "trainable": true, "pool_size": [5, 5], "padding": "same", "strides": [1, 1], "data_format": "channels_first"}, "inbound_nodes": [[["CvlpQCfX", 0, 0, {}]]]}, {"name": "CaEQMnBY", "class_name": "Conv2D", "config": {"name": "CaEQMnBY", "trainable": true, "filters": 256, "kernel_size": [1, 1], "strides": [1, 1], "padding": "valid", "data_format": "channels_first", "dilation_rate": [1, 1], "activation": "linear", "use_bias": false, "kernel_initializer": {"class_name": "Zeros", "config": {}}, "bias_initializer": {"class_name": "Zeros", "config": {}}, "kernel_regularizer": null, "bias_regularizer": null, "activity_regularizer": null, "kernel_constraint": null, "bias_constraint": null}, "inbound_nodes": [[["PNSPdNLe", 0, 0, {}]]]}, {"name": "PIiEpeJE", "class_name": "MaxPooling2D", "config": {"name": "PIiEpeJE", "trainable": true, "pool_size": [5, 5], "padding": "same", "strides": [1, 1], "data_format": "channels_first"}, "inbound_nodes": [[["CaEQMnBY", 0, 0, {}]]]}, {"name": "CctrQwvL", "class_name": "Conv2D", "config": {"name": "CctrQwvL", "trainable": true, "filters": 256, "kernel_size": [1, 1], "strides": [1, 1], "padding": "valid", "data_format": "channels_first", "dilation_rate": [1, 1], "activation": "linear", "use_bias": false, "kernel_initializer": {"class_name": "Zeros", "config": {}}, "bias_initializer": {"class_name": "Zeros", "config": {}}, "kernel_regularizer": null, "bias_regularizer": null, "activity_regularizer": null, "kernel_constraint": null, "bias_constraint": null}, "inbound_nodes": [[["PIiEpeJE", 0, 0, {}]]]}, {"name": "AcGdFOps", "class_name": "Add", "config": {"name": "AcGdFOps", "trainable": true}, "inbound_nodes": [[["CvlpQCfX", 0, 0, {}], ["re_lu_36", 0, 0, {}]]]}, {"name": "PwropFvz", "class_name": "MaxPooling2D", "config": {"name": "PwropFvz", "trainable": true, "pool_size": [5, 5], "padding": "same", "strides": [1, 1], "data_format": "channels_first"}, "inbound_nodes": [[["CctrQwvL", 0, 0, {}]]]}, {"name": "ABRRrdvG", "class_name": "Add", "config": {"name": "ABRRrdvG", "trainable": true}, "inbound_nodes": [[["CaEQMnBY", 0, 0, {}], ["AcGdFOps", 0, 0, {}]]]}, {"name": "CjVMGUof", "class_name": "Conv2D", "config": {"name": "CjVMGUof", "trainable": true, "filters": 256, "kernel_size": [1, 1], "strides": [1, 1], "padding": "valid", "data_format": "channels_first", "dilation_rate": [1, 1], "activation": "linear", "use_bias": false, "kernel_initializer": {"class_name": "Zeros", "config": {}}, "bias_initializer": {"class_name": "Zeros", "config": {}}, "kernel_regularizer": null, "bias_regularizer": null, "activity_regularizer": null, "kernel_constraint": null, "bias_constraint": null}, "inbound_nodes": [[["PwropFvz", 0, 0, {}]]]}, {"name": "AjrDzqsh", "class_name": "Add", "config": {"name": "AjrDzqsh", "trainable": true}, "inbound_nodes": [[["CctrQwvL", 0, 0, {}], ["ABRRrdvG", 0, 0, {}]]]}, {"name": "AmAcpbwX", "class_name": "Add", "config": {"name": "AmAcpbwX", "trainable": true}, "inbound_nodes": [[["CjVMGUof", 0, 0, {}], ["AjrDzqsh", 0, 0, {}]]]}, {"name": "CHUMECDS", "class_name": "Conv2D", "config": {"name": "CHUMECDS", "trainable": true, "filters": 256, "kernel_size": [1, 1], "strides": [1, 1], "padding": "valid", "data_format": "channels_first", "dilation_rate": [1, 1], "activation": "linear", "use_bias": false, "kernel_initializer": {"class_name": "Zeros", "config": {}}, "bias_initializer": {"class_name": "Zeros", "config": {}}, "kernel_regularizer": null, "bias_regularizer": null, "activity_regularizer": null, "kernel_constraint": null, "bias_constraint": null}, "inbound_nodes": [[["AidGeXRk", 0, 0, {}]]]}, {"name": "CtpLkoyw", "class_name": "Conv2D", "config": {"name": "CtpLkoyw", "trainable": true, "filters": 256, "kernel_size": [1, 1], "strides": [1, 1], "padding": "valid", "data_format": "channels_first", "dilation_rate": [1, 1], "activation": "linear", "use_bias": false, "kernel_initializer": {"class_name": "Zeros", "config": {}}, "bias_initializer": {"class_name": "Zeros", "config": {}}, "kernel_regularizer": null, "bias_regularizer": null, "activity_regularizer": null, "kernel_constraint": null, "bias_constraint": null}, "inbound_nodes": [[["AZnHMQQu", 0, 0, {}]]]}, {"name": "CJdnziwV", "class_name": "Conv2D", "config": {"name": "CJdnziwV", "trainable": true, "filters": 256, "kernel_size": [1, 1], "strides": [1, 1], "padding": "valid", "data_format": "channels_first", "dilation_rate": [1, 1], "activation": "linear", "use_bias": false, "kernel_initializer": {"class_name": "Zeros", "config": {}}, "bias_initializer": {"class_name": "Zeros", "config": {}}, "kernel_regularizer": null, "bias_regularizer": null, "activity_regularizer": null, "kernel_constraint": null, "bias_constraint": null}, "inbound_nodes": [[["AmAcpbwX", 0, 0, {}]]]}, {"name": "AQTqnUeh", "class_name": "Add", "config": {"name": "AQTqnUeh", "trainable": true}, "inbound_nodes": [[["CHUMECDS", 0, 0, {}], ["CtpLkoyw", 0, 0, {}]]]}, {"name": "UPSLBMRx", "class_name": "UpSampling2D", "config": {"name": "UPSLBMRx", "trainable": true, "size": [2.0, 2.0], "data_format": "channels_first", "interpolation": "bilinear"}, "inbound_nodes": [[["CJdnziwV", 0, 0, {}]]]}, {"name": "AJmpjyzC", "class_name": "Add", "config": {"name": "AJmpjyzC", "trainable": true}, "inbound_nodes": [[["AQTqnUeh", 0, 0, {}], ["UPSLBMRx", 0, 0, {}]]]}, {"name": "re_lu_37", "class_name": "ReLU", "config": {"name": "re_lu_37", "trainable": true, "max_value": 6.0, "negative_slope": 0.0, "threshold": 0.0}, "inbound_nodes": [[["AJmpjyzC", 0, 0, {}]]]}, {"name": "PbpxrWGe", "class_name": "MaxPooling2D", "config": {"name": "PbpxrWGe", "trainable": true, "pool_size": [5, 5], "padding": "same", "strides": [1, 1], "data_format": "channels_first"}, "inbound_nodes": [[["re_lu_37", 0, 0, {}]]]}, {"name": "CflUvzbt", "class_name": "Conv2D", "config": {"name": "CflUvzbt", "trainable": true, "filters": 256, "kernel_size": [1, 1], "strides": [1, 1], "padding": "valid", "data_format": "channels_first", "dilation_rate": [1, 1], "activation": "linear", "use_bias": false, "kernel_initializer": {"class_name": "Zeros", "config": {}}, "bias_initializer": {"class_name": "Zeros", "config": {}}, "kernel_regularizer": null, "bias_regularizer": null, "activity_regularizer": null, "kernel_constraint": null, "bias_constraint": null}, "inbound_nodes": [[["PbpxrWGe", 0, 0, {}]]]}, {"name": "PgCPBjrX", "class_name": "MaxPooling2D", "config": {"name": "PgCPBjrX", "trainable": true, "pool_size": [5, 5], "padding": "same", "strides": [1, 1], "data_format": "channels_first"}, "inbound_nodes": [[["CflUvzbt", 0, 0, {}]]]}, {"name": "CctHGToD", "class_name": "Conv2D", "config": {"name": "CctHGToD", "trainable": true, "filters": 256, "kernel_size": [1, 1], "strides": [1, 1], "padding": "valid", "data_format": "channels_first", "dilation_rate": [1, 1], "activation": "linear", "use_bias": false, "kernel_initializer": {"class_name": "Zeros", "config": {}}, "bias_initializer": {"class_name": "Zeros", "config": {}}, "kernel_regularizer": null, "bias_regularizer": null, "activity_regularizer": null, "kernel_constraint": null, "bias_constraint": null}, "inbound_nodes": [[["PgCPBjrX", 0, 0, {}]]]}, {"name": "PgdZHbmy", "class_name": "MaxPooling2D", "config": {"name": "PgdZHbmy", "trainable": true, "pool_size": [5, 5], "padding": "same", "strides": [1, 1], "data_format": "channels_first"}, "inbound_nodes": [[["CctHGToD", 0, 0, {}]]]}, {"name": "CvncnUpF", "class_name": "Conv2D", "config": {"name": "CvncnUpF", "trainable": true, "filters": 256, "kernel_size": [1, 1], "strides": [1, 1], "padding": "valid", "data_format": "channels_first", "dilation_rate": [1, 1], "activation": "linear", "use_bias": false, "kernel_initializer": {"class_name": "Zeros", "config": {}}, "bias_initializer": {"class_name": "Zeros", "config": {}}, "kernel_regularizer": null, "bias_regularizer": null, "activity_regularizer": null, "kernel_constraint": null, "bias_constraint": null}, "inbound_nodes": [[["PgdZHbmy", 0, 0, {}]]]}, {"name": "ABvHsnMo", "class_name": "Add", "config": {"name": "ABvHsnMo", "trainable": true}, "inbound_nodes": [[["CflUvzbt", 0, 0, {}], ["re_lu_37", 0, 0, {}]]]}, {"name": "PeMxIpnx", "class_name": "MaxPooling2D", "config": {"name": "PeMxIpnx", "trainable": true, "pool_size": [5, 5], "padding": "same", "strides": [1, 1], "data_format": "channels_first"}, "inbound_nodes": [[["CvncnUpF", 0, 0, {}]]]}, {"name": "AYVBybAP", "class_name": "Add", "config": {"name": "AYVBybAP", "trainable": true}, "inbound_nodes": [[["CctHGToD", 0, 0, {}], ["ABvHsnMo", 0, 0, {}]]]}, {"name": "CAQTeFxt", "class_name": "Conv2D", "config": {"name": "CAQTeFxt", "trainable": true, "filters": 256, "kernel_size": [1, 1], "strides": [1, 1], "padding": "valid", "data_format": "channels_first", "dilation_rate": [1, 1], "activation": "linear", "use_bias": false, "kernel_initializer": {"class_name": "Zeros", "config": {}}, "bias_initializer": {"class_name": "Zeros", "config": {}}, "kernel_regularizer": null, "bias_regularizer": null, "activity_regularizer": null, "kernel_constraint": null, "bias_constraint": null}, "inbound_nodes": [[["PeMxIpnx", 0, 0, {}]]]}, {"name": "AvhnLQEG", "class_name": "Add", "config": {"name": "AvhnLQEG", "trainable": true}, "inbound_nodes": [[["CvncnUpF", 0, 0, {}], ["AYVBybAP", 0, 0, {}]]]}, {"name": "AJlhizic", "class_name": "Add", "config": {"name": "AJlhizic", "trainable": true}, "inbound_nodes": [[["CAQTeFxt", 0, 0, {}], ["AvhnLQEG", 0, 0, {}]]]}, {"name": "CpQkpKZx", "class_name": "Conv2D", "config": {"name": "CpQkpKZx", "trainable": true, "filters": 256, "kernel_size": [1, 1], "strides": [1, 1], "padding": "valid", "data_format": "channels_first", "dilation_rate": [1, 1], "activation": "linear", "use_bias": false, "kernel_initializer": {"class_name": "Zeros", "config": {}}, "bias_initializer": {"class_name": "Zeros", "config": {}}, "kernel_regularizer": null, "bias_regularizer": null, "activity_regularizer": null, "kernel_constraint": null, "bias_constraint": null}, "inbound_nodes": [[["AJlhizic", 0, 0, {}]]]}, {"name": "CLENywCE", "class_name": "Conv2D", "config": {"name": "CLENywCE", "trainable": true, "filters": 256, "kernel_size": [1, 1], "strides": [1, 1], "padding": "valid", "data_format": "channels_first", "dilation_rate": [1, 1], "activation": "linear", "use_bias": false, "kernel_initializer": {"class_name": "Zeros", "config": {}}, "bias_initializer": {"class_name": "Zeros", "config": {}}, "kernel_regularizer": null, "bias_regularizer": null, "activity_regularizer": null, "kernel_constraint": null, "bias_constraint": null}, "inbound_nodes": [[["AQOwINuF", 0, 0, {}]]]}, {"name": "UPSLnFXj", "class_name": "UpSampling2D", "config": {"name": "UPSLnFXj", "trainable": true, "size": [2.0, 2.0], "data_format": "channels_first", "interpolation": "bilinear"}, "inbound_nodes": [[["CpQkpKZx", 0, 0, {}]]]}, {"name": "AVZRlUEG", "class_name": "Add", "config": {"name": "AVZRlUEG", "trainable": true}, "inbound_nodes": [[["CLENywCE", 0, 0, {}], ["UPSLnFXj", 0, 0, {}]]]}, {"name": "re_lu_38", "class_name": "ReLU", "config": {"name": "re_lu_38", "trainable": true, "max_value": 6.0, "negative_slope": 0.0, "threshold": 0.0}, "inbound_nodes": [[["AVZRlUEG", 0, 0, {}]]]}, {"name": "PYoEjDgi", "class_name": "MaxPooling2D", "config": {"name": "PYoEjDgi", "trainable": true, "pool_size": [5, 5], "padding": "same", "strides": [1, 1], "data_format": "channels_first"}, "inbound_nodes": [[["re_lu_38", 0, 0, {}]]]}, {"name": "CQramSVX", "class_name": "Conv2D", "config": {"name": "CQramSVX", "trainable": true, "filters": 256, "kernel_size": [1, 1], "strides": [1, 1], "padding": "valid", "data_format": "channels_first", "dilation_rate": [1, 1], "activation": "linear", "use_bias": false, "kernel_initializer": {"class_name": "Zeros", "config": {}}, "bias_initializer": {"class_name": "Zeros", "config": {}}, "kernel_regularizer": null, "bias_regularizer": null, "activity_regularizer": null, "kernel_constraint": null, "bias_constraint": null}, "inbound_nodes": [[["PYoEjDgi", 0, 0, {}]]]}, {"name": "PiRiHGqb", "class_name": "MaxPooling2D", "config": {"name": "PiRiHGqb", "trainable": true, "pool_size": [5, 5], "padding": "same", "strides": [1, 1], "data_format": "channels_first"}, "inbound_nodes": [[["CQramSVX", 0, 0, {}]]]}, {"name": "CiGsgdBu", "class_name": "Conv2D", "config": {"name": "CiGsgdBu", "trainable": true, "filters": 256, "kernel_size": [1, 1], "strides": [1, 1], "padding": "valid", "data_format": "channels_first", "dilation_rate": [1, 1], "activation": "linear", "use_bias": false, "kernel_initializer": {"class_name": "Zeros", "config": {}}, "bias_initializer": {"class_name": "Zeros", "config": {}}, "kernel_regularizer": null, "bias_regularizer": null, "activity_regularizer": null, "kernel_constraint": null, "bias_constraint": null}, "inbound_nodes": [[["PiRiHGqb", 0, 0, {}]]]}, {"name": "PTRvgsFq", "class_name": "MaxPooling2D", "config": {"name": "PTRvgsFq", "trainable": true, "pool_size": [5, 5], "padding": "same", "strides": [1, 1], "data_format": "channels_first"}, "inbound_nodes": [[["CiGsgdBu", 0, 0, {}]]]}, {"name": "CCyKkqTT", "class_name": "Conv2D", "config": {"name": "CCyKkqTT", "trainable": true, "filters": 256, "kernel_size": [1, 1], "strides": [1, 1], "padding": "valid", "data_format": "channels_first", "dilation_rate": [1, 1], "activation": "linear", "use_bias": false, "kernel_initializer": {"class_name": "Zeros", "config": {}}, "bias_initializer": {"class_name": "Zeros", "config": {}}, "kernel_regularizer": null, "bias_regularizer": null, "activity_regularizer": null, "kernel_constraint": null, "bias_constraint": null}, "inbound_nodes": [[["PTRvgsFq", 0, 0, {}]]]}, {"name": "ASGiUNqQ", "class_name": "Add", "config": {"name": "ASGiUNqQ", "trainable": true}, "inbound_nodes": [[["CQramSVX", 0, 0, {}], ["re_lu_38", 0, 0, {}]]]}, {"name": "PlWECocz", "class_name": "MaxPooling2D", "config": {"name": "PlWECocz", "trainable": true, "pool_size": [5, 5], "padding": "same", "strides": [1, 1], "data_format": "channels_first"}, "inbound_nodes": [[["CCyKkqTT", 0, 0, {}]]]}, {"name": "AIkKsSMx", "class_name": "Add", "config": {"name": "AIkKsSMx", "trainable": true}, "inbound_nodes": [[["CiGsgdBu", 0, 0, {}], ["ASGiUNqQ", 0, 0, {}]]]}, {"name": "CRMjrADL", "class_name": "Conv2D", "config": {"name": "CRMjrADL", "trainable": true, "filters": 256, "kernel_size": [1, 1], "strides": [1, 1], "padding": "valid", "data_format": "channels_first", "dilation_rate": [1, 1], "activation": "linear", "use_bias": false, "kernel_initializer": {"class_name": "Zeros", "config": {}}, "bias_initializer": {"class_name": "Zeros", "config": {}}, "kernel_regularizer": null, "bias_regularizer": null, "activity_regularizer": null, "kernel_constraint": null, "bias_constraint": null}, "inbound_nodes": [[["PlWECocz", 0, 0, {}]]]}, {"name": "ApDGCRyP", "class_name": "Add", "config": {"name": "ApDGCRyP", "trainable": true}, "inbound_nodes": [[["CCyKkqTT", 0, 0, {}], ["AIkKsSMx", 0, 0, {}]]]}, {"name": "AAZpBLxB", "class_name": "Add", "config": {"name": "AAZpBLxB", "trainable": true}, "inbound_nodes": [[["CRMjrADL", 0, 0, {}], ["ApDGCRyP", 0, 0, {}]]]}, {"name": "CMXIGpIZ", "class_name": "Conv2D", "config": {"name": "CMXIGpIZ", "trainable": true, "filters": 256, "kernel_size": [1, 1], "strides": [1, 1], "padding": "valid", "data_format": "channels_first", "dilation_rate": [1, 1], "activation": "linear", "use_bias": false, "kernel_initializer": {"class_name": "Zeros", "config": {}}, "bias_initializer": {"class_name": "Zeros", "config": {}}, "kernel_regularizer": null, "bias_regularizer": null, "activity_regularizer": null, "kernel_constraint": null, "bias_constraint": null}, "inbound_nodes": [[["AAZpBLxB", 0, 0, {}]]]}, {"name": "CLsAIFlz", "class_name": "Conv2D", "config": {"name": "CLsAIFlz", "trainable": true, "filters": 256, "kernel_size": [1, 1], "strides": [1, 1], "padding": "valid", "data_format": "channels_first", "dilation_rate": [1, 1], "activation": "linear", "use_bias": false, "kernel_initializer": {"class_name": "Zeros", "config": {}}, "bias_initializer": {"class_name": "Zeros", "config": {}}, "kernel_regularizer": null, "bias_regularizer": null, "activity_regularizer": null, "kernel_constraint": null, "bias_constraint": null}, "inbound_nodes": [[["ADcXQgiU", 0, 0, {}]]]}, {"name": "UPSLCZxc", "class_name": "UpSampling2D", "config": {"name": "UPSLCZxc", "trainable": true, "size": [2.0, 2.0], "data_format": "channels_first", "interpolation": "bilinear"}, "inbound_nodes": [[["CMXIGpIZ", 0, 0, {}]]]}, {"name": "AvIAYAas", "class_name": "Add", "config": {"name": "AvIAYAas", "trainable": true}, "inbound_nodes": [[["CLsAIFlz", 0, 0, {}], ["UPSLCZxc", 0, 0, {}]]]}, {"name": "re_lu_39", "class_name": "ReLU", "config": {"name": "re_lu_39", "trainable": true, "max_value": 6.0, "negative_slope": 0.0, "threshold": 0.0}, "inbound_nodes": [[["AvIAYAas", 0, 0, {}]]]}, {"name": "PRByFuXh", "class_name": "MaxPooling2D", "config": {"name": "PRByFuXh", "trainable": true, "pool_size": [5, 5], "padding": "same", "strides": [1, 1], "data_format": "channels_first"}, "inbound_nodes": [[["re_lu_39", 0, 0, {}]]]}, {"name": "depthwise_conv2d_18", "class_name": "DepthwiseConv2D", "config": {"name": "depthwise_conv2d_18", "trainable": true, "kernel_size": [1, 1], "strides": [1, 1], "padding": "valid", "data_format": "channels_first", "dilation_rate": [1, 1], "activation": "linear", "use_bias": false, "bias_initializer": {"class_name": "Zeros", "config": {}}, "bias_regularizer": null, "activity_regularizer": null, "bias_constraint": null, "depth_multiplier": 1, "depthwise_initializer": {"class_name": "VarianceScaling", "config": {"scale": 1.0, "mode": "fan_avg", "distribution": "uniform", "seed": null}}, "depthwise_regularizer": null, "depthwise_constraint": null}, "inbound_nodes": [[["PRByFuXh", 0, 0, {}]]]}, {"name": "PXSQOEvz", "class_name": "MaxPooling2D", "config": {"name": "PXSQOEvz", "trainable": true, "pool_size": [5, 5], "padding": "same", "strides": [1, 1], "data_format": "channels_first"}, "inbound_nodes": [[["depthwise_conv2d_18", 0, 0, {}]]]}, {"name": "depthwise_conv2d_19", "class_name": "DepthwiseConv2D", "config": {"name": "depthwise_conv2d_19", "trainable": true, "kernel_size": [1, 1], "strides": [1, 1], "padding": "valid", "data_format": "channels_first", "dilation_rate": [1, 1], "activation": "linear", "use_bias": false, "bias_initializer": {"class_name": "Zeros", "config": {}}, "bias_regularizer": null, "activity_regularizer": null, "bias_constraint": null, "depth_multiplier": 1, "depthwise_initializer": {"class_name": "VarianceScaling", "config": {"scale": 1.0, "mode": "fan_avg", "distribution": "uniform", "seed": null}}, "depthwise_regularizer": null, "depthwise_constraint": null}, "inbound_nodes": [[["PXSQOEvz", 0, 0, {}]]]}, {"name": "PFeZSfBJ", "class_name": "MaxPooling2D", "config": {"name": "PFeZSfBJ", "trainable": true, "pool_size": [5, 5], "padding": "same", "strides": [1, 1], "data_format": "channels_first"}, "inbound_nodes": [[["depthwise_conv2d_19", 0, 0, {}]]]}, {"name": "depthwise_conv2d_20", "class_name": "DepthwiseConv2D", "config": {"name": "depthwise_conv2d_20", "trainable": true, "kernel_size": [1, 1], "strides": [1, 1], "padding": "valid", "data_format": "channels_first", "dilation_rate": [1, 1], "activation": "linear", "use_bias": false, "bias_initializer": {"class_name": "Zeros", "config": {}}, "bias_regularizer": null, "activity_regularizer": null, "bias_constraint": null, "depth_multiplier": 1, "depthwise_initializer": {"class_name": "VarianceScaling", "config": {"scale": 1.0, "mode": "fan_avg", "distribution": "uniform", "seed": null}}, "depthwise_regularizer": null, "depthwise_constraint": null}, "inbound_nodes": [[["PFeZSfBJ", 0, 0, {}]]]}, {"name": "AcKHjgGC", "class_name": "Add", "config": {"name": "AcKHjgGC", "trainable": true}, "inbound_nodes": [[["depthwise_conv2d_18", 0, 0, {}], ["re_lu_39", 0, 0, {}]]]}, {"name": "PFqNFitg", "class_name": "MaxPooling2D", "config": {"name": "PFqNFitg", "trainable": true, "pool_size": [5, 5], "padding": "same", "strides": [1, 1], "data_format": "channels_first"}, "inbound_nodes": [[["depthwise_conv2d_20", 0, 0, {}]]]}, {"name": "ADxfHSNj", "class_name": "Add", "config": {"name": "ADxfHSNj", "trainable": true}, "inbound_nodes": [[["depthwise_conv2d_19", 0, 0, {}], ["AcKHjgGC", 0, 0, {}]]]}, {"name": "depthwise_conv2d_21", "class_name": "DepthwiseConv2D", "config": {"name": "depthwise_conv2d_21", "trainable": true, "kernel_size": [1, 1], "strides": [1, 1], "padding": "valid", "data_format": "channels_first", "dilation_rate": [1, 1], "activation": "linear", "use_bias": false, "bias_initializer": {"class_name": "Zeros", "config": {}}, "bias_regularizer": null, "activity_regularizer": null, "bias_constraint": null, "depth_multiplier": 1, "depthwise_initializer": {"class_name": "VarianceScaling", "config": {"scale": 1.0, "mode": "fan_avg", "distribution": "uniform", "seed": null}}, "depthwise_regularizer": null, "depthwise_constraint": null}, "inbound_nodes": [[["PFqNFitg", 0, 0, {}]]]}, {"name": "ASswFOBX", "class_name": "Add", "config": {"name": "ASswFOBX", "trainable": true}, "inbound_nodes": [[["depthwise_conv2d_20", 0, 0, {}], ["ADxfHSNj", 0, 0, {}]]]}, {"name": "AwyKKisH", "class_name": "Add", "config": {"name": "AwyKKisH", "trainable": true}, "inbound_nodes": [[["depthwise_conv2d_21", 0, 0, {}], ["ASswFOBX", 0, 0, {}]]]}, {"name": "depthwise_conv2d_22", "class_name": "DepthwiseConv2D", "config": {"name": "depthwise_conv2d_22", "trainable": true, "kernel_size": [1, 1], "strides": [1, 1], "padding": "valid", "data_format": "channels_first", "dilation_rate": [1, 1], "activation": "linear", "use_bias": false, "bias_initializer": {"class_name": "Zeros", "config": {}}, "bias_regularizer": null, "activity_regularizer": null, "bias_constraint": null, "depth_multiplier": 1, "depthwise_initializer": {"class_name": "VarianceScaling", "config": {"scale": 1.0, "mode": "fan_avg", "distribution": "uniform", "seed": null}}, "depthwise_regularizer": null, "depthwise_constraint": null}, "inbound_nodes": [[["AwyKKisH", 0, 0, {}]]]}, {"name": "depthwise_conv2d_23", "class_name": "DepthwiseConv2D", "config": {"name": "depthwise_conv2d_23", "trainable": true, "kernel_size": [1, 1], "strides": [1, 1], "padding": "valid", "data_format": "channels_first", "dilation_rate": [1, 1], "activation": "linear", "use_bias": false, "bias_initializer": {"class_name": "Zeros", "config": {}}, "bias_regularizer": null, "activity_regularizer": null, "bias_constraint": null, "depth_multiplier": 1, "depthwise_initializer": {"class_name": "VarianceScaling", "config": {"scale": 1.0, "mode": "fan_avg", "distribution": "uniform", "seed": null}}, "depthwise_regularizer": null, "depthwise_constraint": null}, "inbound_nodes": [[["AwyKKisH", 0, 0, {}]]]}, {"name": "re_lu_40", "class_name": "ReLU", "config": {"name": "re_lu_40", "trainable": true, "max_value": 6.0, "negative_slope": 0.0, "threshold": 0.0}, "inbound_nodes": [[["depthwise_conv2d_22", 0, 0, {}]]]}, {"name": "re_lu_41", "class_name": "ReLU", "config": {"name": "re_lu_41", "trainable": true, "max_value": 6.0, "negative_slope": 0.0, "threshold": 0.0}, "inbound_nodes": [[["depthwise_conv2d_23", 0, 0, {}]]]}, {"name": "CLmZeHZf_pad", "class_name": "ZeroPadding2D", "config": {"name": "CLmZeHZf_pad", "trainable": true, "padding": [[1, 1], [1, 1]], "data_format": "channels_first"}, "inbound_nodes": [[["re_lu_40", 0, 0, {}]]]}, {"name": "CVnCtOQd_pad", "class_name": "ZeroPadding2D", "config": {"name": "CVnCtOQd_pad", "trainable": true, "padding": [[1, 1], [1, 1]], "data_format": "channels_first"}, "inbound_nodes": [[["re_lu_41", 0, 0, {}]]]}, {"name": "CLmZeHZf", "class_name": "Conv2D", "config": {"name": "CLmZeHZf", "trainable": true, "filters": 40, "kernel_size": [3, 3], "strides": [1, 1], "padding": "valid", "data_format": "channels_first", "dilation_rate": [1, 1], "activation": "linear", "use_bias": true, "kernel_initializer": {"class_name": "Zeros", "config": {}}, "bias_initializer": {"class_name": "Zeros", "config": {}}, "kernel_regularizer": null, "bias_regularizer": null, "activity_regularizer": null, "kernel_constraint": null, "bias_constraint": null}, "inbound_nodes": [[["CLmZeHZf_pad", 0, 0, {}]]]}, {"name": "CVnCtOQd", "class_name": "Conv2D", "config": {"name": "CVnCtOQd", "trainable": true, "filters": 1, "kernel_size": [3, 3], "strides": [1, 1], "padding": "valid", "data_format": "channels_first", "dilation_rate": [1, 1], "activation": "linear", "use_bias": true, "kernel_initializer": {"class_name": "Zeros", "config": {}}, "bias_initializer": {"class_name": "Zeros", "config": {}}, "kernel_regularizer": null, "bias_regularizer": null, "activity_regularizer": null, "kernel_constraint": null, "bias_constraint": null}, "inbound_nodes": [[["CVnCtOQd_pad", 0, 0, {}]]]}], "input_layers": [["input0", 0, 0]], "output_layers": [["CLmZeHZf", 0, 0], ["CVnCtOQd", 0, 0]]}}}, "weightsManifest": [{"paths": ["group1-shard1of3", "group1-shard2of3", "group1-shard3of3"], "weights": [{"name": "BNAYFmnt/gamma", "shape": [576], "dtype": "float32"}, {"name": "BNAYFmnt/beta", "shape": [576], "dtype": "float32"}, {"name": "BNAYFmnt/moving_mean", "shape": [576], "dtype": "float32"}, {"name": "BNAYFmnt/moving_variance", "shape": [576], "dtype": "float32"}, {"name": "BNEKKinE/gamma", "shape": [384], "dtype": "float32"}, {"name": "BNEKKinE/beta", "shape": [384], "dtype": "float32"}, {"name": "BNEKKinE/moving_mean", "shape": [384], "dtype": "float32"}, {"name": "BNEKKinE/moving_variance", "shape": [384], "dtype": "float32"}, {"name": "BNEmGIAt/gamma", "shape": [144], "dtype": "float32"}, {"name": "BNEmGIAt/beta", "shape": [144], "dtype": "float32"}, {"name": "BNEmGIAt/moving_mean", "shape": [144], "dtype": "float32"}, {"name": "BNEmGIAt/moving_variance", "shape": [144], "dtype": "float32"}, {"name": "BNFAsIzg/gamma", "shape": [16], "dtype": "float32"}, {"name": "BNFAsIzg/beta", "shape": [16], "dtype": "float32"}, {"name": "BNFAsIzg/moving_mean", "shape": [16], "dtype": "float32"}, {"name": "BNFAsIzg/moving_variance", "shape": [16], "dtype": "float32"}, {"name": "BNFRbKsF/gamma", "shape": [576], "dtype": "float32"}, {"name": "BNFRbKsF/beta", "shape": [576], "dtype": "float32"}, {"name": "BNFRbKsF/moving_mean", "shape": [576], "dtype": "float32"}, {"name": "BNFRbKsF/moving_variance", "shape": [576], "dtype": "float32"}, {"name": "BNFwtUiR/gamma", "shape": [32], "dtype": "float32"}, {"name": "BNFwtUiR/beta", "shape": [32], "dtype": "float32"}, {"name": "BNFwtUiR/moving_mean", "shape": [32], "dtype": "float32"}, {"name": "BNFwtUiR/moving_variance", "shape": [32], "dtype": "float32"}, {"name": "BNGgQrJb/gamma", "shape": [384], "dtype": "float32"}, {"name": "BNGgQrJb/beta", "shape": [384], "dtype": "float32"}, {"name": "BNGgQrJb/moving_mean", "shape": [384], "dtype": "float32"}, {"name": "BNGgQrJb/moving_variance", "shape": [384], "dtype": "float32"}, {"name": "BNHVfSno/gamma", "shape": [24], "dtype": "float32"}, {"name": "BNHVfSno/beta", "shape": [24], "dtype": "float32"}, {"name": "BNHVfSno/moving_mean", "shape": [24], "dtype": "float32"}, {"name": "BNHVfSno/moving_variance", "shape": [24], "dtype": "float32"}, {"name": "BNHxyayY/gamma", "shape": [64], "dtype": "float32"}, {"name": "BNHxyayY/beta", "shape": [64], "dtype": "float32"}, {"name": "BNHxyayY/moving_mean", "shape": [64], "dtype": "float32"}, {"name": "BNHxyayY/moving_variance", "shape": [64], "dtype": "float32"}, {"name": "BNIoUBla/gamma", "shape": [384], "dtype": "float32"}, {"name": "BNIoUBla/beta", "shape": [384], "dtype": "float32"}, {"name": "BNIoUBla/moving_mean", "shape": [384], "dtype": "float32"}, {"name": "BNIoUBla/moving_variance", "shape": [384], "dtype": "float32"}, {"name": "BNJJcpBD/gamma", "shape": [960], "dtype": "float32"}, {"name": "BNJJcpBD/beta", "shape": [960], "dtype": "float32"}, {"name": "BNJJcpBD/moving_mean", "shape": [960], "dtype": "float32"}, {"name": "BNJJcpBD/moving_variance", "shape": [960], "dtype": "float32"}, {"name": "BNKgvJng/gamma", "shape": [192], "dtype": "float32"}, {"name": "BNKgvJng/beta", "shape": [192], "dtype": "float32"}, {"name": "BNKgvJng/moving_mean", "shape": [192], "dtype": "float32"}, {"name": "BNKgvJng/moving_variance", "shape": [192], "dtype": "float32"}, {"name": "BNLJEqBy/gamma", "shape": [192], "dtype": "float32"}, {"name": "BNLJEqBy/beta", "shape": [192], "dtype": "float32"}, {"name": "BNLJEqBy/moving_mean", "shape": [192], "dtype": "float32"}, {"name": "BNLJEqBy/moving_variance", "shape": [192], "dtype": "float32"}, {"name": "BNPyYPsh/gamma", "shape": [960], "dtype": "float32"}, {"name": "BNPyYPsh/beta", "shape": [960], "dtype": "float32"}, {"name": "BNPyYPsh/moving_mean", "shape": [960], "dtype": "float32"}, {"name": "BNPyYPsh/moving_variance", "shape": [960], "dtype": "float32"}, {"name": "BNQBYGnP/gamma", "shape": [144], "dtype": "float32"}, {"name": "BNQBYGnP/beta", "shape": [144], "dtype": "float32"}, {"name": "BNQBYGnP/moving_mean", "shape": [144], "dtype": "float32"}, {"name": "BNQBYGnP/moving_variance", "shape": [144], "dtype": "float32"}, {"name": "BNQmaVvz/gamma", "shape": [960], "dtype": "float32"}, {"name": "BNQmaVvz/beta", "shape": [960], "dtype": "float32"}, {"name": "BNQmaVvz/moving_mean", "shape": [960], "dtype": "float32"}, {"name": "BNQmaVvz/moving_variance", "shape": [960], "dtype": "float32"}, {"name": "BNRBdYWc/gamma", "shape": [384], "dtype": "float32"}, {"name": "BNRBdYWc/beta", "shape": [384], "dtype": "float32"}, {"name": "BNRBdYWc/moving_mean", "shape": [384], "dtype": "float32"}, {"name": "BNRBdYWc/moving_variance", "shape": [384], "dtype": "float32"}, {"name": "BNSwMizc/gamma", "shape": [64], "dtype": "float32"}, {"name": "BNSwMizc/beta", "shape": [64], "dtype": "float32"}, {"name": "BNSwMizc/moving_mean", "shape": [64], "dtype": "float32"}, {"name": "BNSwMizc/moving_variance", "shape": [64], "dtype": "float32"}, {"name": "BNUYPJtj/gamma", "shape": [144], "dtype": "float32"}, {"name": "BNUYPJtj/beta", "shape": [144], "dtype": "float32"}, {"name": "BNUYPJtj/moving_mean", "shape": [144], "dtype": "float32"}, {"name": "BNUYPJtj/moving_variance", "shape": [144], "dtype": "float32"}, {"name": "BNUbgpyZ/gamma", "shape": [192], "dtype": "float32"}, {"name": "BNUbgpyZ/beta", "shape": [192], "dtype": "float32"}, {"name": "BNUbgpyZ/moving_mean", "shape": [192], "dtype": "float32"}, {"name": "BNUbgpyZ/moving_variance", "shape": [192], "dtype": "float32"}, {"name": "BNUjNkHa/gamma", "shape": [160], "dtype": "float32"}, {"name": "BNUjNkHa/beta", "shape": [160], "dtype": "float32"}, {"name": "BNUjNkHa/moving_mean", "shape": [160], "dtype": "float32"}, {"name": "BNUjNkHa/moving_variance", "shape": [160], "dtype": "float32"}, {"name": "BNUvBpwz/gamma", "shape": [576], "dtype": "float32"}, {"name": "BNUvBpwz/beta", "shape": [576], "dtype": "float32"}, {"name": "BNUvBpwz/moving_mean", "shape": [576], "dtype": "float32"}, {"name": "BNUvBpwz/moving_variance", "shape": [576], "dtype": "float32"}, {"name": "BNVrxaSW/gamma", "shape": [32], "dtype": "float32"}, {"name": "BNVrxaSW/beta", "shape": [32], "dtype": "float32"}, {"name": "BNVrxaSW/moving_mean", "shape": [32], "dtype": "float32"}, {"name": "BNVrxaSW/moving_variance", "shape": [32], "dtype": "float32"}, {"name": "BNWFacfQ/gamma", "shape": [160], "dtype": "float32"}, {"name": "BNWFacfQ/beta", "shape": [160], "dtype": "float32"}, {"name": "BNWFacfQ/moving_mean", "shape": [160], "dtype": "float32"}, {"name": "BNWFacfQ/moving_variance", "shape": [160], "dtype": "float32"}, {"name": "BNWdHKaO/gamma", "shape": [32], "dtype": "float32"}, {"name": "BNWdHKaO/beta", "shape": [32], "dtype": "float32"}, {"name": "BNWdHKaO/moving_mean", "shape": [32], "dtype": "float32"}, {"name": "BNWdHKaO/moving_variance", "shape": [32], "dtype": "float32"}, {"name": "BNYIxAWZ/gamma", "shape": [32], "dtype": "float32"}, {"name": "BNYIxAWZ/beta", "shape": [32], "dtype": "float32"}, {"name": "BNYIxAWZ/moving_mean", "shape": [32], "dtype": "float32"}, {"name": "BNYIxAWZ/moving_variance", "shape": [32], "dtype": "float32"}, {"name": "BNYVsKJf/gamma", "shape": [96], "dtype": "float32"}, {"name": "BNYVsKJf/beta", "shape": [96], "dtype": "float32"}, {"name": "BNYVsKJf/moving_mean", "shape": [96], "dtype": "float32"}, {"name": "BNYVsKJf/moving_variance", "shape": [96], "dtype": "float32"}, {"name": "BNZcuaHO/gamma", "shape": [576], "dtype": "float32"}, {"name": "BNZcuaHO/beta", "shape": [576], "dtype": "float32"}, {"name": "BNZcuaHO/moving_mean", "shape": [576], "dtype": "float32"}, {"name": "BNZcuaHO/moving_variance", "shape": [576], "dtype": "float32"}, {"name": "BNZwyljk/gamma", "shape": [96], "dtype": "float32"}, {"name": "BNZwyljk/beta", "shape": [96], "dtype": "float32"}, {"name": "BNZwyljk/moving_mean", "shape": [96], "dtype": "float32"}, {"name": "BNZwyljk/moving_variance", "shape": [96], "dtype": "float32"}, {"name": "BNaUGntw/gamma", "shape": [64], "dtype": "float32"}, {"name": "BNaUGntw/beta", "shape": [64], "dtype": "float32"}, {"name": "BNaUGntw/moving_mean", "shape": [64], "dtype": "float32"}, {"name": "BNaUGntw/moving_variance", "shape": [64], "dtype": "float32"}, {"name": "BNcrPaAf/gamma", "shape": [96], "dtype": "float32"}, {"name": "BNcrPaAf/beta", "shape": [96], "dtype": "float32"}, {"name": "BNcrPaAf/moving_mean", "shape": [96], "dtype": "float32"}, {"name": "BNcrPaAf/moving_variance", "shape": [96], "dtype": "float32"}, {"name": "BNdsbpuv/gamma", "shape": [320], "dtype": "float32"}, {"name": "BNdsbpuv/beta", "shape": [320], "dtype": "float32"}, {"name": "BNdsbpuv/moving_mean", "shape": [320], "dtype": "float32"}, {"name": "BNdsbpuv/moving_variance", "shape": [320], "dtype": "float32"}, {"name": "BNeEKjiG/gamma", "shape": [576], "dtype": "float32"}, {"name": "BNeEKjiG/beta", "shape": [576], "dtype": "float32"}, {"name": "BNeEKjiG/moving_mean", "shape": [576], "dtype": "float32"}, {"name": "BNeEKjiG/moving_variance", "shape": [576], "dtype": "float32"}, {"name": "BNeeIjrG/gamma", "shape": [192], "dtype": "float32"}, {"name": "BNeeIjrG/beta", "shape": [192], "dtype": "float32"}, {"name": "BNeeIjrG/moving_mean", "shape": [192], "dtype": "float32"}, {"name": "BNeeIjrG/moving_variance", "shape": [192], "dtype": "float32"}, {"name": "BNepOMwX/gamma", "shape": [960], "dtype": "float32"}, {"name": "BNepOMwX/beta", "shape": [960], "dtype": "float32"}, {"name": "BNepOMwX/moving_mean", "shape": [960], "dtype": "float32"}, {"name": "BNepOMwX/moving_variance", "shape": [960], "dtype": "float32"}, {"name": "BNihzbZY/gamma", "shape": [96], "dtype": "float32"}, {"name": "BNihzbZY/beta", "shape": [96], "dtype": "float32"}, {"name": "BNihzbZY/moving_mean", "shape": [96], "dtype": "float32"}, {"name": "BNihzbZY/moving_variance", "shape": [96], "dtype": "float32"}, {"name": "BNjerWPQ/gamma", "shape": [576], "dtype": "float32"}, {"name": "BNjerWPQ/beta", "shape": [576], "dtype": "float32"}, {"name": "BNjerWPQ/moving_mean", "shape": [576], "dtype": "float32"}, {"name": "BNjerWPQ/moving_variance", "shape": [576], "dtype": "float32"}, {"name": "BNjjJQCO/gamma", "shape": [32], "dtype": "float32"}, {"name": "BNjjJQCO/beta", "shape": [32], "dtype": "float32"}, {"name": "BNjjJQCO/moving_mean", "shape": [32], "dtype": "float32"}, {"name": "BNjjJQCO/moving_variance", "shape": [32], "dtype": "float32"}, {"name": "BNjzrLpi/gamma", "shape": [960], "dtype": "float32"}, {"name": "BNjzrLpi/beta", "shape": [960], "dtype": "float32"}, {"name": "BNjzrLpi/moving_mean", "shape": [960], "dtype": "float32"}, {"name": "BNjzrLpi/moving_variance", "shape": [960], "dtype": "float32"}, {"name": "BNkXsfSe/gamma", "shape": [144], "dtype": "float32"}, {"name": "BNkXsfSe/beta", "shape": [144], "dtype": "float32"}, {"name": "BNkXsfSe/moving_mean", "shape": [144], "dtype": "float32"}, {"name": "BNkXsfSe/moving_variance", "shape": [144], "dtype": "float32"}, {"name": "BNladqnq/gamma", "shape": [960], "dtype": "float32"}, {"name": "BNladqnq/beta", "shape": [960], "dtype": "float32"}, {"name": "BNladqnq/moving_mean", "shape": [960], "dtype": "float32"}, {"name": "BNladqnq/moving_variance", "shape": [960], "dtype": "float32"}, {"name": "BNmsrBEk/gamma", "shape": [160], "dtype": "float32"}, {"name": "BNmsrBEk/beta", "shape": [160], "dtype": "float32"}, {"name": "BNmsrBEk/moving_mean", "shape": [160], "dtype": "float32"}, {"name": "BNmsrBEk/moving_variance", "shape": [160], "dtype": "float32"}, {"name": "BNnLIKQS/gamma", "shape": [384], "dtype": "float32"}, {"name": "BNnLIKQS/beta", "shape": [384], "dtype": "float32"}, {"name": "BNnLIKQS/moving_mean", "shape": [384], "dtype": "float32"}, {"name": "BNnLIKQS/moving_variance", "shape": [384], "dtype": "float32"}, {"name": "BNoellKZ/gamma", "shape": [192], "dtype": "float32"}, {"name": "BNoellKZ/beta", "shape": [192], "dtype": "float32"}, {"name": "BNoellKZ/moving_mean", "shape": [192], "dtype": "float32"}, {"name": "BNoellKZ/moving_variance", "shape": [192], "dtype": "float32"}, {"name": "BNpQQfPq/gamma", "shape": [96], "dtype": "float32"}, {"name": "BNpQQfPq/beta", "shape": [96], "dtype": "float32"}, {"name": "BNpQQfPq/moving_mean", "shape": [96], "dtype": "float32"}, {"name": "BNpQQfPq/moving_variance", "shape": [96], "dtype": "float32"}, {"name": "BNpmmvwQ/gamma", "shape": [32], "dtype": "float32"}, {"name": "BNpmmvwQ/beta", "shape": [32], "dtype": "float32"}, {"name": "BNpmmvwQ/moving_mean", "shape": [32], "dtype": "float32"}, {"name": "BNpmmvwQ/moving_variance", "shape": [32], "dtype": "float32"}, {"name": "BNrMPkDN/gamma", "shape": [384], "dtype": "float32"}, {"name": "BNrMPkDN/beta", "shape": [384], "dtype": "float32"}, {"name": "BNrMPkDN/moving_mean", "shape": [384], "dtype": "float32"}, {"name": "BNrMPkDN/moving_variance", "shape": [384], "dtype": "float32"}, {"name": "BNrMuFkc/gamma", "shape": [64], "dtype": "float32"}, {"name": "BNrMuFkc/beta", "shape": [64], "dtype": "float32"}, {"name": "BNrMuFkc/moving_mean", "shape": [64], "dtype": "float32"}, {"name": "BNrMuFkc/moving_variance", "shape": [64], "dtype": "float32"}, {"name": "BNsQzaRb/gamma", "shape": [384], "dtype": "float32"}, {"name": "BNsQzaRb/beta", "shape": [384], "dtype": "float32"}, {"name": "BNsQzaRb/moving_mean", "shape": [384], "dtype": "float32"}, {"name": "BNsQzaRb/moving_variance", "shape": [384], "dtype": "float32"}, {"name": "BNuVxJHY/gamma", "shape": [192], "dtype": "float32"}, {"name": "BNuVxJHY/beta", "shape": [192], "dtype": "float32"}, {"name": "BNuVxJHY/moving_mean", "shape": [192], "dtype": "float32"}, {"name": "BNuVxJHY/moving_variance", "shape": [192], "dtype": "float32"}, {"name": "BNwiZRGV/gamma", "shape": [24], "dtype": "float32"}, {"name": "BNwiZRGV/beta", "shape": [24], "dtype": "float32"}, {"name": "BNwiZRGV/moving_mean", "shape": [24], "dtype": "float32"}, {"name": "BNwiZRGV/moving_variance", "shape": [24], "dtype": "float32"}, {"name": "BNxUEeWy/gamma", "shape": [384], "dtype": "float32"}, {"name": "BNxUEeWy/beta", "shape": [384], "dtype": "float32"}, {"name": "BNxUEeWy/moving_mean", "shape": [384], "dtype": "float32"}, {"name": "BNxUEeWy/moving_variance", "shape": [384], "dtype": "float32"}, {"name": "CAQTeFxt/kernel", "shape": [1, 1, 256, 256], "dtype": "float32"}, {"name": "CASKCFpw/kernel", "shape": [1, 1, 160, 960], "dtype": "float32"}, {"name": "CAgwwVKN/kernel", "shape": [1, 1, 32, 32], "dtype": "float32"}, {"name": "CBSZwBuD/kernel", "shape": [1, 1, 960, 320], "dtype": "float32"}, {"name": "CCyKkqTT/kernel", "shape": [1, 1, 256, 256], "dtype": "float32"}, {"name": "CDcVLrly/kernel", "shape": [1, 1, 960, 160], "dtype": "float32"}, {"name": "CDoIzcBt/kernel", "shape": [1, 1, 160, 960], "dtype": "float32"}, {"name": "CFidsHTO/kernel", "shape": [1, 1, 64, 384], "dtype": "float32"}, {"name": "CGAqWiPe/kernel", "shape": [1, 1, 64, 384], "dtype": "float32"}, {"name": "CGQLBQXu/kernel", "shape": [1, 1, 192, 64], "dtype": "float32"}, {"name": "CHUMECDS/kernel", "shape": [1, 1, 96, 256], "dtype": "float32"}, {"name": "CJdnziwV/kernel", "shape": [1, 1, 256, 256], "dtype": "float32"}, {"name": "CJjbGqnO/kernel", "shape": [1, 1, 96, 576], "dtype": "float32"}, {"name": "CKXtvhCm/kernel", "shape": [1, 1, 96, 576], "dtype": "float32"}, {"name": "CLENywCE/kernel", "shape": [1, 1, 32, 256], "dtype": "float32"}, {"name": "CLmZeHZf/kernel", "shape": [3, 3, 256, 40], "dtype": "float32"}, {"name": "CLmZeHZf/bias", "shape": [40], "dtype": "float32"}, {"name": "CLsAIFlz/kernel", "shape": [1, 1, 24, 256], "dtype": "float32"}, {"name": "CMXIGpIZ/kernel", "shape": [1, 1, 256, 256], "dtype": "float32"}, {"name": "CNlgRPJC/kernel", "shape": [3, 3, 3, 32], "dtype": "float32"}, {"name": "COkUnLHp/kernel", "shape": [1, 1, 32, 192], "dtype": "float32"}, {"name": "CPQuFjBW/kernel", "shape": [1, 1, 960, 160], "dtype": "float32"}, {"name": "CQramSVX/kernel", "shape": [1, 1, 256, 256], "dtype": "float32"}, {"name": "CRMjrADL/kernel", "shape": [1, 1, 256, 256], "dtype": "float32"}, {"name": "CScxTVzR/kernel", "shape": [1, 1, 160, 960], "dtype": "float32"}, {"name": "CTgPBHrZ/kernel", "shape": [1, 1, 576, 160], "dtype": "float32"}, {"name": "CUMShKnt/kernel", "shape": [1, 1, 160, 256], "dtype": "float32"}, {"name": "CVLdBjpH/kernel", "shape": [1, 1, 384, 96], "dtype": "float32"}, {"name": "CVnCtOQd/kernel", "shape": [3, 3, 256, 1], "dtype": "float32"}, {"name": "CVnCtOQd/bias", "shape": [1], "dtype": "float32"}, {"name": "CZQpoJNa/kernel", "shape": [1, 1, 384, 64], "dtype": "float32"}, {"name": "CZmYjfPv/kernel", "shape": [1, 1, 192, 32], "dtype": "float32"}, {"name": "CaEQMnBY/kernel", "shape": [1, 1, 256, 256], "dtype": "float32"}, {"name": "CbhAvdaU/kernel", "shape": [1, 1, 32, 192], "dtype": "float32"}, {"name": "CcKApSSK/kernel", "shape": [1, 1, 32, 192], "dtype": "float32"}, {"name": "CcSZduYO/kernel", "shape": [1, 1, 24, 144], "dtype": "float32"}, {"name": "CctHGToD/kernel", "shape": [1, 1, 256, 256], "dtype": "float32"}, {"name": "CctrQwvL/kernel", "shape": [1, 1, 256, 256], "dtype": "float32"}, {"name": "CdtHUaoj/kernel", "shape": [1, 1, 576, 96], "dtype": "float32"}, {"name": "CeZaqlpH/kernel", "shape": [1, 1, 384, 64], "dtype": "float32"}, {"name": "CflUvzbt/kernel", "shape": [1, 1, 256, 256], "dtype": "float32"}, {"name": "CgPogSqb/kernel", "shape": [1, 1, 32, 16], "dtype": "float32"}, {"name": "CglENUcO/kernel", "shape": [1, 1, 16, 96], "dtype": "float32"}, {"name": "CiGsgdBu/kernel", "shape": [1, 1, 256, 256], "dtype": "float32"}, {"name": "CjVMGUof/kernel", "shape": [1, 1, 256, 256], "dtype": "float32"}, {"name": "ClPTZbff/kernel", "shape": [1, 1, 24, 144], "dtype": "float32"}, {"name": "ClsxvCRw/kernel", "shape": [1, 1, 144, 32], "dtype": "float32"}, {"name": "CmCTkHlm/kernel", "shape": [1, 1, 96, 576], "dtype": "float32"}, {"name": "CpQkpKZx/kernel", "shape": [1, 1, 256, 256], "dtype": "float32"}, {"name": "CqfXJpta/kernel", "shape": [1, 1, 192, 32], "dtype": "float32"}, {"name": "CqpFcxvf/kernel", "shape": [1, 1, 64, 384], "dtype": "float32"}, {"name": "CsMFqGhS/kernel", "shape": [1, 1, 576, 96], "dtype": "float32"}, {"name": "CsXHIseI/kernel", "shape": [1, 1, 384, 64], "dtype": "float32"}, {"name": "CtpLkoyw/kernel", "shape": [1, 1, 64, 256], "dtype": "float32"}, {"name": "CvlpQCfX/kernel", "shape": [1, 1, 256, 256], "dtype": "float32"}, {"name": "CvncnUpF/kernel", "shape": [1, 1, 256, 256], "dtype": "float32"}, {"name": "CwtaFdVb/kernel", "shape": [1, 1, 64, 384], "dtype": "float32"}, {"name": "CxIKeFSm/kernel", "shape": [1, 1, 320, 256], "dtype": "float32"}, {"name": "CxgmVkUJ/kernel", "shape": [1, 1, 144, 24], "dtype": "float32"}, {"name": "CyMnxFYP/kernel", "shape": [1, 1, 96, 24], "dtype": "float32"}, {"name": "depthwise_conv2d_1/depthwise_kernel", "shape": [3, 3, 32, 1], "dtype": "float32"}, {"name": "depthwise_conv2d_10/depthwise_kernel", "shape": [3, 3, 384, 1], "dtype": "float32"}, {"name": "depthwise_conv2d_11/depthwise_kernel", "shape": [3, 3, 384, 1], "dtype": "float32"}, {"name": "depthwise_conv2d_12/depthwise_kernel", "shape": [3, 3, 576, 1], "dtype": "float32"}, {"name": "depthwise_conv2d_13/depthwise_kernel", "shape": [3, 3, 576, 1], "dtype": "float32"}, {"name": "depthwise_conv2d_14/depthwise_kernel", "shape": [3, 3, 576, 1], "dtype": "float32"}, {"name": "depthwise_conv2d_15/depthwise_kernel", "shape": [3, 3, 960, 1], "dtype": "float32"}, {"name": "depthwise_conv2d_16/depthwise_kernel", "shape": [3, 3, 960, 1], "dtype": "float32"}, {"name": "depthwise_conv2d_17/depthwise_kernel", "shape": [3, 3, 960, 1], "dtype": "float32"}, {"name": "depthwise_conv2d_18/depthwise_kernel", "shape": [1, 1, 256, 1], "dtype": "float32"}, {"name": "depthwise_conv2d_19/depthwise_kernel", "shape": [1, 1, 256, 1], "dtype": "float32"}, {"name": "depthwise_conv2d_2/depthwise_kernel", "shape": [3, 3, 96, 1], "dtype": "float32"}, {"name": "depthwise_conv2d_20/depthwise_kernel", "shape": [1, 1, 256, 1], "dtype": "float32"}, {"name": "depthwise_conv2d_21/depthwise_kernel", "shape": [1, 1, 256, 1], "dtype": "float32"}, {"name": "depthwise_conv2d_22/depthwise_kernel", "shape": [1, 1, 256, 1], "dtype": "float32"}, {"name": "depthwise_conv2d_23/depthwise_kernel", "shape": [1, 1, 256, 1], "dtype": "float32"}, {"name": "depthwise_conv2d_3/depthwise_kernel", "shape": [3, 3, 144, 1], "dtype": "float32"}, {"name": "depthwise_conv2d_4/depthwise_kernel", "shape": [3, 3, 144, 1], "dtype": "float32"}, {"name": "depthwise_conv2d_5/depthwise_kernel", "shape": [3, 3, 192, 1], "dtype": "float32"}, {"name": "depthwise_conv2d_6/depthwise_kernel", "shape": [3, 3, 192, 1], "dtype": "float32"}, {"name": "depthwise_conv2d_7/depthwise_kernel", "shape": [3, 3, 192, 1], "dtype": "float32"}, {"name": "depthwise_conv2d_8/depthwise_kernel", "shape": [3, 3, 384, 1], "dtype": "float32"}, {"name": "depthwise_conv2d_9/depthwise_kernel", "shape": [3, 3, 384, 1], "dtype": "float32"}]}]}