{"modelTopology": {"keras_version": "2.2.4", "backend": "tensorflow", "model_config": {"class_name": "Model", "config": {"name": "model_1", "layers": [{"name": "input0", "class_name": "InputLayer", "config": {"batch_input_shape": [null, 3, null, null], "dtype": "float32", "sparse": false, "name": "input0"}, "inbound_nodes": []}, {"name": "ChDlXmKq_pad", "class_name": "ZeroPadding2D", "config": {"name": "ChDlXmKq_pad", "trainable": true, "padding": [[1, 1], [1, 1]], "data_format": "channels_first"}, "inbound_nodes": [[["input0", 0, 0, {}]]]}, {"name": "ChDlXmKq", "class_name": "Conv2D", "config": {"name": "ChDlXmKq", "trainable": true, "filters": 32, "kernel_size": [3, 3], "strides": [2, 2], "padding": "valid", "data_format": "channels_first", "dilation_rate": [1, 1], "activation": "linear", "use_bias": false, "kernel_initializer": {"class_name": "Zeros", "config": {}}, "bias_initializer": {"class_name": "Zeros", "config": {}}, "kernel_regularizer": null, "bias_regularizer": null, "activity_regularizer": null, "kernel_constraint": null, "bias_constraint": null}, "inbound_nodes": [[["ChDlXmKq_pad", 0, 0, {}]]]}, {"name": "BNitmwgs", "class_name": "BatchNormalization", "config": {"name": "BNitmwgs", "trainable": true, "axis": 1, "momentum": 1.0, "epsilon": 1e-05, "center": true, "scale": true, "beta_initializer": {"class_name": "Zeros", "config": {}}, "gamma_initializer": {"class_name": "Ones", "config": {}}, "moving_mean_initializer": {"class_name": "Zeros", "config": {}}, "moving_variance_initializer": {"class_name": "Ones", "config": {}}, "beta_regularizer": null, "gamma_regularizer": null, "beta_constraint": null, "gamma_constraint": null}, "inbound_nodes": [[["ChDlXmKq", 0, 0, {}]]]}, {"name": "re_lu_1", "class_name": "ReLU", "config": {"name": "re_lu_1", "trainable": true, "max_value": 6.0, "negative_slope": 0.0, "threshold": 0.0}, "inbound_nodes": [[["BNitmwgs", 0, 0, {}]]]}, {"name": "CEBUhkgD", "class_name": "Conv2D", "config": {"name": "CEBUhkgD", "trainable": true, "filters": 32, "kernel_size": [1, 1], "strides": [1, 1], "padding": "valid", "data_format": "channels_first", "dilation_rate": [1, 1], "activation": "linear", "use_bias": false, "kernel_initializer": {"class_name": "Zeros", "config": {}}, "bias_initializer": {"class_name": "Zeros", "config": {}}, "kernel_regularizer": null, "bias_regularizer": null, "activity_regularizer": null, "kernel_constraint": null, "bias_constraint": null}, "inbound_nodes": [[["re_lu_1", 0, 0, {}]]]}, {"name": "BNtkuFeu", "class_name": "BatchNormalization", "config": {"name": "BNtkuFeu", "trainable": true, "axis": 1, "momentum": 1.0, "epsilon": 1e-05, "center": true, "scale": true, "beta_initializer": {"class_name": "Zeros", "config": {}}, "gamma_initializer": {"class_name": "Ones", "config": {}}, "moving_mean_initializer": {"class_name": "Zeros", "config": {}}, "moving_variance_initializer": {"class_name": "Ones", "config": {}}, "beta_regularizer": null, "gamma_regularizer": null, "beta_constraint": null, "gamma_constraint": null}, "inbound_nodes": [[["CEBUhkgD", 0, 0, {}]]]}, {"name": "re_lu_2", "class_name": "ReLU", "config": {"name": "re_lu_2", "trainable": true, "max_value": 6.0, "negative_slope": 0.0, "threshold": 0.0}, "inbound_nodes": [[["BNtkuFeu", 0, 0, {}]]]}, {"name": "CkCaXfqw_pad", "class_name": "ZeroPadding2D", "config": {"name": "CkCaXfqw_pad", "trainable": true, "padding": [[1, 1], [1, 1]], "data_format": "channels_first"}, "inbound_nodes": [[["re_lu_2", 0, 0, {}]]]}, {"name": "depthwise_conv2d_1", "class_name": "DepthwiseConv2D", "config": {"name": "depthwise_conv2d_1", "trainable": true, "kernel_size": [3, 3], "strides": [1, 1], "padding": "valid", "data_format": "channels_first", "dilation_rate": [1, 1], "activation": "linear", "use_bias": false, "bias_initializer": {"class_name": "Zeros", "config": {}}, "bias_regularizer": null, "activity_regularizer": null, "bias_constraint": null, "depth_multiplier": 1, "depthwise_initializer": {"class_name": "VarianceScaling", "config": {"scale": 1.0, "mode": "fan_avg", "distribution": "uniform", "seed": null}}, "depthwise_regularizer": null, "depthwise_constraint": null}, "inbound_nodes": [[["CkCaXfqw_pad", 0, 0, {}]]]}, {"name": "BNdKMrgo", "class_name": "BatchNormalization", "config": {"name": "BNdKMrgo", "trainable": true, "axis": 1, "momentum": 1.0, "epsilon": 1e-05, "center": true, "scale": true, "beta_initializer": {"class_name": "Zeros", "config": {}}, "gamma_initializer": {"class_name": "Ones", "config": {}}, "moving_mean_initializer": {"class_name": "Zeros", "config": {}}, "moving_variance_initializer": {"class_name": "Ones", "config": {}}, "beta_regularizer": null, "gamma_regularizer": null, "beta_constraint": null, "gamma_constraint": null}, "inbound_nodes": [[["depthwise_conv2d_1", 0, 0, {}]]]}, {"name": "re_lu_3", "class_name": "ReLU", "config": {"name": "re_lu_3", "trainable": true, "max_value": 6.0, "negative_slope": 0.0, "threshold": 0.0}, "inbound_nodes": [[["BNdKMrgo", 0, 0, {}]]]}, {"name": "CKBciZmx", "class_name": "Conv2D", "config": {"name": "CKBciZmx", "trainable": true, "filters": 16, "kernel_size": [1, 1], "strides": [1, 1], "padding": "valid", "data_format": "channels_first", "dilation_rate": [1, 1], "activation": "linear", "use_bias": false, "kernel_initializer": {"class_name": "Zeros", "config": {}}, "bias_initializer": {"class_name": "Zeros", "config": {}}, "kernel_regularizer": null, "bias_regularizer": null, "activity_regularizer": null, "kernel_constraint": null, "bias_constraint": null}, "inbound_nodes": [[["re_lu_3", 0, 0, {}]]]}, {"name": "BNXToKGb", "class_name": "BatchNormalization", "config": {"name": "BNXToKGb", "trainable": true, "axis": 1, "momentum": 1.0, "epsilon": 1e-05, "center": true, "scale": true, "beta_initializer": {"class_name": "Zeros", "config": {}}, "gamma_initializer": {"class_name": "Ones", "config": {}}, "moving_mean_initializer": {"class_name": "Zeros", "config": {}}, "moving_variance_initializer": {"class_name": "Ones", "config": {}}, "beta_regularizer": null, "gamma_regularizer": null, "beta_constraint": null, "gamma_constraint": null}, "inbound_nodes": [[["CKBciZmx", 0, 0, {}]]]}, {"name": "CkerWBEz", "class_name": "Conv2D", "config": {"name": "CkerWBEz", "trainable": true, "filters": 96, "kernel_size": [1, 1], "strides": [1, 1], "padding": "valid", "data_format": "channels_first", "dilation_rate": [1, 1], "activation": "linear", "use_bias": false, "kernel_initializer": {"class_name": "Zeros", "config": {}}, "bias_initializer": {"class_name": "Zeros", "config": {}}, "kernel_regularizer": null, "bias_regularizer": null, "activity_regularizer": null, "kernel_constraint": null, "bias_constraint": null}, "inbound_nodes": [[["BNXToKGb", 0, 0, {}]]]}, {"name": "BNkCqjEx", "class_name": "BatchNormalization", "config": {"name": "BNkCqjEx", "trainable": true, "axis": 1, "momentum": 1.0, "epsilon": 1e-05, "center": true, "scale": true, "beta_initializer": {"class_name": "Zeros", "config": {}}, "gamma_initializer": {"class_name": "Ones", "config": {}}, "moving_mean_initializer": {"class_name": "Zeros", "config": {}}, "moving_variance_initializer": {"class_name": "Ones", "config": {}}, "beta_regularizer": null, "gamma_regularizer": null, "beta_constraint": null, "gamma_constraint": null}, "inbound_nodes": [[["CkerWBEz", 0, 0, {}]]]}, {"name": "re_lu_4", "class_name": "ReLU", "config": {"name": "re_lu_4", "trainable": true, "max_value": 6.0, "negative_slope": 0.0, "threshold": 0.0}, "inbound_nodes": [[["BNkCqjEx", 0, 0, {}]]]}, {"name": "CFPGWdIc_pad", "class_name": "ZeroPadding2D", "config": {"name": "CFPGWdIc_pad", "trainable": true, "padding": [[1, 1], [1, 1]], "data_format": "channels_first"}, "inbound_nodes": [[["re_lu_4", 0, 0, {}]]]}, {"name": "depthwise_conv2d_2", "class_name": "DepthwiseConv2D", "config": {"name": "depthwise_conv2d_2", "trainable": true, "kernel_size": [3, 3], "strides": [2, 2], "padding": "valid", "data_format": "channels_first", "dilation_rate": [1, 1], "activation": "linear", "use_bias": false, "bias_initializer": {"class_name": "Zeros", "config": {}}, "bias_regularizer": null, "activity_regularizer": null, "bias_constraint": null, "depth_multiplier": 1, "depthwise_initializer": {"class_name": "VarianceScaling", "config": {"scale": 1.0, "mode": "fan_avg", "distribution": "uniform", "seed": null}}, "depthwise_regularizer": null, "depthwise_constraint": null}, "inbound_nodes": [[["CFPGWdIc_pad", 0, 0, {}]]]}, {"name": "BNNxSJWt", "class_name": "BatchNormalization", "config": {"name": "BNNxSJWt", "trainable": true, "axis": 1, "momentum": 1.0, "epsilon": 1e-05, "center": true, "scale": true, "beta_initializer": {"class_name": "Zeros", "config": {}}, "gamma_initializer": {"class_name": "Ones", "config": {}}, "moving_mean_initializer": {"class_name": "Zeros", "config": {}}, "moving_variance_initializer": {"class_name": "Ones", "config": {}}, "beta_regularizer": null, "gamma_regularizer": null, "beta_constraint": null, "gamma_constraint": null}, "inbound_nodes": [[["depthwise_conv2d_2", 0, 0, {}]]]}, {"name": "re_lu_5", "class_name": "ReLU", "config": {"name": "re_lu_5", "trainable": true, "max_value": 6.0, "negative_slope": 0.0, "threshold": 0.0}, "inbound_nodes": [[["BNNxSJWt", 0, 0, {}]]]}, {"name": "CJEUJJmp", "class_name": "Conv2D", "config": {"name": "CJEUJJmp", "trainable": true, "filters": 24, "kernel_size": [1, 1], "strides": [1, 1], "padding": "valid", "data_format": "channels_first", "dilation_rate": [1, 1], "activation": "linear", "use_bias": false, "kernel_initializer": {"class_name": "Zeros", "config": {}}, "bias_initializer": {"class_name": "Zeros", "config": {}}, "kernel_regularizer": null, "bias_regularizer": null, "activity_regularizer": null, "kernel_constraint": null, "bias_constraint": null}, "inbound_nodes": [[["re_lu_5", 0, 0, {}]]]}, {"name": "BNGOLsxQ", "class_name": "BatchNormalization", "config": {"name": "BNGOLsxQ", "trainable": true, "axis": 1, "momentum": 1.0, "epsilon": 1e-05, "center": true, "scale": true, "beta_initializer": {"class_name": "Zeros", "config": {}}, "gamma_initializer": {"class_name": "Ones", "config": {}}, "moving_mean_initializer": {"class_name": "Zeros", "config": {}}, "moving_variance_initializer": {"class_name": "Ones", "config": {}}, "beta_regularizer": null, "gamma_regularizer": null, "beta_constraint": null, "gamma_constraint": null}, "inbound_nodes": [[["CJEUJJmp", 0, 0, {}]]]}, {"name": "CIWyZKjj", "class_name": "Conv2D", "config": {"name": "CIWyZKjj", "trainable": true, "filters": 144, "kernel_size": [1, 1], "strides": [1, 1], "padding": "valid", "data_format": "channels_first", "dilation_rate": [1, 1], "activation": "linear", "use_bias": false, "kernel_initializer": {"class_name": "Zeros", "config": {}}, "bias_initializer": {"class_name": "Zeros", "config": {}}, "kernel_regularizer": null, "bias_regularizer": null, "activity_regularizer": null, "kernel_constraint": null, "bias_constraint": null}, "inbound_nodes": [[["BNGOLsxQ", 0, 0, {}]]]}, {"name": "BNKBKyHB", "class_name": "BatchNormalization", "config": {"name": "BNKBKyHB", "trainable": true, "axis": 1, "momentum": 1.0, "epsilon": 1e-05, "center": true, "scale": true, "beta_initializer": {"class_name": "Zeros", "config": {}}, "gamma_initializer": {"class_name": "Ones", "config": {}}, "moving_mean_initializer": {"class_name": "Zeros", "config": {}}, "moving_variance_initializer": {"class_name": "Ones", "config": {}}, "beta_regularizer": null, "gamma_regularizer": null, "beta_constraint": null, "gamma_constraint": null}, "inbound_nodes": [[["CIWyZKjj", 0, 0, {}]]]}, {"name": "re_lu_6", "class_name": "ReLU", "config": {"name": "re_lu_6", "trainable": true, "max_value": 6.0, "negative_slope": 0.0, "threshold": 0.0}, "inbound_nodes": [[["BNKBKyHB", 0, 0, {}]]]}, {"name": "CZDijPqQ_pad", "class_name": "ZeroPadding2D", "config": {"name": "CZDijPqQ_pad", "trainable": true, "padding": [[1, 1], [1, 1]], "data_format": "channels_first"}, "inbound_nodes": [[["re_lu_6", 0, 0, {}]]]}, {"name": "depthwise_conv2d_3", "class_name": "DepthwiseConv2D", "config": {"name": "depthwise_conv2d_3", "trainable": true, "kernel_size": [3, 3], "strides": [1, 1], "padding": "valid", "data_format": "channels_first", "dilation_rate": [1, 1], "activation": "linear", "use_bias": false, "bias_initializer": {"class_name": "Zeros", "config": {}}, "bias_regularizer": null, "activity_regularizer": null, "bias_constraint": null, "depth_multiplier": 1, "depthwise_initializer": {"class_name": "VarianceScaling", "config": {"scale": 1.0, "mode": "fan_avg", "distribution": "uniform", "seed": null}}, "depthwise_regularizer": null, "depthwise_constraint": null}, "inbound_nodes": [[["CZDijPqQ_pad", 0, 0, {}]]]}, {"name": "BNWPWuuW", "class_name": "BatchNormalization", "config": {"name": "BNWPWuuW", "trainable": true, "axis": 1, "momentum": 1.0, "epsilon": 1e-05, "center": true, "scale": true, "beta_initializer": {"class_name": "Zeros", "config": {}}, "gamma_initializer": {"class_name": "Ones", "config": {}}, "moving_mean_initializer": {"class_name": "Zeros", "config": {}}, "moving_variance_initializer": {"class_name": "Ones", "config": {}}, "beta_regularizer": null, "gamma_regularizer": null, "beta_constraint": null, "gamma_constraint": null}, "inbound_nodes": [[["depthwise_conv2d_3", 0, 0, {}]]]}, {"name": "re_lu_7", "class_name": "ReLU", "config": {"name": "re_lu_7", "trainable": true, "max_value": 6.0, "negative_slope": 0.0, "threshold": 0.0}, "inbound_nodes": [[["BNWPWuuW", 0, 0, {}]]]}, {"name": "CSqWgKmk", "class_name": "Conv2D", "config": {"name": "CSqWgKmk", "trainable": true, "filters": 24, "kernel_size": [1, 1], "strides": [1, 1], "padding": "valid", "data_format": "channels_first", "dilation_rate": [1, 1], "activation": "linear", "use_bias": false, "kernel_initializer": {"class_name": "Zeros", "config": {}}, "bias_initializer": {"class_name": "Zeros", "config": {}}, "kernel_regularizer": null, "bias_regularizer": null, "activity_regularizer": null, "kernel_constraint": null, "bias_constraint": null}, "inbound_nodes": [[["re_lu_7", 0, 0, {}]]]}, {"name": "BNwLkgUu", "class_name": "BatchNormalization", "config": {"name": "BNwLkgUu", "trainable": true, "axis": 1, "momentum": 1.0, "epsilon": 1e-05, "center": true, "scale": true, "beta_initializer": {"class_name": "Zeros", "config": {}}, "gamma_initializer": {"class_name": "Ones", "config": {}}, "moving_mean_initializer": {"class_name": "Zeros", "config": {}}, "moving_variance_initializer": {"class_name": "Ones", "config": {}}, "beta_regularizer": null, "gamma_regularizer": null, "beta_constraint": null, "gamma_constraint": null}, "inbound_nodes": [[["CSqWgKmk", 0, 0, {}]]]}, {"name": "AehuOCTJ", "class_name": "Add", "config": {"name": "AehuOCTJ", "trainable": true}, "inbound_nodes": [[["BNwLkgUu", 0, 0, {}], ["BNGOLsxQ", 0, 0, {}]]]}, {"name": "CCMtNGOn", "class_name": "Conv2D", "config": {"name": "CCMtNGOn", "trainable": true, "filters": 144, "kernel_size": [1, 1], "strides": [1, 1], "padding": "valid", "data_format": "channels_first", "dilation_rate": [1, 1], "activation": "linear", "use_bias": false, "kernel_initializer": {"class_name": "Zeros", "config": {}}, "bias_initializer": {"class_name": "Zeros", "config": {}}, "kernel_regularizer": null, "bias_regularizer": null, "activity_regularizer": null, "kernel_constraint": null, "bias_constraint": null}, "inbound_nodes": [[["AehuOCTJ", 0, 0, {}]]]}, {"name": "BNPoyjze", "class_name": "BatchNormalization", "config": {"name": "BNPoyjze", "trainable": true, "axis": 1, "momentum": 1.0, "epsilon": 1e-05, "center": true, "scale": true, "beta_initializer": {"class_name": "Zeros", "config": {}}, "gamma_initializer": {"class_name": "Ones", "config": {}}, "moving_mean_initializer": {"class_name": "Zeros", "config": {}}, "moving_variance_initializer": {"class_name": "Ones", "config": {}}, "beta_regularizer": null, "gamma_regularizer": null, "beta_constraint": null, "gamma_constraint": null}, "inbound_nodes": [[["CCMtNGOn", 0, 0, {}]]]}, {"name": "re_lu_8", "class_name": "ReLU", "config": {"name": "re_lu_8", "trainable": true, "max_value": 6.0, "negative_slope": 0.0, "threshold": 0.0}, "inbound_nodes": [[["BNPoyjze", 0, 0, {}]]]}, {"name": "CcDiUkHF_pad", "class_name": "ZeroPadding2D", "config": {"name": "CcDiUkHF_pad", "trainable": true, "padding": [[1, 1], [1, 1]], "data_format": "channels_first"}, "inbound_nodes": [[["re_lu_8", 0, 0, {}]]]}, {"name": "depthwise_conv2d_4", "class_name": "DepthwiseConv2D", "config": {"name": "depthwise_conv2d_4", "trainable": true, "kernel_size": [3, 3], "strides": [2, 2], "padding": "valid", "data_format": "channels_first", "dilation_rate": [1, 1], "activation": "linear", "use_bias": false, "bias_initializer": {"class_name": "Zeros", "config": {}}, "bias_regularizer": null, "activity_regularizer": null, "bias_constraint": null, "depth_multiplier": 1, "depthwise_initializer": {"class_name": "VarianceScaling", "config": {"scale": 1.0, "mode": "fan_avg", "distribution": "uniform", "seed": null}}, "depthwise_regularizer": null, "depthwise_constraint": null}, "inbound_nodes": [[["CcDiUkHF_pad", 0, 0, {}]]]}, {"name": "BNlLEwLc", "class_name": "BatchNormalization", "config": {"name": "BNlLEwLc", "trainable": true, "axis": 1, "momentum": 1.0, "epsilon": 1e-05, "center": true, "scale": true, "beta_initializer": {"class_name": "Zeros", "config": {}}, "gamma_initializer": {"class_name": "Ones", "config": {}}, "moving_mean_initializer": {"class_name": "Zeros", "config": {}}, "moving_variance_initializer": {"class_name": "Ones", "config": {}}, "beta_regularizer": null, "gamma_regularizer": null, "beta_constraint": null, "gamma_constraint": null}, "inbound_nodes": [[["depthwise_conv2d_4", 0, 0, {}]]]}, {"name": "re_lu_9", "class_name": "ReLU", "config": {"name": "re_lu_9", "trainable": true, "max_value": 6.0, "negative_slope": 0.0, "threshold": 0.0}, "inbound_nodes": [[["BNlLEwLc", 0, 0, {}]]]}, {"name": "CEDiaxgF", "class_name": "Conv2D", "config": {"name": "CEDiaxgF", "trainable": true, "filters": 32, "kernel_size": [1, 1], "strides": [1, 1], "padding": "valid", "data_format": "channels_first", "dilation_rate": [1, 1], "activation": "linear", "use_bias": false, "kernel_initializer": {"class_name": "Zeros", "config": {}}, "bias_initializer": {"class_name": "Zeros", "config": {}}, "kernel_regularizer": null, "bias_regularizer": null, "activity_regularizer": null, "kernel_constraint": null, "bias_constraint": null}, "inbound_nodes": [[["re_lu_9", 0, 0, {}]]]}, {"name": "BNyVwOBc", "class_name": "BatchNormalization", "config": {"name": "BNyVwOBc", "trainable": true, "axis": 1, "momentum": 1.0, "epsilon": 1e-05, "center": true, "scale": true, "beta_initializer": {"class_name": "Zeros", "config": {}}, "gamma_initializer": {"class_name": "Ones", "config": {}}, "moving_mean_initializer": {"class_name": "Zeros", "config": {}}, "moving_variance_initializer": {"class_name": "Ones", "config": {}}, "beta_regularizer": null, "gamma_regularizer": null, "beta_constraint": null, "gamma_constraint": null}, "inbound_nodes": [[["CEDiaxgF", 0, 0, {}]]]}, {"name": "CyKbdbyl", "class_name": "Conv2D", "config": {"name": "CyKbdbyl", "trainable": true, "filters": 192, "kernel_size": [1, 1], "strides": [1, 1], "padding": "valid", "data_format": "channels_first", "dilation_rate": [1, 1], "activation": "linear", "use_bias": false, "kernel_initializer": {"class_name": "Zeros", "config": {}}, "bias_initializer": {"class_name": "Zeros", "config": {}}, "kernel_regularizer": null, "bias_regularizer": null, "activity_regularizer": null, "kernel_constraint": null, "bias_constraint": null}, "inbound_nodes": [[["BNyVwOBc", 0, 0, {}]]]}, {"name": "BNbGMjAq", "class_name": "BatchNormalization", "config": {"name": "BNbGMjAq", "trainable": true, "axis": 1, "momentum": 1.0, "epsilon": 1e-05, "center": true, "scale": true, "beta_initializer": {"class_name": "Zeros", "config": {}}, "gamma_initializer": {"class_name": "Ones", "config": {}}, "moving_mean_initializer": {"class_name": "Zeros", "config": {}}, "moving_variance_initializer": {"class_name": "Ones", "config": {}}, "beta_regularizer": null, "gamma_regularizer": null, "beta_constraint": null, "gamma_constraint": null}, "inbound_nodes": [[["CyKbdbyl", 0, 0, {}]]]}, {"name": "re_lu_10", "class_name": "ReLU", "config": {"name": "re_lu_10", "trainable": true, "max_value": 6.0, "negative_slope": 0.0, "threshold": 0.0}, "inbound_nodes": [[["BNbGMjAq", 0, 0, {}]]]}, {"name": "CJkQnuNu_pad", "class_name": "ZeroPadding2D", "config": {"name": "CJkQnuNu_pad", "trainable": true, "padding": [[1, 1], [1, 1]], "data_format": "channels_first"}, "inbound_nodes": [[["re_lu_10", 0, 0, {}]]]}, {"name": "depthwise_conv2d_5", "class_name": "DepthwiseConv2D", "config": {"name": "depthwise_conv2d_5", "trainable": true, "kernel_size": [3, 3], "strides": [1, 1], "padding": "valid", "data_format": "channels_first", "dilation_rate": [1, 1], "activation": "linear", "use_bias": false, "bias_initializer": {"class_name": "Zeros", "config": {}}, "bias_regularizer": null, "activity_regularizer": null, "bias_constraint": null, "depth_multiplier": 1, "depthwise_initializer": {"class_name": "VarianceScaling", "config": {"scale": 1.0, "mode": "fan_avg", "distribution": "uniform", "seed": null}}, "depthwise_regularizer": null, "depthwise_constraint": null}, "inbound_nodes": [[["CJkQnuNu_pad", 0, 0, {}]]]}, {"name": "BNbYlqtW", "class_name": "BatchNormalization", "config": {"name": "BNbYlqtW", "trainable": true, "axis": 1, "momentum": 1.0, "epsilon": 1e-05, "center": true, "scale": true, "beta_initializer": {"class_name": "Zeros", "config": {}}, "gamma_initializer": {"class_name": "Ones", "config": {}}, "moving_mean_initializer": {"class_name": "Zeros", "config": {}}, "moving_variance_initializer": {"class_name": "Ones", "config": {}}, "beta_regularizer": null, "gamma_regularizer": null, "beta_constraint": null, "gamma_constraint": null}, "inbound_nodes": [[["depthwise_conv2d_5", 0, 0, {}]]]}, {"name": "re_lu_11", "class_name": "ReLU", "config": {"name": "re_lu_11", "trainable": true, "max_value": 6.0, "negative_slope": 0.0, "threshold": 0.0}, "inbound_nodes": [[["BNbYlqtW", 0, 0, {}]]]}, {"name": "CcDiPoQT", "class_name": "Conv2D", "config": {"name": "CcDiPoQT", "trainable": true, "filters": 32, "kernel_size": [1, 1], "strides": [1, 1], "padding": "valid", "data_format": "channels_first", "dilation_rate": [1, 1], "activation": "linear", "use_bias": false, "kernel_initializer": {"class_name": "Zeros", "config": {}}, "bias_initializer": {"class_name": "Zeros", "config": {}}, "kernel_regularizer": null, "bias_regularizer": null, "activity_regularizer": null, "kernel_constraint": null, "bias_constraint": null}, "inbound_nodes": [[["re_lu_11", 0, 0, {}]]]}, {"name": "BNrwomIQ", "class_name": "BatchNormalization", "config": {"name": "BNrwomIQ", "trainable": true, "axis": 1, "momentum": 1.0, "epsilon": 1e-05, "center": true, "scale": true, "beta_initializer": {"class_name": "Zeros", "config": {}}, "gamma_initializer": {"class_name": "Ones", "config": {}}, "moving_mean_initializer": {"class_name": "Zeros", "config": {}}, "moving_variance_initializer": {"class_name": "Ones", "config": {}}, "beta_regularizer": null, "gamma_regularizer": null, "beta_constraint": null, "gamma_constraint": null}, "inbound_nodes": [[["CcDiPoQT", 0, 0, {}]]]}, {"name": "AonlXEPk", "class_name": "Add", "config": {"name": "AonlXEPk", "trainable": true}, "inbound_nodes": [[["BNrwomIQ", 0, 0, {}], ["BNyVwOBc", 0, 0, {}]]]}, {"name": "CFAsxfyg", "class_name": "Conv2D", "config": {"name": "CFAsxfyg", "trainable": true, "filters": 192, "kernel_size": [1, 1], "strides": [1, 1], "padding": "valid", "data_format": "channels_first", "dilation_rate": [1, 1], "activation": "linear", "use_bias": false, "kernel_initializer": {"class_name": "Zeros", "config": {}}, "bias_initializer": {"class_name": "Zeros", "config": {}}, "kernel_regularizer": null, "bias_regularizer": null, "activity_regularizer": null, "kernel_constraint": null, "bias_constraint": null}, "inbound_nodes": [[["AonlXEPk", 0, 0, {}]]]}, {"name": "BNWbZHdv", "class_name": "BatchNormalization", "config": {"name": "BNWbZHdv", "trainable": true, "axis": 1, "momentum": 1.0, "epsilon": 1e-05, "center": true, "scale": true, "beta_initializer": {"class_name": "Zeros", "config": {}}, "gamma_initializer": {"class_name": "Ones", "config": {}}, "moving_mean_initializer": {"class_name": "Zeros", "config": {}}, "moving_variance_initializer": {"class_name": "Ones", "config": {}}, "beta_regularizer": null, "gamma_regularizer": null, "beta_constraint": null, "gamma_constraint": null}, "inbound_nodes": [[["CFAsxfyg", 0, 0, {}]]]}, {"name": "re_lu_12", "class_name": "ReLU", "config": {"name": "re_lu_12", "trainable": true, "max_value": 6.0, "negative_slope": 0.0, "threshold": 0.0}, "inbound_nodes": [[["BNWbZHdv", 0, 0, {}]]]}, {"name": "CUmyJAKf_pad", "class_name": "ZeroPadding2D", "config": {"name": "CUmyJAKf_pad", "trainable": true, "padding": [[1, 1], [1, 1]], "data_format": "channels_first"}, "inbound_nodes": [[["re_lu_12", 0, 0, {}]]]}, {"name": "depthwise_conv2d_6", "class_name": "DepthwiseConv2D", "config": {"name": "depthwise_conv2d_6", "trainable": true, "kernel_size": [3, 3], "strides": [1, 1], "padding": "valid", "data_format": "channels_first", "dilation_rate": [1, 1], "activation": "linear", "use_bias": false, "bias_initializer": {"class_name": "Zeros", "config": {}}, "bias_regularizer": null, "activity_regularizer": null, "bias_constraint": null, "depth_multiplier": 1, "depthwise_initializer": {"class_name": "VarianceScaling", "config": {"scale": 1.0, "mode": "fan_avg", "distribution": "uniform", "seed": null}}, "depthwise_regularizer": null, "depthwise_constraint": null}, "inbound_nodes": [[["CUmyJAKf_pad", 0, 0, {}]]]}, {"name": "BNqzNHYJ", "class_name": "BatchNormalization", "config": {"name": "BNqzNHYJ", "trainable": true, "axis": 1, "momentum": 1.0, "epsilon": 1e-05, "center": true, "scale": true, "beta_initializer": {"class_name": "Zeros", "config": {}}, "gamma_initializer": {"class_name": "Ones", "config": {}}, "moving_mean_initializer": {"class_name": "Zeros", "config": {}}, "moving_variance_initializer": {"class_name": "Ones", "config": {}}, "beta_regularizer": null, "gamma_regularizer": null, "beta_constraint": null, "gamma_constraint": null}, "inbound_nodes": [[["depthwise_conv2d_6", 0, 0, {}]]]}, {"name": "re_lu_13", "class_name": "ReLU", "config": {"name": "re_lu_13", "trainable": true, "max_value": 6.0, "negative_slope": 0.0, "threshold": 0.0}, "inbound_nodes": [[["BNqzNHYJ", 0, 0, {}]]]}, {"name": "CoiAojVy", "class_name": "Conv2D", "config": {"name": "CoiAojVy", "trainable": true, "filters": 32, "kernel_size": [1, 1], "strides": [1, 1], "padding": "valid", "data_format": "channels_first", "dilation_rate": [1, 1], "activation": "linear", "use_bias": false, "kernel_initializer": {"class_name": "Zeros", "config": {}}, "bias_initializer": {"class_name": "Zeros", "config": {}}, "kernel_regularizer": null, "bias_regularizer": null, "activity_regularizer": null, "kernel_constraint": null, "bias_constraint": null}, "inbound_nodes": [[["re_lu_13", 0, 0, {}]]]}, {"name": "BNwvgGvC", "class_name": "BatchNormalization", "config": {"name": "BNwvgGvC", "trainable": true, "axis": 1, "momentum": 1.0, "epsilon": 1e-05, "center": true, "scale": true, "beta_initializer": {"class_name": "Zeros", "config": {}}, "gamma_initializer": {"class_name": "Ones", "config": {}}, "moving_mean_initializer": {"class_name": "Zeros", "config": {}}, "moving_variance_initializer": {"class_name": "Ones", "config": {}}, "beta_regularizer": null, "gamma_regularizer": null, "beta_constraint": null, "gamma_constraint": null}, "inbound_nodes": [[["CoiAojVy", 0, 0, {}]]]}, {"name": "AqPeEDPj", "class_name": "Add", "config": {"name": "AqPeEDPj", "trainable": true}, "inbound_nodes": [[["BNwvgGvC", 0, 0, {}], ["AonlXEPk", 0, 0, {}]]]}, {"name": "CLgXmRjt", "class_name": "Conv2D", "config": {"name": "CLgXmRjt", "trainable": true, "filters": 192, "kernel_size": [1, 1], "strides": [1, 1], "padding": "valid", "data_format": "channels_first", "dilation_rate": [1, 1], "activation": "linear", "use_bias": false, "kernel_initializer": {"class_name": "Zeros", "config": {}}, "bias_initializer": {"class_name": "Zeros", "config": {}}, "kernel_regularizer": null, "bias_regularizer": null, "activity_regularizer": null, "kernel_constraint": null, "bias_constraint": null}, "inbound_nodes": [[["AqPeEDPj", 0, 0, {}]]]}, {"name": "BNbaALGe", "class_name": "BatchNormalization", "config": {"name": "BNbaALGe", "trainable": true, "axis": 1, "momentum": 1.0, "epsilon": 1e-05, "center": true, "scale": true, "beta_initializer": {"class_name": "Zeros", "config": {}}, "gamma_initializer": {"class_name": "Ones", "config": {}}, "moving_mean_initializer": {"class_name": "Zeros", "config": {}}, "moving_variance_initializer": {"class_name": "Ones", "config": {}}, "beta_regularizer": null, "gamma_regularizer": null, "beta_constraint": null, "gamma_constraint": null}, "inbound_nodes": [[["CLgXmRjt", 0, 0, {}]]]}, {"name": "re_lu_14", "class_name": "ReLU", "config": {"name": "re_lu_14", "trainable": true, "max_value": 6.0, "negative_slope": 0.0, "threshold": 0.0}, "inbound_nodes": [[["BNbaALGe", 0, 0, {}]]]}, {"name": "CAMlbJjw_pad", "class_name": "ZeroPadding2D", "config": {"name": "CAMlbJjw_pad", "trainable": true, "padding": [[1, 1], [1, 1]], "data_format": "channels_first"}, "inbound_nodes": [[["re_lu_14", 0, 0, {}]]]}, {"name": "depthwise_conv2d_7", "class_name": "DepthwiseConv2D", "config": {"name": "depthwise_conv2d_7", "trainable": true, "kernel_size": [3, 3], "strides": [2, 2], "padding": "valid", "data_format": "channels_first", "dilation_rate": [1, 1], "activation": "linear", "use_bias": false, "bias_initializer": {"class_name": "Zeros", "config": {}}, "bias_regularizer": null, "activity_regularizer": null, "bias_constraint": null, "depth_multiplier": 1, "depthwise_initializer": {"class_name": "VarianceScaling", "config": {"scale": 1.0, "mode": "fan_avg", "distribution": "uniform", "seed": null}}, "depthwise_regularizer": null, "depthwise_constraint": null}, "inbound_nodes": [[["CAMlbJjw_pad", 0, 0, {}]]]}, {"name": "BNEDjZRo", "class_name": "BatchNormalization", "config": {"name": "BNEDjZRo", "trainable": true, "axis": 1, "momentum": 1.0, "epsilon": 1e-05, "center": true, "scale": true, "beta_initializer": {"class_name": "Zeros", "config": {}}, "gamma_initializer": {"class_name": "Ones", "config": {}}, "moving_mean_initializer": {"class_name": "Zeros", "config": {}}, "moving_variance_initializer": {"class_name": "Ones", "config": {}}, "beta_regularizer": null, "gamma_regularizer": null, "beta_constraint": null, "gamma_constraint": null}, "inbound_nodes": [[["depthwise_conv2d_7", 0, 0, {}]]]}, {"name": "re_lu_15", "class_name": "ReLU", "config": {"name": "re_lu_15", "trainable": true, "max_value": 6.0, "negative_slope": 0.0, "threshold": 0.0}, "inbound_nodes": [[["BNEDjZRo", 0, 0, {}]]]}, {"name": "CECSNDpD", "class_name": "Conv2D", "config": {"name": "CECSNDpD", "trainable": true, "filters": 64, "kernel_size": [1, 1], "strides": [1, 1], "padding": "valid", "data_format": "channels_first", "dilation_rate": [1, 1], "activation": "linear", "use_bias": false, "kernel_initializer": {"class_name": "Zeros", "config": {}}, "bias_initializer": {"class_name": "Zeros", "config": {}}, "kernel_regularizer": null, "bias_regularizer": null, "activity_regularizer": null, "kernel_constraint": null, "bias_constraint": null}, "inbound_nodes": [[["re_lu_15", 0, 0, {}]]]}, {"name": "BNykOUuA", "class_name": "BatchNormalization", "config": {"name": "BNykOUuA", "trainable": true, "axis": 1, "momentum": 1.0, "epsilon": 1e-05, "center": true, "scale": true, "beta_initializer": {"class_name": "Zeros", "config": {}}, "gamma_initializer": {"class_name": "Ones", "config": {}}, "moving_mean_initializer": {"class_name": "Zeros", "config": {}}, "moving_variance_initializer": {"class_name": "Ones", "config": {}}, "beta_regularizer": null, "gamma_regularizer": null, "beta_constraint": null, "gamma_constraint": null}, "inbound_nodes": [[["CECSNDpD", 0, 0, {}]]]}, {"name": "COUEmdmy", "class_name": "Conv2D", "config": {"name": "COUEmdmy", "trainable": true, "filters": 384, "kernel_size": [1, 1], "strides": [1, 1], "padding": "valid", "data_format": "channels_first", "dilation_rate": [1, 1], "activation": "linear", "use_bias": false, "kernel_initializer": {"class_name": "Zeros", "config": {}}, "bias_initializer": {"class_name": "Zeros", "config": {}}, "kernel_regularizer": null, "bias_regularizer": null, "activity_regularizer": null, "kernel_constraint": null, "bias_constraint": null}, "inbound_nodes": [[["BNykOUuA", 0, 0, {}]]]}, {"name": "BNUfSEbf", "class_name": "BatchNormalization", "config": {"name": "BNUfSEbf", "trainable": true, "axis": 1, "momentum": 1.0, "epsilon": 1e-05, "center": true, "scale": true, "beta_initializer": {"class_name": "Zeros", "config": {}}, "gamma_initializer": {"class_name": "Ones", "config": {}}, "moving_mean_initializer": {"class_name": "Zeros", "config": {}}, "moving_variance_initializer": {"class_name": "Ones", "config": {}}, "beta_regularizer": null, "gamma_regularizer": null, "beta_constraint": null, "gamma_constraint": null}, "inbound_nodes": [[["COUEmdmy", 0, 0, {}]]]}, {"name": "re_lu_16", "class_name": "ReLU", "config": {"name": "re_lu_16", "trainable": true, "max_value": 6.0, "negative_slope": 0.0, "threshold": 0.0}, "inbound_nodes": [[["BNUfSEbf", 0, 0, {}]]]}, {"name": "CjLfwjUQ_pad", "class_name": "ZeroPadding2D", "config": {"name": "CjLfwjUQ_pad", "trainable": true, "padding": [[1, 1], [1, 1]], "data_format": "channels_first"}, "inbound_nodes": [[["re_lu_16", 0, 0, {}]]]}, {"name": "depthwise_conv2d_8", "class_name": "DepthwiseConv2D", "config": {"name": "depthwise_conv2d_8", "trainable": true, "kernel_size": [3, 3], "strides": [1, 1], "padding": "valid", "data_format": "channels_first", "dilation_rate": [1, 1], "activation": "linear", "use_bias": false, "bias_initializer": {"class_name": "Zeros", "config": {}}, "bias_regularizer": null, "activity_regularizer": null, "bias_constraint": null, "depth_multiplier": 1, "depthwise_initializer": {"class_name": "VarianceScaling", "config": {"scale": 1.0, "mode": "fan_avg", "distribution": "uniform", "seed": null}}, "depthwise_regularizer": null, "depthwise_constraint": null}, "inbound_nodes": [[["CjLfwjUQ_pad", 0, 0, {}]]]}, {"name": "BNbHclAZ", "class_name": "BatchNormalization", "config": {"name": "BNbHclAZ", "trainable": true, "axis": 1, "momentum": 1.0, "epsilon": 1e-05, "center": true, "scale": true, "beta_initializer": {"class_name": "Zeros", "config": {}}, "gamma_initializer": {"class_name": "Ones", "config": {}}, "moving_mean_initializer": {"class_name": "Zeros", "config": {}}, "moving_variance_initializer": {"class_name": "Ones", "config": {}}, "beta_regularizer": null, "gamma_regularizer": null, "beta_constraint": null, "gamma_constraint": null}, "inbound_nodes": [[["depthwise_conv2d_8", 0, 0, {}]]]}, {"name": "re_lu_17", "class_name": "ReLU", "config": {"name": "re_lu_17", "trainable": true, "max_value": 6.0, "negative_slope": 0.0, "threshold": 0.0}, "inbound_nodes": [[["BNbHclAZ", 0, 0, {}]]]}, {"name": "CjUtUyLV", "class_name": "Conv2D", "config": {"name": "CjUtUyLV", "trainable": true, "filters": 64, "kernel_size": [1, 1], "strides": [1, 1], "padding": "valid", "data_format": "channels_first", "dilation_rate": [1, 1], "activation": "linear", "use_bias": false, "kernel_initializer": {"class_name": "Zeros", "config": {}}, "bias_initializer": {"class_name": "Zeros", "config": {}}, "kernel_regularizer": null, "bias_regularizer": null, "activity_regularizer": null, "kernel_constraint": null, "bias_constraint": null}, "inbound_nodes": [[["re_lu_17", 0, 0, {}]]]}, {"name": "BNlYvnPL", "class_name": "BatchNormalization", "config": {"name": "BNlYvnPL", "trainable": true, "axis": 1, "momentum": 1.0, "epsilon": 1e-05, "center": true, "scale": true, "beta_initializer": {"class_name": "Zeros", "config": {}}, "gamma_initializer": {"class_name": "Ones", "config": {}}, "moving_mean_initializer": {"class_name": "Zeros", "config": {}}, "moving_variance_initializer": {"class_name": "Ones", "config": {}}, "beta_regularizer": null, "gamma_regularizer": null, "beta_constraint": null, "gamma_constraint": null}, "inbound_nodes": [[["CjUtUyLV", 0, 0, {}]]]}, {"name": "AOsYGfHd", "class_name": "Add", "config": {"name": "AOsYGfHd", "trainable": true}, "inbound_nodes": [[["BNlYvnPL", 0, 0, {}], ["BNykOUuA", 0, 0, {}]]]}, {"name": "CWxUHgaV", "class_name": "Conv2D", "config": {"name": "CWxUHgaV", "trainable": true, "filters": 384, "kernel_size": [1, 1], "strides": [1, 1], "padding": "valid", "data_format": "channels_first", "dilation_rate": [1, 1], "activation": "linear", "use_bias": false, "kernel_initializer": {"class_name": "Zeros", "config": {}}, "bias_initializer": {"class_name": "Zeros", "config": {}}, "kernel_regularizer": null, "bias_regularizer": null, "activity_regularizer": null, "kernel_constraint": null, "bias_constraint": null}, "inbound_nodes": [[["AOsYGfHd", 0, 0, {}]]]}, {"name": "BNaHUHKC", "class_name": "BatchNormalization", "config": {"name": "BNaHUHKC", "trainable": true, "axis": 1, "momentum": 1.0, "epsilon": 1e-05, "center": true, "scale": true, "beta_initializer": {"class_name": "Zeros", "config": {}}, "gamma_initializer": {"class_name": "Ones", "config": {}}, "moving_mean_initializer": {"class_name": "Zeros", "config": {}}, "moving_variance_initializer": {"class_name": "Ones", "config": {}}, "beta_regularizer": null, "gamma_regularizer": null, "beta_constraint": null, "gamma_constraint": null}, "inbound_nodes": [[["CWxUHgaV", 0, 0, {}]]]}, {"name": "re_lu_18", "class_name": "ReLU", "config": {"name": "re_lu_18", "trainable": true, "max_value": 6.0, "negative_slope": 0.0, "threshold": 0.0}, "inbound_nodes": [[["BNaHUHKC", 0, 0, {}]]]}, {"name": "CqQhsTJC_pad", "class_name": "ZeroPadding2D", "config": {"name": "CqQhsTJC_pad", "trainable": true, "padding": [[1, 1], [1, 1]], "data_format": "channels_first"}, "inbound_nodes": [[["re_lu_18", 0, 0, {}]]]}, {"name": "depthwise_conv2d_9", "class_name": "DepthwiseConv2D", "config": {"name": "depthwise_conv2d_9", "trainable": true, "kernel_size": [3, 3], "strides": [1, 1], "padding": "valid", "data_format": "channels_first", "dilation_rate": [1, 1], "activation": "linear", "use_bias": false, "bias_initializer": {"class_name": "Zeros", "config": {}}, "bias_regularizer": null, "activity_regularizer": null, "bias_constraint": null, "depth_multiplier": 1, "depthwise_initializer": {"class_name": "VarianceScaling", "config": {"scale": 1.0, "mode": "fan_avg", "distribution": "uniform", "seed": null}}, "depthwise_regularizer": null, "depthwise_constraint": null}, "inbound_nodes": [[["CqQhsTJC_pad", 0, 0, {}]]]}, {"name": "BNgUOuSc", "class_name": "BatchNormalization", "config": {"name": "BNgUOuSc", "trainable": true, "axis": 1, "momentum": 1.0, "epsilon": 1e-05, "center": true, "scale": true, "beta_initializer": {"class_name": "Zeros", "config": {}}, "gamma_initializer": {"class_name": "Ones", "config": {}}, "moving_mean_initializer": {"class_name": "Zeros", "config": {}}, "moving_variance_initializer": {"class_name": "Ones", "config": {}}, "beta_regularizer": null, "gamma_regularizer": null, "beta_constraint": null, "gamma_constraint": null}, "inbound_nodes": [[["depthwise_conv2d_9", 0, 0, {}]]]}, {"name": "re_lu_19", "class_name": "ReLU", "config": {"name": "re_lu_19", "trainable": true, "max_value": 6.0, "negative_slope": 0.0, "threshold": 0.0}, "inbound_nodes": [[["BNgUOuSc", 0, 0, {}]]]}, {"name": "CKwWjuyB", "class_name": "Conv2D", "config": {"name": "CKwWjuyB", "trainable": true, "filters": 64, "kernel_size": [1, 1], "strides": [1, 1], "padding": "valid", "data_format": "channels_first", "dilation_rate": [1, 1], "activation": "linear", "use_bias": false, "kernel_initializer": {"class_name": "Zeros", "config": {}}, "bias_initializer": {"class_name": "Zeros", "config": {}}, "kernel_regularizer": null, "bias_regularizer": null, "activity_regularizer": null, "kernel_constraint": null, "bias_constraint": null}, "inbound_nodes": [[["re_lu_19", 0, 0, {}]]]}, {"name": "BNkMumVw", "class_name": "BatchNormalization", "config": {"name": "BNkMumVw", "trainable": true, "axis": 1, "momentum": 1.0, "epsilon": 1e-05, "center": true, "scale": true, "beta_initializer": {"class_name": "Zeros", "config": {}}, "gamma_initializer": {"class_name": "Ones", "config": {}}, "moving_mean_initializer": {"class_name": "Zeros", "config": {}}, "moving_variance_initializer": {"class_name": "Ones", "config": {}}, "beta_regularizer": null, "gamma_regularizer": null, "beta_constraint": null, "gamma_constraint": null}, "inbound_nodes": [[["CKwWjuyB", 0, 0, {}]]]}, {"name": "AYkyJitB", "class_name": "Add", "config": {"name": "AYkyJitB", "trainable": true}, "inbound_nodes": [[["BNkMumVw", 0, 0, {}], ["AOsYGfHd", 0, 0, {}]]]}, {"name": "CCNwFgSk", "class_name": "Conv2D", "config": {"name": "CCNwFgSk", "trainable": true, "filters": 384, "kernel_size": [1, 1], "strides": [1, 1], "padding": "valid", "data_format": "channels_first", "dilation_rate": [1, 1], "activation": "linear", "use_bias": false, "kernel_initializer": {"class_name": "Zeros", "config": {}}, "bias_initializer": {"class_name": "Zeros", "config": {}}, "kernel_regularizer": null, "bias_regularizer": null, "activity_regularizer": null, "kernel_constraint": null, "bias_constraint": null}, "inbound_nodes": [[["AYkyJitB", 0, 0, {}]]]}, {"name": "BNjhzBfU", "class_name": "BatchNormalization", "config": {"name": "BNjhzBfU", "trainable": true, "axis": 1, "momentum": 1.0, "epsilon": 1e-05, "center": true, "scale": true, "beta_initializer": {"class_name": "Zeros", "config": {}}, "gamma_initializer": {"class_name": "Ones", "config": {}}, "moving_mean_initializer": {"class_name": "Zeros", "config": {}}, "moving_variance_initializer": {"class_name": "Ones", "config": {}}, "beta_regularizer": null, "gamma_regularizer": null, "beta_constraint": null, "gamma_constraint": null}, "inbound_nodes": [[["CCNwFgSk", 0, 0, {}]]]}, {"name": "re_lu_20", "class_name": "ReLU", "config": {"name": "re_lu_20", "trainable": true, "max_value": 6.0, "negative_slope": 0.0, "threshold": 0.0}, "inbound_nodes": [[["BNjhzBfU", 0, 0, {}]]]}, {"name": "CWElTclD_pad", "class_name": "ZeroPadding2D", "config": {"name": "CWElTclD_pad", "trainable": true, "padding": [[1, 1], [1, 1]], "data_format": "channels_first"}, "inbound_nodes": [[["re_lu_20", 0, 0, {}]]]}, {"name": "depthwise_conv2d_10", "class_name": "DepthwiseConv2D", "config": {"name": "depthwise_conv2d_10", "trainable": true, "kernel_size": [3, 3], "strides": [1, 1], "padding": "valid", "data_format": "channels_first", "dilation_rate": [1, 1], "activation": "linear", "use_bias": false, "bias_initializer": {"class_name": "Zeros", "config": {}}, "bias_regularizer": null, "activity_regularizer": null, "bias_constraint": null, "depth_multiplier": 1, "depthwise_initializer": {"class_name": "VarianceScaling", "config": {"scale": 1.0, "mode": "fan_avg", "distribution": "uniform", "seed": null}}, "depthwise_regularizer": null, "depthwise_constraint": null}, "inbound_nodes": [[["CWElTclD_pad", 0, 0, {}]]]}, {"name": "BNEgmuHj", "class_name": "BatchNormalization", "config": {"name": "BNEgmuHj", "trainable": true, "axis": 1, "momentum": 1.0, "epsilon": 1e-05, "center": true, "scale": true, "beta_initializer": {"class_name": "Zeros", "config": {}}, "gamma_initializer": {"class_name": "Ones", "config": {}}, "moving_mean_initializer": {"class_name": "Zeros", "config": {}}, "moving_variance_initializer": {"class_name": "Ones", "config": {}}, "beta_regularizer": null, "gamma_regularizer": null, "beta_constraint": null, "gamma_constraint": null}, "inbound_nodes": [[["depthwise_conv2d_10", 0, 0, {}]]]}, {"name": "re_lu_21", "class_name": "ReLU", "config": {"name": "re_lu_21", "trainable": true, "max_value": 6.0, "negative_slope": 0.0, "threshold": 0.0}, "inbound_nodes": [[["BNEgmuHj", 0, 0, {}]]]}, {"name": "ChkJWwGz", "class_name": "Conv2D", "config": {"name": "ChkJWwGz", "trainable": true, "filters": 64, "kernel_size": [1, 1], "strides": [1, 1], "padding": "valid", "data_format": "channels_first", "dilation_rate": [1, 1], "activation": "linear", "use_bias": false, "kernel_initializer": {"class_name": "Zeros", "config": {}}, "bias_initializer": {"class_name": "Zeros", "config": {}}, "kernel_regularizer": null, "bias_regularizer": null, "activity_regularizer": null, "kernel_constraint": null, "bias_constraint": null}, "inbound_nodes": [[["re_lu_21", 0, 0, {}]]]}, {"name": "BNbejAQB", "class_name": "BatchNormalization", "config": {"name": "BNbejAQB", "trainable": true, "axis": 1, "momentum": 1.0, "epsilon": 1e-05, "center": true, "scale": true, "beta_initializer": {"class_name": "Zeros", "config": {}}, "gamma_initializer": {"class_name": "Ones", "config": {}}, "moving_mean_initializer": {"class_name": "Zeros", "config": {}}, "moving_variance_initializer": {"class_name": "Ones", "config": {}}, "beta_regularizer": null, "gamma_regularizer": null, "beta_constraint": null, "gamma_constraint": null}, "inbound_nodes": [[["ChkJWwGz", 0, 0, {}]]]}, {"name": "AxkpDGwq", "class_name": "Add", "config": {"name": "AxkpDGwq", "trainable": true}, "inbound_nodes": [[["BNbejAQB", 0, 0, {}], ["AYkyJitB", 0, 0, {}]]]}, {"name": "CyZRRrtv", "class_name": "Conv2D", "config": {"name": "CyZRRrtv", "trainable": true, "filters": 384, "kernel_size": [1, 1], "strides": [1, 1], "padding": "valid", "data_format": "channels_first", "dilation_rate": [1, 1], "activation": "linear", "use_bias": false, "kernel_initializer": {"class_name": "Zeros", "config": {}}, "bias_initializer": {"class_name": "Zeros", "config": {}}, "kernel_regularizer": null, "bias_regularizer": null, "activity_regularizer": null, "kernel_constraint": null, "bias_constraint": null}, "inbound_nodes": [[["AxkpDGwq", 0, 0, {}]]]}, {"name": "BNrzEjWw", "class_name": "BatchNormalization", "config": {"name": "BNrzEjWw", "trainable": true, "axis": 1, "momentum": 1.0, "epsilon": 1e-05, "center": true, "scale": true, "beta_initializer": {"class_name": "Zeros", "config": {}}, "gamma_initializer": {"class_name": "Ones", "config": {}}, "moving_mean_initializer": {"class_name": "Zeros", "config": {}}, "moving_variance_initializer": {"class_name": "Ones", "config": {}}, "beta_regularizer": null, "gamma_regularizer": null, "beta_constraint": null, "gamma_constraint": null}, "inbound_nodes": [[["CyZRRrtv", 0, 0, {}]]]}, {"name": "re_lu_22", "class_name": "ReLU", "config": {"name": "re_lu_22", "trainable": true, "max_value": 6.0, "negative_slope": 0.0, "threshold": 0.0}, "inbound_nodes": [[["BNrzEjWw", 0, 0, {}]]]}, {"name": "CLdyDkvK_pad", "class_name": "ZeroPadding2D", "config": {"name": "CLdyDkvK_pad", "trainable": true, "padding": [[1, 1], [1, 1]], "data_format": "channels_first"}, "inbound_nodes": [[["re_lu_22", 0, 0, {}]]]}, {"name": "depthwise_conv2d_11", "class_name": "DepthwiseConv2D", "config": {"name": "depthwise_conv2d_11", "trainable": true, "kernel_size": [3, 3], "strides": [1, 1], "padding": "valid", "data_format": "channels_first", "dilation_rate": [1, 1], "activation": "linear", "use_bias": false, "bias_initializer": {"class_name": "Zeros", "config": {}}, "bias_regularizer": null, "activity_regularizer": null, "bias_constraint": null, "depth_multiplier": 1, "depthwise_initializer": {"class_name": "VarianceScaling", "config": {"scale": 1.0, "mode": "fan_avg", "distribution": "uniform", "seed": null}}, "depthwise_regularizer": null, "depthwise_constraint": null}, "inbound_nodes": [[["CLdyDkvK_pad", 0, 0, {}]]]}, {"name": "BNvAvKCz", "class_name": "BatchNormalization", "config": {"name": "BNvAvKCz", "trainable": true, "axis": 1, "momentum": 1.0, "epsilon": 1e-05, "center": true, "scale": true, "beta_initializer": {"class_name": "Zeros", "config": {}}, "gamma_initializer": {"class_name": "Ones", "config": {}}, "moving_mean_initializer": {"class_name": "Zeros", "config": {}}, "moving_variance_initializer": {"class_name": "Ones", "config": {}}, "beta_regularizer": null, "gamma_regularizer": null, "beta_constraint": null, "gamma_constraint": null}, "inbound_nodes": [[["depthwise_conv2d_11", 0, 0, {}]]]}, {"name": "re_lu_23", "class_name": "ReLU", "config": {"name": "re_lu_23", "trainable": true, "max_value": 6.0, "negative_slope": 0.0, "threshold": 0.0}, "inbound_nodes": [[["BNvAvKCz", 0, 0, {}]]]}, {"name": "CPZUbPaj", "class_name": "Conv2D", "config": {"name": "CPZUbPaj", "trainable": true, "filters": 96, "kernel_size": [1, 1], "strides": [1, 1], "padding": "valid", "data_format": "channels_first", "dilation_rate": [1, 1], "activation": "linear", "use_bias": false, "kernel_initializer": {"class_name": "Zeros", "config": {}}, "bias_initializer": {"class_name": "Zeros", "config": {}}, "kernel_regularizer": null, "bias_regularizer": null, "activity_regularizer": null, "kernel_constraint": null, "bias_constraint": null}, "inbound_nodes": [[["re_lu_23", 0, 0, {}]]]}, {"name": "BNlZuRzj", "class_name": "BatchNormalization", "config": {"name": "BNlZuRzj", "trainable": true, "axis": 1, "momentum": 1.0, "epsilon": 1e-05, "center": true, "scale": true, "beta_initializer": {"class_name": "Zeros", "config": {}}, "gamma_initializer": {"class_name": "Ones", "config": {}}, "moving_mean_initializer": {"class_name": "Zeros", "config": {}}, "moving_variance_initializer": {"class_name": "Ones", "config": {}}, "beta_regularizer": null, "gamma_regularizer": null, "beta_constraint": null, "gamma_constraint": null}, "inbound_nodes": [[["CPZUbPaj", 0, 0, {}]]]}, {"name": "CLfYNzWa", "class_name": "Conv2D", "config": {"name": "CLfYNzWa", "trainable": true, "filters": 576, "kernel_size": [1, 1], "strides": [1, 1], "padding": "valid", "data_format": "channels_first", "dilation_rate": [1, 1], "activation": "linear", "use_bias": false, "kernel_initializer": {"class_name": "Zeros", "config": {}}, "bias_initializer": {"class_name": "Zeros", "config": {}}, "kernel_regularizer": null, "bias_regularizer": null, "activity_regularizer": null, "kernel_constraint": null, "bias_constraint": null}, "inbound_nodes": [[["BNlZuRzj", 0, 0, {}]]]}, {"name": "BNERRAnw", "class_name": "BatchNormalization", "config": {"name": "BNERRAnw", "trainable": true, "axis": 1, "momentum": 1.0, "epsilon": 1e-05, "center": true, "scale": true, "beta_initializer": {"class_name": "Zeros", "config": {}}, "gamma_initializer": {"class_name": "Ones", "config": {}}, "moving_mean_initializer": {"class_name": "Zeros", "config": {}}, "moving_variance_initializer": {"class_name": "Ones", "config": {}}, "beta_regularizer": null, "gamma_regularizer": null, "beta_constraint": null, "gamma_constraint": null}, "inbound_nodes": [[["CLfYNzWa", 0, 0, {}]]]}, {"name": "re_lu_24", "class_name": "ReLU", "config": {"name": "re_lu_24", "trainable": true, "max_value": 6.0, "negative_slope": 0.0, "threshold": 0.0}, "inbound_nodes": [[["BNERRAnw", 0, 0, {}]]]}, {"name": "ChwpynsU_pad", "class_name": "ZeroPadding2D", "config": {"name": "ChwpynsU_pad", "trainable": true, "padding": [[1, 1], [1, 1]], "data_format": "channels_first"}, "inbound_nodes": [[["re_lu_24", 0, 0, {}]]]}, {"name": "depthwise_conv2d_12", "class_name": "DepthwiseConv2D", "config": {"name": "depthwise_conv2d_12", "trainable": true, "kernel_size": [3, 3], "strides": [1, 1], "padding": "valid", "data_format": "channels_first", "dilation_rate": [1, 1], "activation": "linear", "use_bias": false, "bias_initializer": {"class_name": "Zeros", "config": {}}, "bias_regularizer": null, "activity_regularizer": null, "bias_constraint": null, "depth_multiplier": 1, "depthwise_initializer": {"class_name": "VarianceScaling", "config": {"scale": 1.0, "mode": "fan_avg", "distribution": "uniform", "seed": null}}, "depthwise_regularizer": null, "depthwise_constraint": null}, "inbound_nodes": [[["ChwpynsU_pad", 0, 0, {}]]]}, {"name": "BNFZIqJH", "class_name": "BatchNormalization", "config": {"name": "BNFZIqJH", "trainable": true, "axis": 1, "momentum": 1.0, "epsilon": 1e-05, "center": true, "scale": true, "beta_initializer": {"class_name": "Zeros", "config": {}}, "gamma_initializer": {"class_name": "Ones", "config": {}}, "moving_mean_initializer": {"class_name": "Zeros", "config": {}}, "moving_variance_initializer": {"class_name": "Ones", "config": {}}, "beta_regularizer": null, "gamma_regularizer": null, "beta_constraint": null, "gamma_constraint": null}, "inbound_nodes": [[["depthwise_conv2d_12", 0, 0, {}]]]}, {"name": "re_lu_25", "class_name": "ReLU", "config": {"name": "re_lu_25", "trainable": true, "max_value": 6.0, "negative_slope": 0.0, "threshold": 0.0}, "inbound_nodes": [[["BNFZIqJH", 0, 0, {}]]]}, {"name": "CooyUAoH", "class_name": "Conv2D", "config": {"name": "CooyUAoH", "trainable": true, "filters": 96, "kernel_size": [1, 1], "strides": [1, 1], "padding": "valid", "data_format": "channels_first", "dilation_rate": [1, 1], "activation": "linear", "use_bias": false, "kernel_initializer": {"class_name": "Zeros", "config": {}}, "bias_initializer": {"class_name": "Zeros", "config": {}}, "kernel_regularizer": null, "bias_regularizer": null, "activity_regularizer": null, "kernel_constraint": null, "bias_constraint": null}, "inbound_nodes": [[["re_lu_25", 0, 0, {}]]]}, {"name": "BNosyfMV", "class_name": "BatchNormalization", "config": {"name": "BNosyfMV", "trainable": true, "axis": 1, "momentum": 1.0, "epsilon": 1e-05, "center": true, "scale": true, "beta_initializer": {"class_name": "Zeros", "config": {}}, "gamma_initializer": {"class_name": "Ones", "config": {}}, "moving_mean_initializer": {"class_name": "Zeros", "config": {}}, "moving_variance_initializer": {"class_name": "Ones", "config": {}}, "beta_regularizer": null, "gamma_regularizer": null, "beta_constraint": null, "gamma_constraint": null}, "inbound_nodes": [[["CooyUAoH", 0, 0, {}]]]}, {"name": "AzdDFfPx", "class_name": "Add", "config": {"name": "AzdDFfPx", "trainable": true}, "inbound_nodes": [[["BNosyfMV", 0, 0, {}], ["BNlZuRzj", 0, 0, {}]]]}, {"name": "CrwpmMcm", "class_name": "Conv2D", "config": {"name": "CrwpmMcm", "trainable": true, "filters": 576, "kernel_size": [1, 1], "strides": [1, 1], "padding": "valid", "data_format": "channels_first", "dilation_rate": [1, 1], "activation": "linear", "use_bias": false, "kernel_initializer": {"class_name": "Zeros", "config": {}}, "bias_initializer": {"class_name": "Zeros", "config": {}}, "kernel_regularizer": null, "bias_regularizer": null, "activity_regularizer": null, "kernel_constraint": null, "bias_constraint": null}, "inbound_nodes": [[["AzdDFfPx", 0, 0, {}]]]}, {"name": "BNAvVGpo", "class_name": "BatchNormalization", "config": {"name": "BNAvVGpo", "trainable": true, "axis": 1, "momentum": 1.0, "epsilon": 1e-05, "center": true, "scale": true, "beta_initializer": {"class_name": "Zeros", "config": {}}, "gamma_initializer": {"class_name": "Ones", "config": {}}, "moving_mean_initializer": {"class_name": "Zeros", "config": {}}, "moving_variance_initializer": {"class_name": "Ones", "config": {}}, "beta_regularizer": null, "gamma_regularizer": null, "beta_constraint": null, "gamma_constraint": null}, "inbound_nodes": [[["CrwpmMcm", 0, 0, {}]]]}, {"name": "re_lu_26", "class_name": "ReLU", "config": {"name": "re_lu_26", "trainable": true, "max_value": 6.0, "negative_slope": 0.0, "threshold": 0.0}, "inbound_nodes": [[["BNAvVGpo", 0, 0, {}]]]}, {"name": "CXCmmyeQ_pad", "class_name": "ZeroPadding2D", "config": {"name": "CXCmmyeQ_pad", "trainable": true, "padding": [[1, 1], [1, 1]], "data_format": "channels_first"}, "inbound_nodes": [[["re_lu_26", 0, 0, {}]]]}, {"name": "depthwise_conv2d_13", "class_name": "DepthwiseConv2D", "config": {"name": "depthwise_conv2d_13", "trainable": true, "kernel_size": [3, 3], "strides": [1, 1], "padding": "valid", "data_format": "channels_first", "dilation_rate": [1, 1], "activation": "linear", "use_bias": false, "bias_initializer": {"class_name": "Zeros", "config": {}}, "bias_regularizer": null, "activity_regularizer": null, "bias_constraint": null, "depth_multiplier": 1, "depthwise_initializer": {"class_name": "VarianceScaling", "config": {"scale": 1.0, "mode": "fan_avg", "distribution": "uniform", "seed": null}}, "depthwise_regularizer": null, "depthwise_constraint": null}, "inbound_nodes": [[["CXCmmyeQ_pad", 0, 0, {}]]]}, {"name": "BNjFJsgw", "class_name": "BatchNormalization", "config": {"name": "BNjFJsgw", "trainable": true, "axis": 1, "momentum": 1.0, "epsilon": 1e-05, "center": true, "scale": true, "beta_initializer": {"class_name": "Zeros", "config": {}}, "gamma_initializer": {"class_name": "Ones", "config": {}}, "moving_mean_initializer": {"class_name": "Zeros", "config": {}}, "moving_variance_initializer": {"class_name": "Ones", "config": {}}, "beta_regularizer": null, "gamma_regularizer": null, "beta_constraint": null, "gamma_constraint": null}, "inbound_nodes": [[["depthwise_conv2d_13", 0, 0, {}]]]}, {"name": "re_lu_27", "class_name": "ReLU", "config": {"name": "re_lu_27", "trainable": true, "max_value": 6.0, "negative_slope": 0.0, "threshold": 0.0}, "inbound_nodes": [[["BNjFJsgw", 0, 0, {}]]]}, {"name": "CulMQceK", "class_name": "Conv2D", "config": {"name": "CulMQceK", "trainable": true, "filters": 96, "kernel_size": [1, 1], "strides": [1, 1], "padding": "valid", "data_format": "channels_first", "dilation_rate": [1, 1], "activation": "linear", "use_bias": false, "kernel_initializer": {"class_name": "Zeros", "config": {}}, "bias_initializer": {"class_name": "Zeros", "config": {}}, "kernel_regularizer": null, "bias_regularizer": null, "activity_regularizer": null, "kernel_constraint": null, "bias_constraint": null}, "inbound_nodes": [[["re_lu_27", 0, 0, {}]]]}, {"name": "BNuItFoW", "class_name": "BatchNormalization", "config": {"name": "BNuItFoW", "trainable": true, "axis": 1, "momentum": 1.0, "epsilon": 1e-05, "center": true, "scale": true, "beta_initializer": {"class_name": "Zeros", "config": {}}, "gamma_initializer": {"class_name": "Ones", "config": {}}, "moving_mean_initializer": {"class_name": "Zeros", "config": {}}, "moving_variance_initializer": {"class_name": "Ones", "config": {}}, "beta_regularizer": null, "gamma_regularizer": null, "beta_constraint": null, "gamma_constraint": null}, "inbound_nodes": [[["CulMQceK", 0, 0, {}]]]}, {"name": "AFPRylXB", "class_name": "Add", "config": {"name": "AFPRylXB", "trainable": true}, "inbound_nodes": [[["BNuItFoW", 0, 0, {}], ["AzdDFfPx", 0, 0, {}]]]}, {"name": "CtHEazsq", "class_name": "Conv2D", "config": {"name": "CtHEazsq", "trainable": true, "filters": 576, "kernel_size": [1, 1], "strides": [1, 1], "padding": "valid", "data_format": "channels_first", "dilation_rate": [1, 1], "activation": "linear", "use_bias": false, "kernel_initializer": {"class_name": "Zeros", "config": {}}, "bias_initializer": {"class_name": "Zeros", "config": {}}, "kernel_regularizer": null, "bias_regularizer": null, "activity_regularizer": null, "kernel_constraint": null, "bias_constraint": null}, "inbound_nodes": [[["AFPRylXB", 0, 0, {}]]]}, {"name": "BNgLwwzR", "class_name": "BatchNormalization", "config": {"name": "BNgLwwzR", "trainable": true, "axis": 1, "momentum": 1.0, "epsilon": 1e-05, "center": true, "scale": true, "beta_initializer": {"class_name": "Zeros", "config": {}}, "gamma_initializer": {"class_name": "Ones", "config": {}}, "moving_mean_initializer": {"class_name": "Zeros", "config": {}}, "moving_variance_initializer": {"class_name": "Ones", "config": {}}, "beta_regularizer": null, "gamma_regularizer": null, "beta_constraint": null, "gamma_constraint": null}, "inbound_nodes": [[["CtHEazsq", 0, 0, {}]]]}, {"name": "re_lu_28", "class_name": "ReLU", "config": {"name": "re_lu_28", "trainable": true, "max_value": 6.0, "negative_slope": 0.0, "threshold": 0.0}, "inbound_nodes": [[["BNgLwwzR", 0, 0, {}]]]}, {"name": "CikcRvQa_pad", "class_name": "ZeroPadding2D", "config": {"name": "CikcRvQa_pad", "trainable": true, "padding": [[1, 1], [1, 1]], "data_format": "channels_first"}, "inbound_nodes": [[["re_lu_28", 0, 0, {}]]]}, {"name": "depthwise_conv2d_14", "class_name": "DepthwiseConv2D", "config": {"name": "depthwise_conv2d_14", "trainable": true, "kernel_size": [3, 3], "strides": [2, 2], "padding": "valid", "data_format": "channels_first", "dilation_rate": [1, 1], "activation": "linear", "use_bias": false, "bias_initializer": {"class_name": "Zeros", "config": {}}, "bias_regularizer": null, "activity_regularizer": null, "bias_constraint": null, "depth_multiplier": 1, "depthwise_initializer": {"class_name": "VarianceScaling", "config": {"scale": 1.0, "mode": "fan_avg", "distribution": "uniform", "seed": null}}, "depthwise_regularizer": null, "depthwise_constraint": null}, "inbound_nodes": [[["CikcRvQa_pad", 0, 0, {}]]]}, {"name": "BNOGfThy", "class_name": "BatchNormalization", "config": {"name": "BNOGfThy", "trainable": true, "axis": 1, "momentum": 1.0, "epsilon": 1e-05, "center": true, "scale": true, "beta_initializer": {"class_name": "Zeros", "config": {}}, "gamma_initializer": {"class_name": "Ones", "config": {}}, "moving_mean_initializer": {"class_name": "Zeros", "config": {}}, "moving_variance_initializer": {"class_name": "Ones", "config": {}}, "beta_regularizer": null, "gamma_regularizer": null, "beta_constraint": null, "gamma_constraint": null}, "inbound_nodes": [[["depthwise_conv2d_14", 0, 0, {}]]]}, {"name": "re_lu_29", "class_name": "ReLU", "config": {"name": "re_lu_29", "trainable": true, "max_value": 6.0, "negative_slope": 0.0, "threshold": 0.0}, "inbound_nodes": [[["BNOGfThy", 0, 0, {}]]]}, {"name": "CAPthuzl", "class_name": "Conv2D", "config": {"name": "CAPthuzl", "trainable": true, "filters": 160, "kernel_size": [1, 1], "strides": [1, 1], "padding": "valid", "data_format": "channels_first", "dilation_rate": [1, 1], "activation": "linear", "use_bias": false, "kernel_initializer": {"class_name": "Zeros", "config": {}}, "bias_initializer": {"class_name": "Zeros", "config": {}}, "kernel_regularizer": null, "bias_regularizer": null, "activity_regularizer": null, "kernel_constraint": null, "bias_constraint": null}, "inbound_nodes": [[["re_lu_29", 0, 0, {}]]]}, {"name": "BNcYmJMa", "class_name": "BatchNormalization", "config": {"name": "BNcYmJMa", "trainable": true, "axis": 1, "momentum": 1.0, "epsilon": 1e-05, "center": true, "scale": true, "beta_initializer": {"class_name": "Zeros", "config": {}}, "gamma_initializer": {"class_name": "Ones", "config": {}}, "moving_mean_initializer": {"class_name": "Zeros", "config": {}}, "moving_variance_initializer": {"class_name": "Ones", "config": {}}, "beta_regularizer": null, "gamma_regularizer": null, "beta_constraint": null, "gamma_constraint": null}, "inbound_nodes": [[["CAPthuzl", 0, 0, {}]]]}, {"name": "CYNJyCWe", "class_name": "Conv2D", "config": {"name": "CYNJyCWe", "trainable": true, "filters": 960, "kernel_size": [1, 1], "strides": [1, 1], "padding": "valid", "data_format": "channels_first", "dilation_rate": [1, 1], "activation": "linear", "use_bias": false, "kernel_initializer": {"class_name": "Zeros", "config": {}}, "bias_initializer": {"class_name": "Zeros", "config": {}}, "kernel_regularizer": null, "bias_regularizer": null, "activity_regularizer": null, "kernel_constraint": null, "bias_constraint": null}, "inbound_nodes": [[["BNcYmJMa", 0, 0, {}]]]}, {"name": "BNnbqhaI", "class_name": "BatchNormalization", "config": {"name": "BNnbqhaI", "trainable": true, "axis": 1, "momentum": 1.0, "epsilon": 1e-05, "center": true, "scale": true, "beta_initializer": {"class_name": "Zeros", "config": {}}, "gamma_initializer": {"class_name": "Ones", "config": {}}, "moving_mean_initializer": {"class_name": "Zeros", "config": {}}, "moving_variance_initializer": {"class_name": "Ones", "config": {}}, "beta_regularizer": null, "gamma_regularizer": null, "beta_constraint": null, "gamma_constraint": null}, "inbound_nodes": [[["CYNJyCWe", 0, 0, {}]]]}, {"name": "re_lu_30", "class_name": "ReLU", "config": {"name": "re_lu_30", "trainable": true, "max_value": 6.0, "negative_slope": 0.0, "threshold": 0.0}, "inbound_nodes": [[["BNnbqhaI", 0, 0, {}]]]}, {"name": "CZbiViVv_pad", "class_name": "ZeroPadding2D", "config": {"name": "CZbiViVv_pad", "trainable": true, "padding": [[1, 1], [1, 1]], "data_format": "channels_first"}, "inbound_nodes": [[["re_lu_30", 0, 0, {}]]]}, {"name": "depthwise_conv2d_15", "class_name": "DepthwiseConv2D", "config": {"name": "depthwise_conv2d_15", "trainable": true, "kernel_size": [3, 3], "strides": [1, 1], "padding": "valid", "data_format": "channels_first", "dilation_rate": [1, 1], "activation": "linear", "use_bias": false, "bias_initializer": {"class_name": "Zeros", "config": {}}, "bias_regularizer": null, "activity_regularizer": null, "bias_constraint": null, "depth_multiplier": 1, "depthwise_initializer": {"class_name": "VarianceScaling", "config": {"scale": 1.0, "mode": "fan_avg", "distribution": "uniform", "seed": null}}, "depthwise_regularizer": null, "depthwise_constraint": null}, "inbound_nodes": [[["CZbiViVv_pad", 0, 0, {}]]]}, {"name": "BNCkdGwp", "class_name": "BatchNormalization", "config": {"name": "BNCkdGwp", "trainable": true, "axis": 1, "momentum": 1.0, "epsilon": 1e-05, "center": true, "scale": true, "beta_initializer": {"class_name": "Zeros", "config": {}}, "gamma_initializer": {"class_name": "Ones", "config": {}}, "moving_mean_initializer": {"class_name": "Zeros", "config": {}}, "moving_variance_initializer": {"class_name": "Ones", "config": {}}, "beta_regularizer": null, "gamma_regularizer": null, "beta_constraint": null, "gamma_constraint": null}, "inbound_nodes": [[["depthwise_conv2d_15", 0, 0, {}]]]}, {"name": "re_lu_31", "class_name": "ReLU", "config": {"name": "re_lu_31", "trainable": true, "max_value": 6.0, "negative_slope": 0.0, "threshold": 0.0}, "inbound_nodes": [[["BNCkdGwp", 0, 0, {}]]]}, {"name": "CeQooAde", "class_name": "Conv2D", "config": {"name": "CeQooAde", "trainable": true, "filters": 160, "kernel_size": [1, 1], "strides": [1, 1], "padding": "valid", "data_format": "channels_first", "dilation_rate": [1, 1], "activation": "linear", "use_bias": false, "kernel_initializer": {"class_name": "Zeros", "config": {}}, "bias_initializer": {"class_name": "Zeros", "config": {}}, "kernel_regularizer": null, "bias_regularizer": null, "activity_regularizer": null, "kernel_constraint": null, "bias_constraint": null}, "inbound_nodes": [[["re_lu_31", 0, 0, {}]]]}, {"name": "BNPJEMWz", "class_name": "BatchNormalization", "config": {"name": "BNPJEMWz", "trainable": true, "axis": 1, "momentum": 1.0, "epsilon": 1e-05, "center": true, "scale": true, "beta_initializer": {"class_name": "Zeros", "config": {}}, "gamma_initializer": {"class_name": "Ones", "config": {}}, "moving_mean_initializer": {"class_name": "Zeros", "config": {}}, "moving_variance_initializer": {"class_name": "Ones", "config": {}}, "beta_regularizer": null, "gamma_regularizer": null, "beta_constraint": null, "gamma_constraint": null}, "inbound_nodes": [[["CeQooAde", 0, 0, {}]]]}, {"name": "AWzLoFNo", "class_name": "Add", "config": {"name": "AWzLoFNo", "trainable": true}, "inbound_nodes": [[["BNPJEMWz", 0, 0, {}], ["BNcYmJMa", 0, 0, {}]]]}, {"name": "CZQAIngP", "class_name": "Conv2D", "config": {"name": "CZQAIngP", "trainable": true, "filters": 960, "kernel_size": [1, 1], "strides": [1, 1], "padding": "valid", "data_format": "channels_first", "dilation_rate": [1, 1], "activation": "linear", "use_bias": false, "kernel_initializer": {"class_name": "Zeros", "config": {}}, "bias_initializer": {"class_name": "Zeros", "config": {}}, "kernel_regularizer": null, "bias_regularizer": null, "activity_regularizer": null, "kernel_constraint": null, "bias_constraint": null}, "inbound_nodes": [[["AWzLoFNo", 0, 0, {}]]]}, {"name": "BNxozffh", "class_name": "BatchNormalization", "config": {"name": "BNxozffh", "trainable": true, "axis": 1, "momentum": 1.0, "epsilon": 1e-05, "center": true, "scale": true, "beta_initializer": {"class_name": "Zeros", "config": {}}, "gamma_initializer": {"class_name": "Ones", "config": {}}, "moving_mean_initializer": {"class_name": "Zeros", "config": {}}, "moving_variance_initializer": {"class_name": "Ones", "config": {}}, "beta_regularizer": null, "gamma_regularizer": null, "beta_constraint": null, "gamma_constraint": null}, "inbound_nodes": [[["CZQAIngP", 0, 0, {}]]]}, {"name": "re_lu_32", "class_name": "ReLU", "config": {"name": "re_lu_32", "trainable": true, "max_value": 6.0, "negative_slope": 0.0, "threshold": 0.0}, "inbound_nodes": [[["BNxozffh", 0, 0, {}]]]}, {"name": "CeNNiAfM_pad", "class_name": "ZeroPadding2D", "config": {"name": "CeNNiAfM_pad", "trainable": true, "padding": [[1, 1], [1, 1]], "data_format": "channels_first"}, "inbound_nodes": [[["re_lu_32", 0, 0, {}]]]}, {"name": "depthwise_conv2d_16", "class_name": "DepthwiseConv2D", "config": {"name": "depthwise_conv2d_16", "trainable": true, "kernel_size": [3, 3], "strides": [1, 1], "padding": "valid", "data_format": "channels_first", "dilation_rate": [1, 1], "activation": "linear", "use_bias": false, "bias_initializer": {"class_name": "Zeros", "config": {}}, "bias_regularizer": null, "activity_regularizer": null, "bias_constraint": null, "depth_multiplier": 1, "depthwise_initializer": {"class_name": "VarianceScaling", "config": {"scale": 1.0, "mode": "fan_avg", "distribution": "uniform", "seed": null}}, "depthwise_regularizer": null, "depthwise_constraint": null}, "inbound_nodes": [[["CeNNiAfM_pad", 0, 0, {}]]]}, {"name": "BNSmWnKB", "class_name": "BatchNormalization", "config": {"name": "BNSmWnKB", "trainable": true, "axis": 1, "momentum": 1.0, "epsilon": 1e-05, "center": true, "scale": true, "beta_initializer": {"class_name": "Zeros", "config": {}}, "gamma_initializer": {"class_name": "Ones", "config": {}}, "moving_mean_initializer": {"class_name": "Zeros", "config": {}}, "moving_variance_initializer": {"class_name": "Ones", "config": {}}, "beta_regularizer": null, "gamma_regularizer": null, "beta_constraint": null, "gamma_constraint": null}, "inbound_nodes": [[["depthwise_conv2d_16", 0, 0, {}]]]}, {"name": "re_lu_33", "class_name": "ReLU", "config": {"name": "re_lu_33", "trainable": true, "max_value": 6.0, "negative_slope": 0.0, "threshold": 0.0}, "inbound_nodes": [[["BNSmWnKB", 0, 0, {}]]]}, {"name": "CNezPlQs", "class_name": "Conv2D", "config": {"name": "CNezPlQs", "trainable": true, "filters": 160, "kernel_size": [1, 1], "strides": [1, 1], "padding": "valid", "data_format": "channels_first", "dilation_rate": [1, 1], "activation": "linear", "use_bias": false, "kernel_initializer": {"class_name": "Zeros", "config": {}}, "bias_initializer": {"class_name": "Zeros", "config": {}}, "kernel_regularizer": null, "bias_regularizer": null, "activity_regularizer": null, "kernel_constraint": null, "bias_constraint": null}, "inbound_nodes": [[["re_lu_33", 0, 0, {}]]]}, {"name": "BNpJQAwF", "class_name": "BatchNormalization", "config": {"name": "BNpJQAwF", "trainable": true, "axis": 1, "momentum": 1.0, "epsilon": 1e-05, "center": true, "scale": true, "beta_initializer": {"class_name": "Zeros", "config": {}}, "gamma_initializer": {"class_name": "Ones", "config": {}}, "moving_mean_initializer": {"class_name": "Zeros", "config": {}}, "moving_variance_initializer": {"class_name": "Ones", "config": {}}, "beta_regularizer": null, "gamma_regularizer": null, "beta_constraint": null, "gamma_constraint": null}, "inbound_nodes": [[["CNezPlQs", 0, 0, {}]]]}, {"name": "AyqTMnQS", "class_name": "Add", "config": {"name": "AyqTMnQS", "trainable": true}, "inbound_nodes": [[["BNpJQAwF", 0, 0, {}], ["AWzLoFNo", 0, 0, {}]]]}, {"name": "CipOUejq", "class_name": "Conv2D", "config": {"name": "CipOUejq", "trainable": true, "filters": 960, "kernel_size": [1, 1], "strides": [1, 1], "padding": "valid", "data_format": "channels_first", "dilation_rate": [1, 1], "activation": "linear", "use_bias": false, "kernel_initializer": {"class_name": "Zeros", "config": {}}, "bias_initializer": {"class_name": "Zeros", "config": {}}, "kernel_regularizer": null, "bias_regularizer": null, "activity_regularizer": null, "kernel_constraint": null, "bias_constraint": null}, "inbound_nodes": [[["AyqTMnQS", 0, 0, {}]]]}, {"name": "BNoeordQ", "class_name": "BatchNormalization", "config": {"name": "BNoeordQ", "trainable": true, "axis": 1, "momentum": 1.0, "epsilon": 1e-05, "center": true, "scale": true, "beta_initializer": {"class_name": "Zeros", "config": {}}, "gamma_initializer": {"class_name": "Ones", "config": {}}, "moving_mean_initializer": {"class_name": "Zeros", "config": {}}, "moving_variance_initializer": {"class_name": "Ones", "config": {}}, "beta_regularizer": null, "gamma_regularizer": null, "beta_constraint": null, "gamma_constraint": null}, "inbound_nodes": [[["CipOUejq", 0, 0, {}]]]}, {"name": "re_lu_34", "class_name": "ReLU", "config": {"name": "re_lu_34", "trainable": true, "max_value": 6.0, "negative_slope": 0.0, "threshold": 0.0}, "inbound_nodes": [[["BNoeordQ", 0, 0, {}]]]}, {"name": "CgQlKRWJ_pad", "class_name": "ZeroPadding2D", "config": {"name": "CgQlKRWJ_pad", "trainable": true, "padding": [[1, 1], [1, 1]], "data_format": "channels_first"}, "inbound_nodes": [[["re_lu_34", 0, 0, {}]]]}, {"name": "depthwise_conv2d_17", "class_name": "DepthwiseConv2D", "config": {"name": "depthwise_conv2d_17", "trainable": true, "kernel_size": [3, 3], "strides": [1, 1], "padding": "valid", "data_format": "channels_first", "dilation_rate": [1, 1], "activation": "linear", "use_bias": false, "bias_initializer": {"class_name": "Zeros", "config": {}}, "bias_regularizer": null, "activity_regularizer": null, "bias_constraint": null, "depth_multiplier": 1, "depthwise_initializer": {"class_name": "VarianceScaling", "config": {"scale": 1.0, "mode": "fan_avg", "distribution": "uniform", "seed": null}}, "depthwise_regularizer": null, "depthwise_constraint": null}, "inbound_nodes": [[["CgQlKRWJ_pad", 0, 0, {}]]]}, {"name": "BNWKWZGt", "class_name": "BatchNormalization", "config": {"name": "BNWKWZGt", "trainable": true, "axis": 1, "momentum": 1.0, "epsilon": 1e-05, "center": true, "scale": true, "beta_initializer": {"class_name": "Zeros", "config": {}}, "gamma_initializer": {"class_name": "Ones", "config": {}}, "moving_mean_initializer": {"class_name": "Zeros", "config": {}}, "moving_variance_initializer": {"class_name": "Ones", "config": {}}, "beta_regularizer": null, "gamma_regularizer": null, "beta_constraint": null, "gamma_constraint": null}, "inbound_nodes": [[["depthwise_conv2d_17", 0, 0, {}]]]}, {"name": "re_lu_35", "class_name": "ReLU", "config": {"name": "re_lu_35", "trainable": true, "max_value": 6.0, "negative_slope": 0.0, "threshold": 0.0}, "inbound_nodes": [[["BNWKWZGt", 0, 0, {}]]]}, {"name": "CWUkllVc", "class_name": "Conv2D", "config": {"name": "CWUkllVc", "trainable": true, "filters": 320, "kernel_size": [1, 1], "strides": [1, 1], "padding": "valid", "data_format": "channels_first", "dilation_rate": [1, 1], "activation": "linear", "use_bias": false, "kernel_initializer": {"class_name": "Zeros", "config": {}}, "bias_initializer": {"class_name": "Zeros", "config": {}}, "kernel_regularizer": null, "bias_regularizer": null, "activity_regularizer": null, "kernel_constraint": null, "bias_constraint": null}, "inbound_nodes": [[["re_lu_35", 0, 0, {}]]]}, {"name": "BNFrBQKx", "class_name": "BatchNormalization", "config": {"name": "BNFrBQKx", "trainable": true, "axis": 1, "momentum": 1.0, "epsilon": 1e-05, "center": true, "scale": true, "beta_initializer": {"class_name": "Zeros", "config": {}}, "gamma_initializer": {"class_name": "Ones", "config": {}}, "moving_mean_initializer": {"class_name": "Zeros", "config": {}}, "moving_variance_initializer": {"class_name": "Ones", "config": {}}, "beta_regularizer": null, "gamma_regularizer": null, "beta_constraint": null, "gamma_constraint": null}, "inbound_nodes": [[["CWUkllVc", 0, 0, {}]]]}, {"name": "CSFBNwBA", "class_name": "Conv2D", "config": {"name": "CSFBNwBA", "trainable": true, "filters": 256, "kernel_size": [1, 1], "strides": [1, 1], "padding": "valid", "data_format": "channels_first", "dilation_rate": [1, 1], "activation": "linear", "use_bias": false, "kernel_initializer": {"class_name": "Zeros", "config": {}}, "bias_initializer": {"class_name": "Zeros", "config": {}}, "kernel_regularizer": null, "bias_regularizer": null, "activity_regularizer": null, "kernel_constraint": null, "bias_constraint": null}, "inbound_nodes": [[["BNFrBQKx", 0, 0, {}]]]}, {"name": "CAYmgCgZ", "class_name": "Conv2D", "config": {"name": "CAYmgCgZ", "trainable": true, "filters": 256, "kernel_size": [1, 1], "strides": [1, 1], "padding": "valid", "data_format": "channels_first", "dilation_rate": [1, 1], "activation": "linear", "use_bias": false, "kernel_initializer": {"class_name": "Zeros", "config": {}}, "bias_initializer": {"class_name": "Zeros", "config": {}}, "kernel_regularizer": null, "bias_regularizer": null, "activity_regularizer": null, "kernel_constraint": null, "bias_constraint": null}, "inbound_nodes": [[["AyqTMnQS", 0, 0, {}]]]}, {"name": "ATamxUqs", "class_name": "Add", "config": {"name": "ATamxUqs", "trainable": true}, "inbound_nodes": [[["CSFBNwBA", 0, 0, {}], ["CAYmgCgZ", 0, 0, {}]]]}, {"name": "re_lu_36", "class_name": "ReLU", "config": {"name": "re_lu_36", "trainable": true, "max_value": 6.0, "negative_slope": 0.0, "threshold": 0.0}, "inbound_nodes": [[["ATamxUqs", 0, 0, {}]]]}, {"name": "PHtLjhou", "class_name": "MaxPooling2D", "config": {"name": "PHtLjhou", "trainable": true, "pool_size": [5, 5], "padding": "same", "strides": [1, 1], "data_format": "channels_first"}, "inbound_nodes": [[["re_lu_36", 0, 0, {}]]]}, {"name": "COuyAosE", "class_name": "Conv2D", "config": {"name": "COuyAosE", "trainable": true, "filters": 256, "kernel_size": [1, 1], "strides": [1, 1], "padding": "valid", "data_format": "channels_first", "dilation_rate": [1, 1], "activation": "linear", "use_bias": false, "kernel_initializer": {"class_name": "Zeros", "config": {}}, "bias_initializer": {"class_name": "Zeros", "config": {}}, "kernel_regularizer": null, "bias_regularizer": null, "activity_regularizer": null, "kernel_constraint": null, "bias_constraint": null}, "inbound_nodes": [[["PHtLjhou", 0, 0, {}]]]}, {"name": "PeAHosny", "class_name": "MaxPooling2D", "config": {"name": "PeAHosny", "trainable": true, "pool_size": [5, 5], "padding": "same", "strides": [1, 1], "data_format": "channels_first"}, "inbound_nodes": [[["COuyAosE", 0, 0, {}]]]}, {"name": "CuNYyNyX", "class_name": "Conv2D", "config": {"name": "CuNYyNyX", "trainable": true, "filters": 256, "kernel_size": [1, 1], "strides": [1, 1], "padding": "valid", "data_format": "channels_first", "dilation_rate": [1, 1], "activation": "linear", "use_bias": false, "kernel_initializer": {"class_name": "Zeros", "config": {}}, "bias_initializer": {"class_name": "Zeros", "config": {}}, "kernel_regularizer": null, "bias_regularizer": null, "activity_regularizer": null, "kernel_constraint": null, "bias_constraint": null}, "inbound_nodes": [[["PeAHosny", 0, 0, {}]]]}, {"name": "PngCBMLI", "class_name": "MaxPooling2D", "config": {"name": "PngCBMLI", "trainable": true, "pool_size": [5, 5], "padding": "same", "strides": [1, 1], "data_format": "channels_first"}, "inbound_nodes": [[["CuNYyNyX", 0, 0, {}]]]}, {"name": "CaaBFmeg", "class_name": "Conv2D", "config": {"name": "CaaBFmeg", "trainable": true, "filters": 256, "kernel_size": [1, 1], "strides": [1, 1], "padding": "valid", "data_format": "channels_first", "dilation_rate": [1, 1], "activation": "linear", "use_bias": false, "kernel_initializer": {"class_name": "Zeros", "config": {}}, "bias_initializer": {"class_name": "Zeros", "config": {}}, "kernel_regularizer": null, "bias_regularizer": null, "activity_regularizer": null, "kernel_constraint": null, "bias_constraint": null}, "inbound_nodes": [[["PngCBMLI", 0, 0, {}]]]}, {"name": "AtUKPtcR", "class_name": "Add", "config": {"name": "AtUKPtcR", "trainable": true}, "inbound_nodes": [[["COuyAosE", 0, 0, {}], ["re_lu_36", 0, 0, {}]]]}, {"name": "PLZoMJzT", "class_name": "MaxPooling2D", "config": {"name": "PLZoMJzT", "trainable": true, "pool_size": [5, 5], "padding": "same", "strides": [1, 1], "data_format": "channels_first"}, "inbound_nodes": [[["CaaBFmeg", 0, 0, {}]]]}, {"name": "AqoMyYAK", "class_name": "Add", "config": {"name": "AqoMyYAK", "trainable": true}, "inbound_nodes": [[["CuNYyNyX", 0, 0, {}], ["AtUKPtcR", 0, 0, {}]]]}, {"name": "CPsPxdKe", "class_name": "Conv2D", "config": {"name": "CPsPxdKe", "trainable": true, "filters": 256, "kernel_size": [1, 1], "strides": [1, 1], "padding": "valid", "data_format": "channels_first", "dilation_rate": [1, 1], "activation": "linear", "use_bias": false, "kernel_initializer": {"class_name": "Zeros", "config": {}}, "bias_initializer": {"class_name": "Zeros", "config": {}}, "kernel_regularizer": null, "bias_regularizer": null, "activity_regularizer": null, "kernel_constraint": null, "bias_constraint": null}, "inbound_nodes": [[["PLZoMJzT", 0, 0, {}]]]}, {"name": "ALNkZoEl", "class_name": "Add", "config": {"name": "ALNkZoEl", "trainable": true}, "inbound_nodes": [[["CaaBFmeg", 0, 0, {}], ["AqoMyYAK", 0, 0, {}]]]}, {"name": "AKihOolM", "class_name": "Add", "config": {"name": "AKihOolM", "trainable": true}, "inbound_nodes": [[["CPsPxdKe", 0, 0, {}], ["ALNkZoEl", 0, 0, {}]]]}, {"name": "CeNKoZIi", "class_name": "Conv2D", "config": {"name": "CeNKoZIi", "trainable": true, "filters": 256, "kernel_size": [1, 1], "strides": [1, 1], "padding": "valid", "data_format": "channels_first", "dilation_rate": [1, 1], "activation": "linear", "use_bias": false, "kernel_initializer": {"class_name": "Zeros", "config": {}}, "bias_initializer": {"class_name": "Zeros", "config": {}}, "kernel_regularizer": null, "bias_regularizer": null, "activity_regularizer": null, "kernel_constraint": null, "bias_constraint": null}, "inbound_nodes": [[["AFPRylXB", 0, 0, {}]]]}, {"name": "CtmGvEKw", "class_name": "Conv2D", "config": {"name": "CtmGvEKw", "trainable": true, "filters": 256, "kernel_size": [1, 1], "strides": [1, 1], "padding": "valid", "data_format": "channels_first", "dilation_rate": [1, 1], "activation": "linear", "use_bias": false, "kernel_initializer": {"class_name": "Zeros", "config": {}}, "bias_initializer": {"class_name": "Zeros", "config": {}}, "kernel_regularizer": null, "bias_regularizer": null, "activity_regularizer": null, "kernel_constraint": null, "bias_constraint": null}, "inbound_nodes": [[["AxkpDGwq", 0, 0, {}]]]}, {"name": "CKYibEwG", "class_name": "Conv2D", "config": {"name": "CKYibEwG", "trainable": true, "filters": 256, "kernel_size": [1, 1], "strides": [1, 1], "padding": "valid", "data_format": "channels_first", "dilation_rate": [1, 1], "activation": "linear", "use_bias": false, "kernel_initializer": {"class_name": "Zeros", "config": {}}, "bias_initializer": {"class_name": "Zeros", "config": {}}, "kernel_regularizer": null, "bias_regularizer": null, "activity_regularizer": null, "kernel_constraint": null, "bias_constraint": null}, "inbound_nodes": [[["AKihOolM", 0, 0, {}]]]}, {"name": "ANkrezof", "class_name": "Add", "config": {"name": "ANkrezof", "trainable": true}, "inbound_nodes": [[["CeNKoZIi", 0, 0, {}], ["CtmGvEKw", 0, 0, {}]]]}, {"name": "UPSLNxCU", "class_name": "UpSampling2D", "config": {"name": "UPSLNxCU", "trainable": true, "size": [2.0, 2.0], "data_format": "channels_first", "interpolation": "bilinear"}, "inbound_nodes": [[["CKYibEwG", 0, 0, {}]]]}, {"name": "AgdlFsVS", "class_name": "Add", "config": {"name": "AgdlFsVS", "trainable": true}, "inbound_nodes": [[["ANkrezof", 0, 0, {}], ["UPSLNxCU", 0, 0, {}]]]}, {"name": "re_lu_37", "class_name": "ReLU", "config": {"name": "re_lu_37", "trainable": true, "max_value": 6.0, "negative_slope": 0.0, "threshold": 0.0}, "inbound_nodes": [[["AgdlFsVS", 0, 0, {}]]]}, {"name": "PXcyshzQ", "class_name": "MaxPooling2D", "config": {"name": "PXcyshzQ", "trainable": true, "pool_size": [5, 5], "padding": "same", "strides": [1, 1], "data_format": "channels_first"}, "inbound_nodes": [[["re_lu_37", 0, 0, {}]]]}, {"name": "CIJdTtoJ", "class_name": "Conv2D", "config": {"name": "CIJdTtoJ", "trainable": true, "filters": 256, "kernel_size": [1, 1], "strides": [1, 1], "padding": "valid", "data_format": "channels_first", "dilation_rate": [1, 1], "activation": "linear", "use_bias": false, "kernel_initializer": {"class_name": "Zeros", "config": {}}, "bias_initializer": {"class_name": "Zeros", "config": {}}, "kernel_regularizer": null, "bias_regularizer": null, "activity_regularizer": null, "kernel_constraint": null, "bias_constraint": null}, "inbound_nodes": [[["PXcyshzQ", 0, 0, {}]]]}, {"name": "PoXlVDnn", "class_name": "MaxPooling2D", "config": {"name": "PoXlVDnn", "trainable": true, "pool_size": [5, 5], "padding": "same", "strides": [1, 1], "data_format": "channels_first"}, "inbound_nodes": [[["CIJdTtoJ", 0, 0, {}]]]}, {"name": "CiosAqpV", "class_name": "Conv2D", "config": {"name": "CiosAqpV", "trainable": true, "filters": 256, "kernel_size": [1, 1], "strides": [1, 1], "padding": "valid", "data_format": "channels_first", "dilation_rate": [1, 1], "activation": "linear", "use_bias": false, "kernel_initializer": {"class_name": "Zeros", "config": {}}, "bias_initializer": {"class_name": "Zeros", "config": {}}, "kernel_regularizer": null, "bias_regularizer": null, "activity_regularizer": null, "kernel_constraint": null, "bias_constraint": null}, "inbound_nodes": [[["PoXlVDnn", 0, 0, {}]]]}, {"name": "POsiCeNU", "class_name": "MaxPooling2D", "config": {"name": "POsiCeNU", "trainable": true, "pool_size": [5, 5], "padding": "same", "strides": [1, 1], "data_format": "channels_first"}, "inbound_nodes": [[["CiosAqpV", 0, 0, {}]]]}, {"name": "CtSPQewh", "class_name": "Conv2D", "config": {"name": "CtSPQewh", "trainable": true, "filters": 256, "kernel_size": [1, 1], "strides": [1, 1], "padding": "valid", "data_format": "channels_first", "dilation_rate": [1, 1], "activation": "linear", "use_bias": false, "kernel_initializer": {"class_name": "Zeros", "config": {}}, "bias_initializer": {"class_name": "Zeros", "config": {}}, "kernel_regularizer": null, "bias_regularizer": null, "activity_regularizer": null, "kernel_constraint": null, "bias_constraint": null}, "inbound_nodes": [[["POsiCeNU", 0, 0, {}]]]}, {"name": "ADzAmoWP", "class_name": "Add", "config": {"name": "ADzAmoWP", "trainable": true}, "inbound_nodes": [[["CIJdTtoJ", 0, 0, {}], ["re_lu_37", 0, 0, {}]]]}, {"name": "PJgYfpnp", "class_name": "MaxPooling2D", "config": {"name": "PJgYfpnp", "trainable": true, "pool_size": [5, 5], "padding": "same", "strides": [1, 1], "data_format": "channels_first"}, "inbound_nodes": [[["CtSPQewh", 0, 0, {}]]]}, {"name": "AZTvxLGF", "class_name": "Add", "config": {"name": "AZTvxLGF", "trainable": true}, "inbound_nodes": [[["CiosAqpV", 0, 0, {}], ["ADzAmoWP", 0, 0, {}]]]}, {"name": "CRYohert", "class_name": "Conv2D", "config": {"name": "CRYohert", "trainable": true, "filters": 256, "kernel_size": [1, 1], "strides": [1, 1], "padding": "valid", "data_format": "channels_first", "dilation_rate": [1, 1], "activation": "linear", "use_bias": false, "kernel_initializer": {"class_name": "Zeros", "config": {}}, "bias_initializer": {"class_name": "Zeros", "config": {}}, "kernel_regularizer": null, "bias_regularizer": null, "activity_regularizer": null, "kernel_constraint": null, "bias_constraint": null}, "inbound_nodes": [[["PJgYfpnp", 0, 0, {}]]]}, {"name": "AOZsJgWl", "class_name": "Add", "config": {"name": "AOZsJgWl", "trainable": true}, "inbound_nodes": [[["CtSPQewh", 0, 0, {}], ["AZTvxLGF", 0, 0, {}]]]}, {"name": "AFxPzKBI", "class_name": "Add", "config": {"name": "AFxPzKBI", "trainable": true}, "inbound_nodes": [[["CRYohert", 0, 0, {}], ["AOZsJgWl", 0, 0, {}]]]}, {"name": "CMJxMTpX", "class_name": "Conv2D", "config": {"name": "CMJxMTpX", "trainable": true, "filters": 256, "kernel_size": [1, 1], "strides": [1, 1], "padding": "valid", "data_format": "channels_first", "dilation_rate": [1, 1], "activation": "linear", "use_bias": false, "kernel_initializer": {"class_name": "Zeros", "config": {}}, "bias_initializer": {"class_name": "Zeros", "config": {}}, "kernel_regularizer": null, "bias_regularizer": null, "activity_regularizer": null, "kernel_constraint": null, "bias_constraint": null}, "inbound_nodes": [[["AFxPzKBI", 0, 0, {}]]]}, {"name": "CBvWdPmz", "class_name": "Conv2D", "config": {"name": "CBvWdPmz", "trainable": true, "filters": 256, "kernel_size": [1, 1], "strides": [1, 1], "padding": "valid", "data_format": "channels_first", "dilation_rate": [1, 1], "activation": "linear", "use_bias": false, "kernel_initializer": {"class_name": "Zeros", "config": {}}, "bias_initializer": {"class_name": "Zeros", "config": {}}, "kernel_regularizer": null, "bias_regularizer": null, "activity_regularizer": null, "kernel_constraint": null, "bias_constraint": null}, "inbound_nodes": [[["AqPeEDPj", 0, 0, {}]]]}, {"name": "UPSLxXGP", "class_name": "UpSampling2D", "config": {"name": "UPSLxXGP", "trainable": true, "size": [2.0, 2.0], "data_format": "channels_first", "interpolation": "bilinear"}, "inbound_nodes": [[["CMJxMTpX", 0, 0, {}]]]}, {"name": "AJxpBxCT", "class_name": "Add", "config": {"name": "AJxpBxCT", "trainable": true}, "inbound_nodes": [[["CBvWdPmz", 0, 0, {}], ["UPSLxXGP", 0, 0, {}]]]}, {"name": "re_lu_38", "class_name": "ReLU", "config": {"name": "re_lu_38", "trainable": true, "max_value": 6.0, "negative_slope": 0.0, "threshold": 0.0}, "inbound_nodes": [[["AJxpBxCT", 0, 0, {}]]]}, {"name": "PuSYZkAK", "class_name": "MaxPooling2D", "config": {"name": "PuSYZkAK", "trainable": true, "pool_size": [5, 5], "padding": "same", "strides": [1, 1], "data_format": "channels_first"}, "inbound_nodes": [[["re_lu_38", 0, 0, {}]]]}, {"name": "CahSeBCe", "class_name": "Conv2D", "config": {"name": "CahSeBCe", "trainable": true, "filters": 256, "kernel_size": [1, 1], "strides": [1, 1], "padding": "valid", "data_format": "channels_first", "dilation_rate": [1, 1], "activation": "linear", "use_bias": false, "kernel_initializer": {"class_name": "Zeros", "config": {}}, "bias_initializer": {"class_name": "Zeros", "config": {}}, "kernel_regularizer": null, "bias_regularizer": null, "activity_regularizer": null, "kernel_constraint": null, "bias_constraint": null}, "inbound_nodes": [[["PuSYZkAK", 0, 0, {}]]]}, {"name": "PuAsIfXY", "class_name": "MaxPooling2D", "config": {"name": "PuAsIfXY", "trainable": true, "pool_size": [5, 5], "padding": "same", "strides": [1, 1], "data_format": "channels_first"}, "inbound_nodes": [[["CahSeBCe", 0, 0, {}]]]}, {"name": "CJyKLErF", "class_name": "Conv2D", "config": {"name": "CJyKLErF", "trainable": true, "filters": 256, "kernel_size": [1, 1], "strides": [1, 1], "padding": "valid", "data_format": "channels_first", "dilation_rate": [1, 1], "activation": "linear", "use_bias": false, "kernel_initializer": {"class_name": "Zeros", "config": {}}, "bias_initializer": {"class_name": "Zeros", "config": {}}, "kernel_regularizer": null, "bias_regularizer": null, "activity_regularizer": null, "kernel_constraint": null, "bias_constraint": null}, "inbound_nodes": [[["PuAsIfXY", 0, 0, {}]]]}, {"name": "PxInPSVn", "class_name": "MaxPooling2D", "config": {"name": "PxInPSVn", "trainable": true, "pool_size": [5, 5], "padding": "same", "strides": [1, 1], "data_format": "channels_first"}, "inbound_nodes": [[["CJyKLErF", 0, 0, {}]]]}, {"name": "CBLeWHab", "class_name": "Conv2D", "config": {"name": "CBLeWHab", "trainable": true, "filters": 256, "kernel_size": [1, 1], "strides": [1, 1], "padding": "valid", "data_format": "channels_first", "dilation_rate": [1, 1], "activation": "linear", "use_bias": false, "kernel_initializer": {"class_name": "Zeros", "config": {}}, "bias_initializer": {"class_name": "Zeros", "config": {}}, "kernel_regularizer": null, "bias_regularizer": null, "activity_regularizer": null, "kernel_constraint": null, "bias_constraint": null}, "inbound_nodes": [[["PxInPSVn", 0, 0, {}]]]}, {"name": "AevAkSYn", "class_name": "Add", "config": {"name": "AevAkSYn", "trainable": true}, "inbound_nodes": [[["CahSeBCe", 0, 0, {}], ["re_lu_38", 0, 0, {}]]]}, {"name": "PRixIQsd", "class_name": "MaxPooling2D", "config": {"name": "PRixIQsd", "trainable": true, "pool_size": [5, 5], "padding": "same", "strides": [1, 1], "data_format": "channels_first"}, "inbound_nodes": [[["CBLeWHab", 0, 0, {}]]]}, {"name": "AATSGWix", "class_name": "Add", "config": {"name": "AATSGWix", "trainable": true}, "inbound_nodes": [[["CJyKLErF", 0, 0, {}], ["AevAkSYn", 0, 0, {}]]]}, {"name": "CFsdpeto", "class_name": "Conv2D", "config": {"name": "CFsdpeto", "trainable": true, "filters": 256, "kernel_size": [1, 1], "strides": [1, 1], "padding": "valid", "data_format": "channels_first", "dilation_rate": [1, 1], "activation": "linear", "use_bias": false, "kernel_initializer": {"class_name": "Zeros", "config": {}}, "bias_initializer": {"class_name": "Zeros", "config": {}}, "kernel_regularizer": null, "bias_regularizer": null, "activity_regularizer": null, "kernel_constraint": null, "bias_constraint": null}, "inbound_nodes": [[["PRixIQsd", 0, 0, {}]]]}, {"name": "AtgGomvk", "class_name": "Add", "config": {"name": "AtgGomvk", "trainable": true}, "inbound_nodes": [[["CBLeWHab", 0, 0, {}], ["AATSGWix", 0, 0, {}]]]}, {"name": "AECrAJAt", "class_name": "Add", "config": {"name": "AECrAJAt", "trainable": true}, "inbound_nodes": [[["CFsdpeto", 0, 0, {}], ["AtgGomvk", 0, 0, {}]]]}, {"name": "CnkyiwCX", "class_name": "Conv2D", "config": {"name": "CnkyiwCX", "trainable": true, "filters": 256, "kernel_size": [1, 1], "strides": [1, 1], "padding": "valid", "data_format": "channels_first", "dilation_rate": [1, 1], "activation": "linear", "use_bias": false, "kernel_initializer": {"class_name": "Zeros", "config": {}}, "bias_initializer": {"class_name": "Zeros", "config": {}}, "kernel_regularizer": null, "bias_regularizer": null, "activity_regularizer": null, "kernel_constraint": null, "bias_constraint": null}, "inbound_nodes": [[["AECrAJAt", 0, 0, {}]]]}, {"name": "CHuzGVAm", "class_name": "Conv2D", "config": {"name": "CHuzGVAm", "trainable": true, "filters": 256, "kernel_size": [1, 1], "strides": [1, 1], "padding": "valid", "data_format": "channels_first", "dilation_rate": [1, 1], "activation": "linear", "use_bias": false, "kernel_initializer": {"class_name": "Zeros", "config": {}}, "bias_initializer": {"class_name": "Zeros", "config": {}}, "kernel_regularizer": null, "bias_regularizer": null, "activity_regularizer": null, "kernel_constraint": null, "bias_constraint": null}, "inbound_nodes": [[["AehuOCTJ", 0, 0, {}]]]}, {"name": "UPSLOLwR", "class_name": "UpSampling2D", "config": {"name": "UPSLOLwR", "trainable": true, "size": [2.0, 2.0], "data_format": "channels_first", "interpolation": "bilinear"}, "inbound_nodes": [[["CnkyiwCX", 0, 0, {}]]]}, {"name": "AQKGXGVd", "class_name": "Add", "config": {"name": "AQKGXGVd", "trainable": true}, "inbound_nodes": [[["CHuzGVAm", 0, 0, {}], ["UPSLOLwR", 0, 0, {}]]]}, {"name": "re_lu_39", "class_name": "ReLU", "config": {"name": "re_lu_39", "trainable": true, "max_value": 6.0, "negative_slope": 0.0, "threshold": 0.0}, "inbound_nodes": [[["AQKGXGVd", 0, 0, {}]]]}, {"name": "PhjROtSy", "class_name": "MaxPooling2D", "config": {"name": "PhjROtSy", "trainable": true, "pool_size": [5, 5], "padding": "same", "strides": [1, 1], "data_format": "channels_first"}, "inbound_nodes": [[["re_lu_39", 0, 0, {}]]]}, {"name": "depthwise_conv2d_18", "class_name": "DepthwiseConv2D", "config": {"name": "depthwise_conv2d_18", "trainable": true, "kernel_size": [1, 1], "strides": [1, 1], "padding": "valid", "data_format": "channels_first", "dilation_rate": [1, 1], "activation": "linear", "use_bias": false, "bias_initializer": {"class_name": "Zeros", "config": {}}, "bias_regularizer": null, "activity_regularizer": null, "bias_constraint": null, "depth_multiplier": 1, "depthwise_initializer": {"class_name": "VarianceScaling", "config": {"scale": 1.0, "mode": "fan_avg", "distribution": "uniform", "seed": null}}, "depthwise_regularizer": null, "depthwise_constraint": null}, "inbound_nodes": [[["PhjROtSy", 0, 0, {}]]]}, {"name": "PQNSJboM", "class_name": "MaxPooling2D", "config": {"name": "PQNSJboM", "trainable": true, "pool_size": [5, 5], "padding": "same", "strides": [1, 1], "data_format": "channels_first"}, "inbound_nodes": [[["depthwise_conv2d_18", 0, 0, {}]]]}, {"name": "depthwise_conv2d_19", "class_name": "DepthwiseConv2D", "config": {"name": "depthwise_conv2d_19", "trainable": true, "kernel_size": [1, 1], "strides": [1, 1], "padding": "valid", "data_format": "channels_first", "dilation_rate": [1, 1], "activation": "linear", "use_bias": false, "bias_initializer": {"class_name": "Zeros", "config": {}}, "bias_regularizer": null, "activity_regularizer": null, "bias_constraint": null, "depth_multiplier": 1, "depthwise_initializer": {"class_name": "VarianceScaling", "config": {"scale": 1.0, "mode": "fan_avg", "distribution": "uniform", "seed": null}}, "depthwise_regularizer": null, "depthwise_constraint": null}, "inbound_nodes": [[["PQNSJboM", 0, 0, {}]]]}, {"name": "PbqNggiw", "class_name": "MaxPooling2D", "config": {"name": "PbqNggiw", "trainable": true, "pool_size": [5, 5], "padding": "same", "strides": [1, 1], "data_format": "channels_first"}, "inbound_nodes": [[["depthwise_conv2d_19", 0, 0, {}]]]}, {"name": "depthwise_conv2d_20", "class_name": "DepthwiseConv2D", "config": {"name": "depthwise_conv2d_20", "trainable": true, "kernel_size": [1, 1], "strides": [1, 1], "padding": "valid", "data_format": "channels_first", "dilation_rate": [1, 1], "activation": "linear", "use_bias": false, "bias_initializer": {"class_name": "Zeros", "config": {}}, "bias_regularizer": null, "activity_regularizer": null, "bias_constraint": null, "depth_multiplier": 1, "depthwise_initializer": {"class_name": "VarianceScaling", "config": {"scale": 1.0, "mode": "fan_avg", "distribution": "uniform", "seed": null}}, "depthwise_regularizer": null, "depthwise_constraint": null}, "inbound_nodes": [[["PbqNggiw", 0, 0, {}]]]}, {"name": "AcSRhjkL", "class_name": "Add", "config": {"name": "AcSRhjkL", "trainable": true}, "inbound_nodes": [[["depthwise_conv2d_18", 0, 0, {}], ["re_lu_39", 0, 0, {}]]]}, {"name": "PtdwsiqZ", "class_name": "MaxPooling2D", "config": {"name": "PtdwsiqZ", "trainable": true, "pool_size": [5, 5], "padding": "same", "strides": [1, 1], "data_format": "channels_first"}, "inbound_nodes": [[["depthwise_conv2d_20", 0, 0, {}]]]}, {"name": "AhNOKqhP", "class_name": "Add", "config": {"name": "AhNOKqhP", "trainable": true}, "inbound_nodes": [[["depthwise_conv2d_19", 0, 0, {}], ["AcSRhjkL", 0, 0, {}]]]}, {"name": "depthwise_conv2d_21", "class_name": "DepthwiseConv2D", "config": {"name": "depthwise_conv2d_21", "trainable": true, "kernel_size": [1, 1], "strides": [1, 1], "padding": "valid", "data_format": "channels_first", "dilation_rate": [1, 1], "activation": "linear", "use_bias": false, "bias_initializer": {"class_name": "Zeros", "config": {}}, "bias_regularizer": null, "activity_regularizer": null, "bias_constraint": null, "depth_multiplier": 1, "depthwise_initializer": {"class_name": "VarianceScaling", "config": {"scale": 1.0, "mode": "fan_avg", "distribution": "uniform", "seed": null}}, "depthwise_regularizer": null, "depthwise_constraint": null}, "inbound_nodes": [[["PtdwsiqZ", 0, 0, {}]]]}, {"name": "AtsQAElC", "class_name": "Add", "config": {"name": "AtsQAElC", "trainable": true}, "inbound_nodes": [[["depthwise_conv2d_20", 0, 0, {}], ["AhNOKqhP", 0, 0, {}]]]}, {"name": "AxPzhJmR", "class_name": "Add", "config": {"name": "AxPzhJmR", "trainable": true}, "inbound_nodes": [[["depthwise_conv2d_21", 0, 0, {}], ["AtsQAElC", 0, 0, {}]]]}, {"name": "depthwise_conv2d_22", "class_name": "DepthwiseConv2D", "config": {"name": "depthwise_conv2d_22", "trainable": true, "kernel_size": [1, 1], "strides": [1, 1], "padding": "valid", "data_format": "channels_first", "dilation_rate": [1, 1], "activation": "linear", "use_bias": false, "bias_initializer": {"class_name": "Zeros", "config": {}}, "bias_regularizer": null, "activity_regularizer": null, "bias_constraint": null, "depth_multiplier": 1, "depthwise_initializer": {"class_name": "VarianceScaling", "config": {"scale": 1.0, "mode": "fan_avg", "distribution": "uniform", "seed": null}}, "depthwise_regularizer": null, "depthwise_constraint": null}, "inbound_nodes": [[["AxPzhJmR", 0, 0, {}]]]}, {"name": "depthwise_conv2d_23", "class_name": "DepthwiseConv2D", "config": {"name": "depthwise_conv2d_23", "trainable": true, "kernel_size": [1, 1], "strides": [1, 1], "padding": "valid", "data_format": "channels_first", "dilation_rate": [1, 1], "activation": "linear", "use_bias": false, "bias_initializer": {"class_name": "Zeros", "config": {}}, "bias_regularizer": null, "activity_regularizer": null, "bias_constraint": null, "depth_multiplier": 1, "depthwise_initializer": {"class_name": "VarianceScaling", "config": {"scale": 1.0, "mode": "fan_avg", "distribution": "uniform", "seed": null}}, "depthwise_regularizer": null, "depthwise_constraint": null}, "inbound_nodes": [[["AxPzhJmR", 0, 0, {}]]]}, {"name": "depthwise_conv2d_24", "class_name": "DepthwiseConv2D", "config": {"name": "depthwise_conv2d_24", "trainable": true, "kernel_size": [1, 1], "strides": [1, 1], "padding": "valid", "data_format": "channels_first", "dilation_rate": [1, 1], "activation": "linear", "use_bias": false, "bias_initializer": {"class_name": "Zeros", "config": {}}, "bias_regularizer": null, "activity_regularizer": null, "bias_constraint": null, "depth_multiplier": 1, "depthwise_initializer": {"class_name": "VarianceScaling", "config": {"scale": 1.0, "mode": "fan_avg", "distribution": "uniform", "seed": null}}, "depthwise_regularizer": null, "depthwise_constraint": null}, "inbound_nodes": [[["AxPzhJmR", 0, 0, {}]]]}, {"name": "re_lu_40", "class_name": "ReLU", "config": {"name": "re_lu_40", "trainable": true, "max_value": 6.0, "negative_slope": 0.0, "threshold": 0.0}, "inbound_nodes": [[["depthwise_conv2d_22", 0, 0, {}]]]}, {"name": "re_lu_41", "class_name": "ReLU", "config": {"name": "re_lu_41", "trainable": true, "max_value": 6.0, "negative_slope": 0.0, "threshold": 0.0}, "inbound_nodes": [[["depthwise_conv2d_23", 0, 0, {}]]]}, {"name": "re_lu_42", "class_name": "ReLU", "config": {"name": "re_lu_42", "trainable": true, "max_value": 6.0, "negative_slope": 0.0, "threshold": 0.0}, "inbound_nodes": [[["depthwise_conv2d_24", 0, 0, {}]]]}, {"name": "CxvMayGY_pad", "class_name": "ZeroPadding2D", "config": {"name": "CxvMayGY_pad", "trainable": true, "padding": [[1, 1], [1, 1]], "data_format": "channels_first"}, "inbound_nodes": [[["re_lu_40", 0, 0, {}]]]}, {"name": "CbFuYwqq_pad", "class_name": "ZeroPadding2D", "config": {"name": "CbFuYwqq_pad", "trainable": true, "padding": [[1, 1], [1, 1]], "data_format": "channels_first"}, "inbound_nodes": [[["re_lu_41", 0, 0, {}]]]}, {"name": "COrzQUbg_pad", "class_name": "ZeroPadding2D", "config": {"name": "COrzQUbg_pad", "trainable": true, "padding": [[1, 1], [1, 1]], "data_format": "channels_first"}, "inbound_nodes": [[["re_lu_42", 0, 0, {}]]]}, {"name": "CxvMayGY", "class_name": "Conv2D", "config": {"name": "CxvMayGY", "trainable": true, "filters": 1, "kernel_size": [3, 3], "strides": [1, 1], "padding": "valid", "data_format": "channels_first", "dilation_rate": [1, 1], "activation": "linear", "use_bias": true, "kernel_initializer": {"class_name": "Zeros", "config": {}}, "bias_initializer": {"class_name": "Zeros", "config": {}}, "kernel_regularizer": null, "bias_regularizer": null, "activity_regularizer": null, "kernel_constraint": null, "bias_constraint": null}, "inbound_nodes": [[["CxvMayGY_pad", 0, 0, {}]]]}, {"name": "CbFuYwqq", "class_name": "Conv2D", "config": {"name": "CbFuYwqq", "trainable": true, "filters": 3, "kernel_size": [3, 3], "strides": [1, 1], "padding": "valid", "data_format": "channels_first", "dilation_rate": [1, 1], "activation": "linear", "use_bias": true, "kernel_initializer": {"class_name": "Zeros", "config": {}}, "bias_initializer": {"class_name": "Zeros", "config": {}}, "kernel_regularizer": null, "bias_regularizer": null, "activity_regularizer": null, "kernel_constraint": null, "bias_constraint": null}, "inbound_nodes": [[["CbFuYwqq_pad", 0, 0, {}]]]}, {"name": "COrzQUbg", "class_name": "Conv2D", "config": {"name": "COrzQUbg", "trainable": true, "filters": 40, "kernel_size": [3, 3], "strides": [1, 1], "padding": "valid", "data_format": "channels_first", "dilation_rate": [1, 1], "activation": "linear", "use_bias": true, "kernel_initializer": {"class_name": "Zeros", "config": {}}, "bias_initializer": {"class_name": "Zeros", "config": {}}, "kernel_regularizer": null, "bias_regularizer": null, "activity_regularizer": null, "kernel_constraint": null, "bias_constraint": null}, "inbound_nodes": [[["COrzQUbg_pad", 0, 0, {}]]]}], "input_layers": [["input0", 0, 0]], "output_layers": [["CxvMayGY", 0, 0], ["CbFuYwqq", 0, 0], ["COrzQUbg", 0, 0]]}}}, "weightsManifest": [{"paths": ["group1-shard1of3", "group1-shard2of3", "group1-shard3of3"], "weights": [{"name": "BNAvVGpo/gamma", "shape": [576], "dtype": "float32"}, {"name": "BNAvVGpo/beta", "shape": [576], "dtype": "float32"}, {"name": "BNAvVGpo/moving_mean", "shape": [576], "dtype": "float32"}, {"name": "BNAvVGpo/moving_variance", "shape": [576], "dtype": "float32"}, {"name": "BNCkdGwp/gamma", "shape": [960], "dtype": "float32"}, {"name": "BNCkdGwp/beta", "shape": [960], "dtype": "float32"}, {"name": "BNCkdGwp/moving_mean", "shape": [960], "dtype": "float32"}, {"name": "BNCkdGwp/moving_variance", "shape": [960], "dtype": "float32"}, {"name": "BNEDjZRo/gamma", "shape": [192], "dtype": "float32"}, {"name": "BNEDjZRo/beta", "shape": [192], "dtype": "float32"}, {"name": "BNEDjZRo/moving_mean", "shape": [192], "dtype": "float32"}, {"name": "BNEDjZRo/moving_variance", "shape": [192], "dtype": "float32"}, {"name": "BNERRAnw/gamma", "shape": [576], "dtype": "float32"}, {"name": "BNERRAnw/beta", "shape": [576], "dtype": "float32"}, {"name": "BNERRAnw/moving_mean", "shape": [576], "dtype": "float32"}, {"name": "BNERRAnw/moving_variance", "shape": [576], "dtype": "float32"}, {"name": "BNEgmuHj/gamma", "shape": [384], "dtype": "float32"}, {"name": "BNEgmuHj/beta", "shape": [384], "dtype": "float32"}, {"name": "BNEgmuHj/moving_mean", "shape": [384], "dtype": "float32"}, {"name": "BNEgmuHj/moving_variance", "shape": [384], "dtype": "float32"}, {"name": "BNFZIqJH/gamma", "shape": [576], "dtype": "float32"}, {"name": "BNFZIqJH/beta", "shape": [576], "dtype": "float32"}, {"name": "BNFZIqJH/moving_mean", "shape": [576], "dtype": "float32"}, {"name": "BNFZIqJH/moving_variance", "shape": [576], "dtype": "float32"}, {"name": "BNFrBQKx/gamma", "shape": [320], "dtype": "float32"}, {"name": "BNFrBQKx/beta", "shape": [320], "dtype": "float32"}, {"name": "BNFrBQKx/moving_mean", "shape": [320], "dtype": "float32"}, {"name": "BNFrBQKx/moving_variance", "shape": [320], "dtype": "float32"}, {"name": "BNGOLsxQ/gamma", "shape": [24], "dtype": "float32"}, {"name": "BNGOLsxQ/beta", "shape": [24], "dtype": "float32"}, {"name": "BNGOLsxQ/moving_mean", "shape": [24], "dtype": "float32"}, {"name": "BNGOLsxQ/moving_variance", "shape": [24], "dtype": "float32"}, {"name": "BNKBKyHB/gamma", "shape": [144], "dtype": "float32"}, {"name": "BNKBKyHB/beta", "shape": [144], "dtype": "float32"}, {"name": "BNKBKyHB/moving_mean", "shape": [144], "dtype": "float32"}, {"name": "BNKBKyHB/moving_variance", "shape": [144], "dtype": "float32"}, {"name": "BNNxSJWt/gamma", "shape": [96], "dtype": "float32"}, {"name": "BNNxSJWt/beta", "shape": [96], "dtype": "float32"}, {"name": "BNNxSJWt/moving_mean", "shape": [96], "dtype": "float32"}, {"name": "BNNxSJWt/moving_variance", "shape": [96], "dtype": "float32"}, {"name": "BNOGfThy/gamma", "shape": [576], "dtype": "float32"}, {"name": "BNOGfThy/beta", "shape": [576], "dtype": "float32"}, {"name": "BNOGfThy/moving_mean", "shape": [576], "dtype": "float32"}, {"name": "BNOGfThy/moving_variance", "shape": [576], "dtype": "float32"}, {"name": "BNPJEMWz/gamma", "shape": [160], "dtype": "float32"}, {"name": "BNPJEMWz/beta", "shape": [160], "dtype": "float32"}, {"name": "BNPJEMWz/moving_mean", "shape": [160], "dtype": "float32"}, {"name": "BNPJEMWz/moving_variance", "shape": [160], "dtype": "float32"}, {"name": "BNPoyjze/gamma", "shape": [144], "dtype": "float32"}, {"name": "BNPoyjze/beta", "shape": [144], "dtype": "float32"}, {"name": "BNPoyjze/moving_mean", "shape": [144], "dtype": "float32"}, {"name": "BNPoyjze/moving_variance", "shape": [144], "dtype": "float32"}, {"name": "BNSmWnKB/gamma", "shape": [960], "dtype": "float32"}, {"name": "BNSmWnKB/beta", "shape": [960], "dtype": "float32"}, {"name": "BNSmWnKB/moving_mean", "shape": [960], "dtype": "float32"}, {"name": "BNSmWnKB/moving_variance", "shape": [960], "dtype": "float32"}, {"name": "BNUfSEbf/gamma", "shape": [384], "dtype": "float32"}, {"name": "BNUfSEbf/beta", "shape": [384], "dtype": "float32"}, {"name": "BNUfSEbf/moving_mean", "shape": [384], "dtype": "float32"}, {"name": "BNUfSEbf/moving_variance", "shape": [384], "dtype": "float32"}, {"name": "BNWKWZGt/gamma", "shape": [960], "dtype": "float32"}, {"name": "BNWKWZGt/beta", "shape": [960], "dtype": "float32"}, {"name": "BNWKWZGt/moving_mean", "shape": [960], "dtype": "float32"}, {"name": "BNWKWZGt/moving_variance", "shape": [960], "dtype": "float32"}, {"name": "BNWPWuuW/gamma", "shape": [144], "dtype": "float32"}, {"name": "BNWPWuuW/beta", "shape": [144], "dtype": "float32"}, {"name": "BNWPWuuW/moving_mean", "shape": [144], "dtype": "float32"}, {"name": "BNWPWuuW/moving_variance", "shape": [144], "dtype": "float32"}, {"name": "BNWbZHdv/gamma", "shape": [192], "dtype": "float32"}, {"name": "BNWbZHdv/beta", "shape": [192], "dtype": "float32"}, {"name": "BNWbZHdv/moving_mean", "shape": [192], "dtype": "float32"}, {"name": "BNWbZHdv/moving_variance", "shape": [192], "dtype": "float32"}, {"name": "BNXToKGb/gamma", "shape": [16], "dtype": "float32"}, {"name": "BNXToKGb/beta", "shape": [16], "dtype": "float32"}, {"name": "BNXToKGb/moving_mean", "shape": [16], "dtype": "float32"}, {"name": "BNXToKGb/moving_variance", "shape": [16], "dtype": "float32"}, {"name": "BNaHUHKC/gamma", "shape": [384], "dtype": "float32"}, {"name": "BNaHUHKC/beta", "shape": [384], "dtype": "float32"}, {"name": "BNaHUHKC/moving_mean", "shape": [384], "dtype": "float32"}, {"name": "BNaHUHKC/moving_variance", "shape": [384], "dtype": "float32"}, {"name": "BNbGMjAq/gamma", "shape": [192], "dtype": "float32"}, {"name": "BNbGMjAq/beta", "shape": [192], "dtype": "float32"}, {"name": "BNbGMjAq/moving_mean", "shape": [192], "dtype": "float32"}, {"name": "BNbGMjAq/moving_variance", "shape": [192], "dtype": "float32"}, {"name": "BNbHclAZ/gamma", "shape": [384], "dtype": "float32"}, {"name": "BNbHclAZ/beta", "shape": [384], "dtype": "float32"}, {"name": "BNbHclAZ/moving_mean", "shape": [384], "dtype": "float32"}, {"name": "BNbHclAZ/moving_variance", "shape": [384], "dtype": "float32"}, {"name": "BNbYlqtW/gamma", "shape": [192], "dtype": "float32"}, {"name": "BNbYlqtW/beta", "shape": [192], "dtype": "float32"}, {"name": "BNbYlqtW/moving_mean", "shape": [192], "dtype": "float32"}, {"name": "BNbYlqtW/moving_variance", "shape": [192], "dtype": "float32"}, {"name": "BNbaALGe/gamma", "shape": [192], "dtype": "float32"}, {"name": "BNbaALGe/beta", "shape": [192], "dtype": "float32"}, {"name": "BNbaALGe/moving_mean", "shape": [192], "dtype": "float32"}, {"name": "BNbaALGe/moving_variance", "shape": [192], "dtype": "float32"}, {"name": "BNbejAQB/gamma", "shape": [64], "dtype": "float32"}, {"name": "BNbejAQB/beta", "shape": [64], "dtype": "float32"}, {"name": "BNbejAQB/moving_mean", "shape": [64], "dtype": "float32"}, {"name": "BNbejAQB/moving_variance", "shape": [64], "dtype": "float32"}, {"name": "BNcYmJMa/gamma", "shape": [160], "dtype": "float32"}, {"name": "BNcYmJMa/beta", "shape": [160], "dtype": "float32"}, {"name": "BNcYmJMa/moving_mean", "shape": [160], "dtype": "float32"}, {"name": "BNcYmJMa/moving_variance", "shape": [160], "dtype": "float32"}, {"name": "BNdKMrgo/gamma", "shape": [32], "dtype": "float32"}, {"name": "BNdKMrgo/beta", "shape": [32], "dtype": "float32"}, {"name": "BNdKMrgo/moving_mean", "shape": [32], "dtype": "float32"}, {"name": "BNdKMrgo/moving_variance", "shape": [32], "dtype": "float32"}, {"name": "BNgLwwzR/gamma", "shape": [576], "dtype": "float32"}, {"name": "BNgLwwzR/beta", "shape": [576], "dtype": "float32"}, {"name": "BNgLwwzR/moving_mean", "shape": [576], "dtype": "float32"}, {"name": "BNgLwwzR/moving_variance", "shape": [576], "dtype": "float32"}, {"name": "BNgUOuSc/gamma", "shape": [384], "dtype": "float32"}, {"name": "BNgUOuSc/beta", "shape": [384], "dtype": "float32"}, {"name": "BNgUOuSc/moving_mean", "shape": [384], "dtype": "float32"}, {"name": "BNgUOuSc/moving_variance", "shape": [384], "dtype": "float32"}, {"name": "BNitmwgs/gamma", "shape": [32], "dtype": "float32"}, {"name": "BNitmwgs/beta", "shape": [32], "dtype": "float32"}, {"name": "BNitmwgs/moving_mean", "shape": [32], "dtype": "float32"}, {"name": "BNitmwgs/moving_variance", "shape": [32], "dtype": "float32"}, {"name": "BNjFJsgw/gamma", "shape": [576], "dtype": "float32"}, {"name": "BNjFJsgw/beta", "shape": [576], "dtype": "float32"}, {"name": "BNjFJsgw/moving_mean", "shape": [576], "dtype": "float32"}, {"name": "BNjFJsgw/moving_variance", "shape": [576], "dtype": "float32"}, {"name": "BNjhzBfU/gamma", "shape": [384], "dtype": "float32"}, {"name": "BNjhzBfU/beta", "shape": [384], "dtype": "float32"}, {"name": "BNjhzBfU/moving_mean", "shape": [384], "dtype": "float32"}, {"name": "BNjhzBfU/moving_variance", "shape": [384], "dtype": "float32"}, {"name": "BNkCqjEx/gamma", "shape": [96], "dtype": "float32"}, {"name": "BNkCqjEx/beta", "shape": [96], "dtype": "float32"}, {"name": "BNkCqjEx/moving_mean", "shape": [96], "dtype": "float32"}, {"name": "BNkCqjEx/moving_variance", "shape": [96], "dtype": "float32"}, {"name": "BNkMumVw/gamma", "shape": [64], "dtype": "float32"}, {"name": "BNkMumVw/beta", "shape": [64], "dtype": "float32"}, {"name": "BNkMumVw/moving_mean", "shape": [64], "dtype": "float32"}, {"name": "BNkMumVw/moving_variance", "shape": [64], "dtype": "float32"}, {"name": "BNlLEwLc/gamma", "shape": [144], "dtype": "float32"}, {"name": "BNlLEwLc/beta", "shape": [144], "dtype": "float32"}, {"name": "BNlLEwLc/moving_mean", "shape": [144], "dtype": "float32"}, {"name": "BNlLEwLc/moving_variance", "shape": [144], "dtype": "float32"}, {"name": "BNlYvnPL/gamma", "shape": [64], "dtype": "float32"}, {"name": "BNlYvnPL/beta", "shape": [64], "dtype": "float32"}, {"name": "BNlYvnPL/moving_mean", "shape": [64], "dtype": "float32"}, {"name": "BNlYvnPL/moving_variance", "shape": [64], "dtype": "float32"}, {"name": "BNlZuRzj/gamma", "shape": [96], "dtype": "float32"}, {"name": "BNlZuRzj/beta", "shape": [96], "dtype": "float32"}, {"name": "BNlZuRzj/moving_mean", "shape": [96], "dtype": "float32"}, {"name": "BNlZuRzj/moving_variance", "shape": [96], "dtype": "float32"}, {"name": "BNnbqhaI/gamma", "shape": [960], "dtype": "float32"}, {"name": "BNnbqhaI/beta", "shape": [960], "dtype": "float32"}, {"name": "BNnbqhaI/moving_mean", "shape": [960], "dtype": "float32"}, {"name": "BNnbqhaI/moving_variance", "shape": [960], "dtype": "float32"}, {"name": "BNoeordQ/gamma", "shape": [960], "dtype": "float32"}, {"name": "BNoeordQ/beta", "shape": [960], "dtype": "float32"}, {"name": "BNoeordQ/moving_mean", "shape": [960], "dtype": "float32"}, {"name": "BNoeordQ/moving_variance", "shape": [960], "dtype": "float32"}, {"name": "BNosyfMV/gamma", "shape": [96], "dtype": "float32"}, {"name": "BNosyfMV/beta", "shape": [96], "dtype": "float32"}, {"name": "BNosyfMV/moving_mean", "shape": [96], "dtype": "float32"}, {"name": "BNosyfMV/moving_variance", "shape": [96], "dtype": "float32"}, {"name": "BNpJQAwF/gamma", "shape": [160], "dtype": "float32"}, {"name": "BNpJQAwF/beta", "shape": [160], "dtype": "float32"}, {"name": "BNpJQAwF/moving_mean", "shape": [160], "dtype": "float32"}, {"name": "BNpJQAwF/moving_variance", "shape": [160], "dtype": "float32"}, {"name": "BNqzNHYJ/gamma", "shape": [192], "dtype": "float32"}, {"name": "BNqzNHYJ/beta", "shape": [192], "dtype": "float32"}, {"name": "BNqzNHYJ/moving_mean", "shape": [192], "dtype": "float32"}, {"name": "BNqzNHYJ/moving_variance", "shape": [192], "dtype": "float32"}, {"name": "BNrwomIQ/gamma", "shape": [32], "dtype": "float32"}, {"name": "BNrwomIQ/beta", "shape": [32], "dtype": "float32"}, {"name": "BNrwomIQ/moving_mean", "shape": [32], "dtype": "float32"}, {"name": "BNrwomIQ/moving_variance", "shape": [32], "dtype": "float32"}, {"name": "BNrzEjWw/gamma", "shape": [384], "dtype": "float32"}, {"name": "BNrzEjWw/beta", "shape": [384], "dtype": "float32"}, {"name": "BNrzEjWw/moving_mean", "shape": [384], "dtype": "float32"}, {"name": "BNrzEjWw/moving_variance", "shape": [384], "dtype": "float32"}, {"name": "BNtkuFeu/gamma", "shape": [32], "dtype": "float32"}, {"name": "BNtkuFeu/beta", "shape": [32], "dtype": "float32"}, {"name": "BNtkuFeu/moving_mean", "shape": [32], "dtype": "float32"}, {"name": "BNtkuFeu/moving_variance", "shape": [32], "dtype": "float32"}, {"name": "BNuItFoW/gamma", "shape": [96], "dtype": "float32"}, {"name": "BNuItFoW/beta", "shape": [96], "dtype": "float32"}, {"name": "BNuItFoW/moving_mean", "shape": [96], "dtype": "float32"}, {"name": "BNuItFoW/moving_variance", "shape": [96], "dtype": "float32"}, {"name": "BNvAvKCz/gamma", "shape": [384], "dtype": "float32"}, {"name": "BNvAvKCz/beta", "shape": [384], "dtype": "float32"}, {"name": "BNvAvKCz/moving_mean", "shape": [384], "dtype": "float32"}, {"name": "BNvAvKCz/moving_variance", "shape": [384], "dtype": "float32"}, {"name": "BNwLkgUu/gamma", "shape": [24], "dtype": "float32"}, {"name": "BNwLkgUu/beta", "shape": [24], "dtype": "float32"}, {"name": "BNwLkgUu/moving_mean", "shape": [24], "dtype": "float32"}, {"name": "BNwLkgUu/moving_variance", "shape": [24], "dtype": "float32"}, {"name": "BNwvgGvC/gamma", "shape": [32], "dtype": "float32"}, {"name": "BNwvgGvC/beta", "shape": [32], "dtype": "float32"}, {"name": "BNwvgGvC/moving_mean", "shape": [32], "dtype": "float32"}, {"name": "BNwvgGvC/moving_variance", "shape": [32], "dtype": "float32"}, {"name": "BNxozffh/gamma", "shape": [960], "dtype": "float32"}, {"name": "BNxozffh/beta", "shape": [960], "dtype": "float32"}, {"name": "BNxozffh/moving_mean", "shape": [960], "dtype": "float32"}, {"name": "BNxozffh/moving_variance", "shape": [960], "dtype": "float32"}, {"name": "BNyVwOBc/gamma", "shape": [32], "dtype": "float32"}, {"name": "BNyVwOBc/beta", "shape": [32], "dtype": "float32"}, {"name": "BNyVwOBc/moving_mean", "shape": [32], "dtype": "float32"}, {"name": "BNyVwOBc/moving_variance", "shape": [32], "dtype": "float32"}, {"name": "BNykOUuA/gamma", "shape": [64], "dtype": "float32"}, {"name": "BNykOUuA/beta", "shape": [64], "dtype": "float32"}, {"name": "BNykOUuA/moving_mean", "shape": [64], "dtype": "float32"}, {"name": "BNykOUuA/moving_variance", "shape": [64], "dtype": "float32"}, {"name": "CAPthuzl/kernel", "shape": [1, 1, 576, 160], "dtype": "float32"}, {"name": "CAYmgCgZ/kernel", "shape": [1, 1, 160, 256], "dtype": "float32"}, {"name": "CBLeWHab/kernel", "shape": [1, 1, 256, 256], "dtype": "float32"}, {"name": "CBvWdPmz/kernel", "shape": [1, 1, 32, 256], "dtype": "float32"}, {"name": "CCMtNGOn/kernel", "shape": [1, 1, 24, 144], "dtype": "float32"}, {"name": "CCNwFgSk/kernel", "shape": [1, 1, 64, 384], "dtype": "float32"}, {"name": "CEBUhkgD/kernel", "shape": [1, 1, 32, 32], "dtype": "float32"}, {"name": "CECSNDpD/kernel", "shape": [1, 1, 192, 64], "dtype": "float32"}, {"name": "CEDiaxgF/kernel", "shape": [1, 1, 144, 32], "dtype": "float32"}, {"name": "CFAsxfyg/kernel", "shape": [1, 1, 32, 192], "dtype": "float32"}, {"name": "CFsdpeto/kernel", "shape": [1, 1, 256, 256], "dtype": "float32"}, {"name": "CHuzGVAm/kernel", "shape": [1, 1, 24, 256], "dtype": "float32"}, {"name": "CIJdTtoJ/kernel", "shape": [1, 1, 256, 256], "dtype": "float32"}, {"name": "CIWyZKjj/kernel", "shape": [1, 1, 24, 144], "dtype": "float32"}, {"name": "CJEUJJmp/kernel", "shape": [1, 1, 96, 24], "dtype": "float32"}, {"name": "CJyKLErF/kernel", "shape": [1, 1, 256, 256], "dtype": "float32"}, {"name": "CKBciZmx/kernel", "shape": [1, 1, 32, 16], "dtype": "float32"}, {"name": "CKYibEwG/kernel", "shape": [1, 1, 256, 256], "dtype": "float32"}, {"name": "CKwWjuyB/kernel", "shape": [1, 1, 384, 64], "dtype": "float32"}, {"name": "CLfYNzWa/kernel", "shape": [1, 1, 96, 576], "dtype": "float32"}, {"name": "CLgXmRjt/kernel", "shape": [1, 1, 32, 192], "dtype": "float32"}, {"name": "CMJxMTpX/kernel", "shape": [1, 1, 256, 256], "dtype": "float32"}, {"name": "CNezPlQs/kernel", "shape": [1, 1, 960, 160], "dtype": "float32"}, {"name": "COUEmdmy/kernel", "shape": [1, 1, 64, 384], "dtype": "float32"}, {"name": "COrzQUbg/kernel", "shape": [3, 3, 256, 40], "dtype": "float32"}, {"name": "COrzQUbg/bias", "shape": [40], "dtype": "float32"}, {"name": "COuyAosE/kernel", "shape": [1, 1, 256, 256], "dtype": "float32"}, {"name": "CPZUbPaj/kernel", "shape": [1, 1, 384, 96], "dtype": "float32"}, {"name": "CPsPxdKe/kernel", "shape": [1, 1, 256, 256], "dtype": "float32"}, {"name": "CRYohert/kernel", "shape": [1, 1, 256, 256], "dtype": "float32"}, {"name": "CSFBNwBA/kernel", "shape": [1, 1, 320, 256], "dtype": "float32"}, {"name": "CSqWgKmk/kernel", "shape": [1, 1, 144, 24], "dtype": "float32"}, {"name": "CWUkllVc/kernel", "shape": [1, 1, 960, 320], "dtype": "float32"}, {"name": "CWxUHgaV/kernel", "shape": [1, 1, 64, 384], "dtype": "float32"}, {"name": "CYNJyCWe/kernel", "shape": [1, 1, 160, 960], "dtype": "float32"}, {"name": "CZQAIngP/kernel", "shape": [1, 1, 160, 960], "dtype": "float32"}, {"name": "CaaBFmeg/kernel", "shape": [1, 1, 256, 256], "dtype": "float32"}, {"name": "CahSeBCe/kernel", "shape": [1, 1, 256, 256], "dtype": "float32"}, {"name": "CbFuYwqq/kernel", "shape": [3, 3, 256, 3], "dtype": "float32"}, {"name": "CbFuYwqq/bias", "shape": [3], "dtype": "float32"}, {"name": "CcDiPoQT/kernel", "shape": [1, 1, 192, 32], "dtype": "float32"}, {"name": "CeNKoZIi/kernel", "shape": [1, 1, 96, 256], "dtype": "float32"}, {"name": "CeQooAde/kernel", "shape": [1, 1, 960, 160], "dtype": "float32"}, {"name": "ChDlXmKq/kernel", "shape": [3, 3, 3, 32], "dtype": "float32"}, {"name": "ChkJWwGz/kernel", "shape": [1, 1, 384, 64], "dtype": "float32"}, {"name": "CiosAqpV/kernel", "shape": [1, 1, 256, 256], "dtype": "float32"}, {"name": "CipOUejq/kernel", "shape": [1, 1, 160, 960], "dtype": "float32"}, {"name": "CjUtUyLV/kernel", "shape": [1, 1, 384, 64], "dtype": "float32"}, {"name": "CkerWBEz/kernel", "shape": [1, 1, 16, 96], "dtype": "float32"}, {"name": "CnkyiwCX/kernel", "shape": [1, 1, 256, 256], "dtype": "float32"}, {"name": "CoiAojVy/kernel", "shape": [1, 1, 192, 32], "dtype": "float32"}, {"name": "CooyUAoH/kernel", "shape": [1, 1, 576, 96], "dtype": "float32"}, {"name": "CrwpmMcm/kernel", "shape": [1, 1, 96, 576], "dtype": "float32"}, {"name": "CtHEazsq/kernel", "shape": [1, 1, 96, 576], "dtype": "float32"}, {"name": "CtSPQewh/kernel", "shape": [1, 1, 256, 256], "dtype": "float32"}, {"name": "CtmGvEKw/kernel", "shape": [1, 1, 64, 256], "dtype": "float32"}, {"name": "CuNYyNyX/kernel", "shape": [1, 1, 256, 256], "dtype": "float32"}, {"name": "CulMQceK/kernel", "shape": [1, 1, 576, 96], "dtype": "float32"}, {"name": "CxvMayGY/kernel", "shape": [3, 3, 256, 1], "dtype": "float32"}, {"name": "CxvMayGY/bias", "shape": [1], "dtype": "float32"}, {"name": "CyKbdbyl/kernel", "shape": [1, 1, 32, 192], "dtype": "float32"}, {"name": "CyZRRrtv/kernel", "shape": [1, 1, 64, 384], "dtype": "float32"}, {"name": "depthwise_conv2d_1/depthwise_kernel", "shape": [3, 3, 32, 1], "dtype": "float32"}, {"name": "depthwise_conv2d_10/depthwise_kernel", "shape": [3, 3, 384, 1], "dtype": "float32"}, {"name": "depthwise_conv2d_11/depthwise_kernel", "shape": [3, 3, 384, 1], "dtype": "float32"}, {"name": "depthwise_conv2d_12/depthwise_kernel", "shape": [3, 3, 576, 1], "dtype": "float32"}, {"name": "depthwise_conv2d_13/depthwise_kernel", "shape": [3, 3, 576, 1], "dtype": "float32"}, {"name": "depthwise_conv2d_14/depthwise_kernel", "shape": [3, 3, 576, 1], "dtype": "float32"}, {"name": "depthwise_conv2d_15/depthwise_kernel", "shape": [3, 3, 960, 1], "dtype": "float32"}, {"name": "depthwise_conv2d_16/depthwise_kernel", "shape": [3, 3, 960, 1], "dtype": "float32"}, {"name": "depthwise_conv2d_17/depthwise_kernel", "shape": [3, 3, 960, 1], "dtype": "float32"}, {"name": "depthwise_conv2d_18/depthwise_kernel", "shape": [1, 1, 256, 1], "dtype": "float32"}, {"name": "depthwise_conv2d_19/depthwise_kernel", "shape": [1, 1, 256, 1], "dtype": "float32"}, {"name": "depthwise_conv2d_2/depthwise_kernel", "shape": [3, 3, 96, 1], "dtype": "float32"}, {"name": "depthwise_conv2d_20/depthwise_kernel", "shape": [1, 1, 256, 1], "dtype": "float32"}, {"name": "depthwise_conv2d_21/depthwise_kernel", "shape": [1, 1, 256, 1], "dtype": "float32"}, {"name": "depthwise_conv2d_22/depthwise_kernel", "shape": [1, 1, 256, 1], "dtype": "float32"}, {"name": "depthwise_conv2d_23/depthwise_kernel", "shape": [1, 1, 256, 1], "dtype": "float32"}, {"name": "depthwise_conv2d_24/depthwise_kernel", "shape": [1, 1, 256, 1], "dtype": "float32"}, {"name": "depthwise_conv2d_3/depthwise_kernel", "shape": [3, 3, 144, 1], "dtype": "float32"}, {"name": "depthwise_conv2d_4/depthwise_kernel", "shape": [3, 3, 144, 1], "dtype": "float32"}, {"name": "depthwise_conv2d_5/depthwise_kernel", "shape": [3, 3, 192, 1], "dtype": "float32"}, {"name": "depthwise_conv2d_6/depthwise_kernel", "shape": [3, 3, 192, 1], "dtype": "float32"}, {"name": "depthwise_conv2d_7/depthwise_kernel", "shape": [3, 3, 192, 1], "dtype": "float32"}, {"name": "depthwise_conv2d_8/depthwise_kernel", "shape": [3, 3, 384, 1], "dtype": "float32"}, {"name": "depthwise_conv2d_9/depthwise_kernel", "shape": [3, 3, 384, 1], "dtype": "float32"}]}]}